I1014 20:12:15.644034 15445 caffe.cpp:224] Use CPU.
I1014 20:12:15.645380 15445 net.cpp:45] Initializing net from parameters: 
name: "AlexNet"
input: "data"
input_dim: 128
input_dim: 3
input_dim: 227
input_dim: 227
state {
  phase: TRAIN
}
layer {
  name: "pack1"
  type: "IntelPack"
  bottom: "data"
  top: "pack1"
}
layer {
  name: "conv1"
  type: "Convolution"
  bottom: "pack1"
  top: "conv1"
  convolution_param {
    num_output: 64
    kernel_size: 11
    stride: 4
    engine: INTEL
  }
}
layer {
  name: "relu1"
  type: "ReLU"
  bottom: "conv1"
  top: "conv1"
}
layer {
  name: "pool1"
  type: "Pooling"
  bottom: "conv1"
  top: "pool1"
  pooling_param {
    pool: MAX
    kernel_size: 3
    stride: 2
    engine: INTEL
  }
}
layer {
  name: "conv2"
  type: "Convolution"
  bottom: "pool1"
  top: "conv2"
  convolution_param {
    num_output: 192
    pad: 2
    kernel_size: 5
    engine: INTEL
  }
}
layer {
  name: "relu2"
  type: "ReLU"
  bottom: "conv2"
  top: "conv2"
}
layer {
  name: "pool2"
  type: "Pooling"
  bottom: "conv2"
  top: "pool2"
  pooling_param {
    pool: MAX
    kernel_size: 3
    stride: 2
    engine: INTEL
  }
}
layer {
  name: "conv3"
  type: "Convolution"
  bottom: "pool2"
  top: "conv3"
  convolution_param {
    num_output: 384
    pad: 1
    kernel_size: 3
    engine: INTEL
  }
}
layer {
  name: "relu3"
  type: "ReLU"
  bottom: "conv3"
  top: "conv3"
}
layer {
  name: "conv4"
  type: "Convolution"
  bottom: "conv3"
  top: "conv4"
  convolution_param {
    num_output: 256
    pad: 1
    kernel_size: 3
    engine: INTEL
  }
}
layer {
  name: "relu4"
  type: "ReLU"
  bottom: "conv4"
  top: "conv4"
}
layer {
  name: "conv5"
  type: "Convolution"
  bottom: "conv4"
  top: "conv5"
  convolution_param {
    num_output: 256
    pad: 1
    kernel_size: 3
    engine: INTEL
  }
}
layer {
  name: "relu5"
  type: "ReLU"
  bottom: "conv5"
  top: "conv5"
}
layer {
  name: "pool5"
  type: "Pooling"
  bottom: "conv5"
  top: "pool5"
  pooling_param {
    pool: MAX
    kernel_size: 3
    stride: 2
    engine: INTEL
  }
}
layer {
  name: "unpack6"
  type: "IntelUnpack"
  bottom: "pool5"
  top: "unpack6"
}
layer {
  name: "fc6"
  type: "InnerProduct"
  bottom: "unpack6"
  top: "fc6"
  inner_product_param {
    num_output: 4096
  }
}
layer {
  name: "fc7"
  type: "InnerProduct"
  bottom: "fc6"
  top: "fc7"
  inner_product_param {
    num_output: 4096
  }
}
layer {
  name: "fc8"
  type: "InnerProduct"
  bottom: "fc7"
  top: "fc8"
  inner_product_param {
    num_output: 1000
  }
}
I1014 20:12:15.645562 15445 net.cpp:346] Input 0 -> data
I1014 20:12:15.645597 15445 layer_factory.hpp:74] Creating layer pack1
I1014 20:12:15.645606 15445 net.cpp:87] Creating Layer pack1
I1014 20:12:15.645611 15445 net.cpp:386] pack1 <- data
I1014 20:12:15.645617 15445 net.cpp:344] pack1 -> pack1
I1014 20:12:15.645625 15445 net.cpp:116] Setting up pack1
I1014 20:12:15.645633 15445 net.cpp:126] Top shape: 128 3 227 227 (19787136)
I1014 20:12:15.645653 15445 layer_factory.hpp:74] Creating layer conv1
I1014 20:12:15.645659 15445 net.cpp:87] Creating Layer conv1
I1014 20:12:15.645663 15445 net.cpp:386] conv1 <- pack1
I1014 20:12:15.645666 15445 net.cpp:344] conv1 -> conv1
I1014 20:12:15.645673 15445 net.cpp:116] Setting up conv1
I1014 20:12:15.647083 15445 net.cpp:126] Top shape: 128 64 55 55 (24780800)
I1014 20:12:15.647109 15445 layer_factory.hpp:74] Creating layer relu1
I1014 20:12:15.647117 15445 net.cpp:87] Creating Layer relu1
I1014 20:12:15.647122 15445 net.cpp:386] relu1 <- conv1
I1014 20:12:15.647128 15445 net.cpp:333] relu1 -> conv1 (in-place)
I1014 20:12:15.647136 15445 net.cpp:116] Setting up relu1
I1014 20:12:15.647142 15445 net.cpp:126] Top shape: 128 64 55 55 (24780800)
I1014 20:12:15.647148 15445 layer_factory.hpp:74] Creating layer pool1
I1014 20:12:15.647156 15445 net.cpp:87] Creating Layer pool1
I1014 20:12:15.647161 15445 net.cpp:386] pool1 <- conv1
I1014 20:12:15.647167 15445 net.cpp:344] pool1 -> pool1
I1014 20:12:15.647177 15445 net.cpp:344] pool1 -> (automatic)
I1014 20:12:15.647184 15445 net.cpp:116] Setting up pool1
I1014 20:12:15.647199 15445 net.cpp:126] Top shape: 128 64 27 27 (5971968)
I1014 20:12:15.647212 15445 net.cpp:126] Top shape: 128 64 27 27 (5971968)
I1014 20:12:15.647218 15445 layer_factory.hpp:74] Creating layer conv2
I1014 20:12:15.647227 15445 net.cpp:87] Creating Layer conv2
I1014 20:12:15.647230 15445 net.cpp:386] conv2 <- pool1
I1014 20:12:15.647238 15445 net.cpp:344] conv2 -> conv2
I1014 20:12:15.647244 15445 net.cpp:116] Setting up conv2
I1014 20:12:15.661705 15445 net.cpp:126] Top shape: 128 192 27 27 (17915904)
I1014 20:12:15.661756 15445 layer_factory.hpp:74] Creating layer relu2
I1014 20:12:15.661770 15445 net.cpp:87] Creating Layer relu2
I1014 20:12:15.661775 15445 net.cpp:386] relu2 <- conv2
I1014 20:12:15.661784 15445 net.cpp:333] relu2 -> conv2 (in-place)
I1014 20:12:15.661794 15445 net.cpp:116] Setting up relu2
I1014 20:12:15.661800 15445 net.cpp:126] Top shape: 128 192 27 27 (17915904)
I1014 20:12:15.661806 15445 layer_factory.hpp:74] Creating layer pool2
I1014 20:12:15.661814 15445 net.cpp:87] Creating Layer pool2
I1014 20:12:15.661818 15445 net.cpp:386] pool2 <- conv2
I1014 20:12:15.661825 15445 net.cpp:344] pool2 -> pool2
I1014 20:12:15.661835 15445 net.cpp:344] pool2 -> (automatic)
I1014 20:12:15.661841 15445 net.cpp:116] Setting up pool2
I1014 20:12:15.661854 15445 net.cpp:126] Top shape: 128 192 13 13 (4153344)
I1014 20:12:15.661859 15445 net.cpp:126] Top shape: 128 192 13 13 (4153344)
I1014 20:12:15.661865 15445 layer_factory.hpp:74] Creating layer conv3
I1014 20:12:15.661875 15445 net.cpp:87] Creating Layer conv3
I1014 20:12:15.661880 15445 net.cpp:386] conv3 <- pool2
I1014 20:12:15.661885 15445 net.cpp:344] conv3 -> conv3
I1014 20:12:15.661895 15445 net.cpp:116] Setting up conv3
I1014 20:12:15.682240 15445 net.cpp:126] Top shape: 128 384 13 13 (8306688)
I1014 20:12:15.682286 15445 layer_factory.hpp:74] Creating layer relu3
I1014 20:12:15.682299 15445 net.cpp:87] Creating Layer relu3
I1014 20:12:15.682306 15445 net.cpp:386] relu3 <- conv3
I1014 20:12:15.682313 15445 net.cpp:333] relu3 -> conv3 (in-place)
I1014 20:12:15.682323 15445 net.cpp:116] Setting up relu3
I1014 20:12:15.682328 15445 net.cpp:126] Top shape: 128 384 13 13 (8306688)
I1014 20:12:15.682334 15445 layer_factory.hpp:74] Creating layer conv4
I1014 20:12:15.682344 15445 net.cpp:87] Creating Layer conv4
I1014 20:12:15.682348 15445 net.cpp:386] conv4 <- conv3
I1014 20:12:15.682355 15445 net.cpp:344] conv4 -> conv4
I1014 20:12:15.682363 15445 net.cpp:116] Setting up conv4
I1014 20:12:15.711390 15445 net.cpp:126] Top shape: 128 256 13 13 (5537792)
I1014 20:12:15.711432 15445 layer_factory.hpp:74] Creating layer relu4
I1014 20:12:15.711444 15445 net.cpp:87] Creating Layer relu4
I1014 20:12:15.711451 15445 net.cpp:386] relu4 <- conv4
I1014 20:12:15.711458 15445 net.cpp:333] relu4 -> conv4 (in-place)
I1014 20:12:15.711468 15445 net.cpp:116] Setting up relu4
I1014 20:12:15.711474 15445 net.cpp:126] Top shape: 128 256 13 13 (5537792)
I1014 20:12:15.711480 15445 layer_factory.hpp:74] Creating layer conv5
I1014 20:12:15.711489 15445 net.cpp:87] Creating Layer conv5
I1014 20:12:15.711493 15445 net.cpp:386] conv5 <- conv4
I1014 20:12:15.711500 15445 net.cpp:344] conv5 -> conv5
I1014 20:12:15.711509 15445 net.cpp:116] Setting up conv5
I1014 20:12:15.731266 15445 net.cpp:126] Top shape: 128 256 13 13 (5537792)
I1014 20:12:15.731313 15445 layer_factory.hpp:74] Creating layer relu5
I1014 20:12:15.731326 15445 net.cpp:87] Creating Layer relu5
I1014 20:12:15.731333 15445 net.cpp:386] relu5 <- conv5
I1014 20:12:15.731341 15445 net.cpp:333] relu5 -> conv5 (in-place)
I1014 20:12:15.731350 15445 net.cpp:116] Setting up relu5
I1014 20:12:15.731356 15445 net.cpp:126] Top shape: 128 256 13 13 (5537792)
I1014 20:12:15.731362 15445 layer_factory.hpp:74] Creating layer pool5
I1014 20:12:15.731370 15445 net.cpp:87] Creating Layer pool5
I1014 20:12:15.731374 15445 net.cpp:386] pool5 <- conv5
I1014 20:12:15.731381 15445 net.cpp:344] pool5 -> pool5
I1014 20:12:15.731390 15445 net.cpp:344] pool5 -> (automatic)
I1014 20:12:15.731397 15445 net.cpp:116] Setting up pool5
I1014 20:12:15.731408 15445 net.cpp:126] Top shape: 128 256 6 6 (1179648)
I1014 20:12:15.731426 15445 net.cpp:126] Top shape: 128 256 6 6 (1179648)
I1014 20:12:15.731432 15445 layer_factory.hpp:74] Creating layer unpack6
I1014 20:12:15.731439 15445 net.cpp:87] Creating Layer unpack6
I1014 20:12:15.731443 15445 net.cpp:386] unpack6 <- pool5
I1014 20:12:15.731451 15445 net.cpp:344] unpack6 -> unpack6
I1014 20:12:15.731457 15445 net.cpp:116] Setting up unpack6
I1014 20:12:15.731463 15445 net.cpp:126] Top shape: 128 256 6 6 (1179648)
I1014 20:12:15.731469 15445 layer_factory.hpp:74] Creating layer fc6
I1014 20:12:15.731477 15445 net.cpp:87] Creating Layer fc6
I1014 20:12:15.731482 15445 net.cpp:386] fc6 <- unpack6
I1014 20:12:15.731488 15445 net.cpp:344] fc6 -> fc6
I1014 20:12:15.731500 15445 net.cpp:116] Setting up fc6
I1014 20:12:15.754029 15445 net.cpp:126] Top shape: 128 4096 (524288)
I1014 20:12:15.754068 15445 layer_factory.hpp:74] Creating layer fc7
I1014 20:12:15.754083 15445 net.cpp:87] Creating Layer fc7
I1014 20:12:15.754089 15445 net.cpp:386] fc7 <- fc6
I1014 20:12:15.754099 15445 net.cpp:344] fc7 -> fc7
I1014 20:12:15.754109 15445 net.cpp:116] Setting up fc7
I1014 20:12:15.764448 15445 net.cpp:126] Top shape: 128 4096 (524288)
I1014 20:12:15.764487 15445 layer_factory.hpp:74] Creating layer fc8
I1014 20:12:15.764499 15445 net.cpp:87] Creating Layer fc8
I1014 20:12:15.764505 15445 net.cpp:386] fc8 <- fc7
I1014 20:12:15.764514 15445 net.cpp:344] fc8 -> fc8
I1014 20:12:15.764528 15445 net.cpp:116] Setting up fc8
I1014 20:12:15.766729 15445 net.cpp:126] Top shape: 128 1000 (128000)
I1014 20:12:15.766767 15445 net.cpp:175] fc8 does not need backward computation.
I1014 20:12:15.766772 15445 net.cpp:175] fc7 does not need backward computation.
I1014 20:12:15.766777 15445 net.cpp:175] fc6 does not need backward computation.
I1014 20:12:15.766782 15445 net.cpp:175] unpack6 does not need backward computation.
I1014 20:12:15.766787 15445 net.cpp:175] pool5 does not need backward computation.
…
I1022 00:41:17.451186  4375 net.cpp:263] The NetState phase (0) differed from the phase (1) specified by a rule in layer accuracy
I1022 00:41:17.451192  4375 net.cpp:45] Initializing net from parameters: 
name: "AlexNet"
state {
  phase: TRAIN
}
layer {
  name: "data"
  type: "Data"
  top: "data"
  top: "label"
  include {
    phase: TRAIN
  }
  transform_param {
    mirror: true
    crop_size: 227
    mean_file: "data/ilsvrc12/imagenet_mean.binaryproto"
  }
  data_param {
    source: "/home/awesomebox/code/caffe/examples/imagenet/ilsvrc12_train_lmdb"
    batch_size: 256
    backend: LMDB
  }
}
layer {
  name: "pack1"
  type: "IntelPack"
  bottom: "data"
  top: "pack1"
}
layer {
  name: "conv1"
  type: "Convolution"
  bottom: "pack1"
  top: "conv1"
  param {
    lr_mult: 1
    decay_mult: 1
  }
  param {
    lr_mult: 2
    decay_mult: 0
  }
  convolution_param {
    num_output: 96
    kernel_size: 11
    stride: 4
    weight_filler {
      type: "gaussian"
      std: 0.01
    }
    bias_filler {
      type: "constant"
      value: 0
    }
    engine: INTEL
  }
}
layer {
  name: "relu1"
  type: "ReLU"
  bottom: "conv1"
  top: "conv1"
}
layer {
  name: "norm1"
  type: "IntelLRN"
  bottom: "conv1"
  top: "norm1"
  lrn_param {
    local_size: 5
    alpha: 0.0001
    beta: 0.75
  }
}
layer {
  name: "pool1"
  type: "Pooling"
  bottom: "norm1"
  top: "pool1"
  pooling_param {
    pool: MAX
    kernel_size: 3
    stride: 2
    engine: INTEL
  }
}
layer {
  name: "conv2"
  type: "Convolution"
  bottom: "pool1"
  top: "conv2"
  param {
    lr_mult: 1
    decay_mult: 1
  }
  param {
    lr_mult: 2
    decay_mult: 0
  }
  convolution_param {
    num_output: 256
    pad: 2
    kernel_size: 5
    group: 2
    weight_filler {
      type: "gaussian"
      std: 0.01
    }
    bias_filler {
      type: "constant"
      value: 0.1
    }
    engine: INTEL
  }
}
layer {
  name: "relu2"
  type: "ReLU"
  bottom: "conv2"
  top: "conv2"
}
layer {
  name: "norm2"
  type: "IntelLRN"
  bottom: "conv2"
  top: "norm2"
  lrn_param {
    local_size: 5
    alpha: 0.0001
    beta: 0.75
  }
}
layer {
  name: "pool2"
  type: "Pooling"
  bottom: "norm2"
  top: "pool2"
  pooling_param {
    pool: MAX
    kernel_size: 3
    stride: 2
    engine: INTEL
  }
}
layer {
  name: "conv3"
  type: "Convolution"
  bottom: "pool2"
  top: "conv3"
  param {
    lr_mult: 1
    decay_mult: 1
  }
  param {
    lr_mult: 2
    decay_mult: 0
  }
  convolution_param {
    num_output: 384
    pad: 1
    kernel_size: 3
    weight_filler {
      type: "gaussian"
      std: 0.01
    }
    bias_filler {
      type: "constant"
      value: 0
    }
    engine: INTEL
  }
}
layer {
  name: "relu3"
  type: "ReLU"
  bottom: "conv3"
  top: "conv3"
}
layer {
  name: "conv4"
  type: "Convolution"
  bottom: "conv3"
  top: "conv4"
  param {
    lr_mult: 1
    decay_mult: 1
  }
  param {
    lr_mult: 2
    decay_mult: 0
  }
  convolution_param {
    num_output: 384
    pad: 1
    kernel_size: 3
    group: 2
    weight_filler {
      type: "gaussian"
      std: 0.01
    }
    bias_filler {
      type: "constant"
      value: 0.1
    }
    engine: INTEL
  }
}
layer {
  name: "relu4"
  type: "ReLU"
  bottom: "conv4"
  top: "conv4"
}
layer {
  name: "conv5"
  type: "Convolution"
  bottom: "conv4"
  top: "conv5"
  param {
    lr_mult: 1
    decay_mult: 1
  }
  param {
    lr_mult: 2
    decay_mult: 0
  }
  convolution_param {
    num_output: 256
    pad: 1
    kernel_size: 3
    group: 2
    weight_filler {
      type: "gaussian"
      std: 0.01
    }
    bias_filler {
      type: "constant"
      value: 0.1
    }
    engine: INTEL
  }
}
layer {
  name: "relu5"
  type: "ReLU"
  bottom: "conv5"
  top: "conv5"
}
layer {
  name: "pool5"
  type: "Pooling"
  bottom: "conv5"
  top: "pool5"
  pooling_param {
    pool: MAX
    kernel_size: 3
    stride: 2
    engine: INTEL
  }
}
layer {
  name: "unpack6"
  type: "IntelUnpack"
  bottom: "pool5"
  top: "unpack6"
}
layer {
  name: "fc6"
  type: "InnerProduct"
  bottom: "unpack6"
  top: "fc6"
  param {
    lr_mult: 1
    decay_mult: 1
  }
  param {
    lr_mult: 2
    decay_mult: 0
  }
  inner_product_param {
    num_output: 4096
    weight_filler {
      type: "gaussian"
      std: 0.005
    }
    bias_filler {
      type: "constant"
      value: 0.1
    }
  }
}
layer {
  name: "relu6"
  type: "ReLU"
  bottom: "fc6"
  top: "fc6"
}
layer {
  name: "drop6"
  type: "Dropout"
  bottom: "fc6"
  top: "fc6"
  dropout_param {
    dropout_ratio: 0.5
  }
}
layer {
  name: "fc7"
  type: "InnerProduct"
  bottom: "fc6"
  top: "fc7"
  param {
    lr_mult: 1
    decay_mult: 1
  }
  param {
    lr_mult: 2
    decay_mult: 0
  }
  inner_product_param {
    num_output: 4096
    weight_filler {
      type: "gaussian"
      std: 0.005
    }
    bias_filler {
      type: "constant"
      value: 0.1
    }
  }
}
layer {
  name: "relu7"
  type: "ReLU"
  bottom: "fc7"
  top: "fc7"
}
layer {
  name: "drop7"
  type: "Dropout"
  bottom: "fc7"
  top: "fc7"
  dropout_param {
    dropout_ratio: 0.5
  }
}
layer {
  name: "fc8"
  type: "InnerProduct"
  bottom: "fc7"
  top: "fc8"
  param {
    lr_mult: 1
    decay_mult: 1
  }
  param {
    lr_mult: 2
    decay_mult: 0
  }
  inner_product_param {
    num_output: 1000
    weight_filler {
      type: "gaussian"
      std: 0.01
    }
    bias_filler {
      type: "constant"
      value: 0
    }
  }
}
layer {
  name: "loss"
  type: "SoftmaxWithLoss"
  bottom: "fc8"
  bottom: "label"
  top: "loss"
}
I1022 00:41:17.451481  4375 layer_factory.hpp:74] Creating layer data
I1022 00:41:17.451495  4375 net.cpp:87] Creating Layer data
I1022 00:41:17.451501  4375 net.cpp:344] data -> data
I1022 00:41:17.451519  4375 net.cpp:344] data -> label
I1022 00:41:17.451526  4375 net.cpp:116] Setting up data
I1022 00:41:17.451575  4375 db.cpp:35] Opened lmdb /home/awesomebox/code/caffe/examples/imagenet/ilsvrc12_train_lmdb
I1022 00:41:17.451719  4375 data_layer.cpp:109] output data size: 256,3,227,227
I1022 00:41:17.451728  4375 data_transformer.cpp:22] Loading mean file from: data/ilsvrc12/imagenet_mean.binaryproto
I1022 00:41:17.613862  4375 net.cpp:126] Top shape: 256 3 227 227 (39574272)
I1022 00:41:17.613934  4375 net.cpp:126] Top shape: 256 (256)
I1022 00:41:17.613950  4375 layer_factory.hpp:74] Creating layer pack1
I1022 00:41:17.613965  4375 net.cpp:87] Creating Layer pack1
I1022 00:41:17.613972  4375 net.cpp:386] pack1 <- data
I1022 00:41:17.613989  4375 net.cpp:344] pack1 -> pack1
I1022 00:41:17.614002  4375 net.cpp:116] Setting up pack1
I1022 00:41:17.614012  4375 net.cpp:126] Top shape: 256 3 227 227 (39574272)
I1022 00:41:17.614018  4375 layer_factory.hpp:74] Creating layer conv1
I1022 00:41:17.614033  4375 net.cpp:87] Creating Layer conv1
I1022 00:41:17.614037  4375 net.cpp:386] conv1 <- pack1
I1022 00:41:17.614045  4375 net.cpp:344] conv1 -> conv1
I1022 00:41:17.614059  4375 net.cpp:116] Setting up conv1
I1022 00:41:17.620597  4375 net.cpp:126] Top shape: 256 96 55 55 (74342400)
I1022 00:41:17.620625  4375 layer_factory.hpp:74] Creating layer relu1
I1022 00:41:17.620635  4375 net.cpp:87] Creating Layer relu1
I1022 00:41:17.620640  4375 net.cpp:386] relu1 <- conv1
I1022 00:41:17.620647  4375 net.cpp:333] relu1 -> conv1 (in-place)
I1022 00:41:17.620654  4375 net.cpp:116] Setting up relu1
I1022 00:41:17.620661  4375 net.cpp:126] Top shape: 256 96 55 55 (74342400)
I1022 00:41:17.620667  4375 layer_factory.hpp:74] Creating layer norm1
I1022 00:41:17.620676  4375 net.cpp:87] Creating Layer norm1
I1022 00:41:17.620682  4375 net.cpp:386] norm1 <- conv1
I1022 00:41:17.620687  4375 net.cpp:344] norm1 -> norm1
I1022 00:41:17.620698  4375 net.cpp:116] Setting up norm1
I1022 00:41:17.620708  4375 net.cpp:126] Top shape: 256 96 55 55 (74342400)
I1022 00:41:17.620714  4375 layer_factory.hpp:74] Creating layer pool1
I1022 00:41:17.620723  4375 net.cpp:87] Creating Layer pool1
I1022 00:41:17.620728  4375 net.cpp:386] pool1 <- norm1
I1022 00:41:17.620734  4375 net.cpp:344] pool1 -> pool1
I1022 00:41:17.620745  4375 net.cpp:344] pool1 -> (automatic)
I1022 00:41:17.620753  4375 net.cpp:116] Setting up pool1
I1022 00:41:17.620767  4375 net.cpp:126] Top shape: 256 96 27 27 (17915904)
I1022 00:41:17.620774  4375 net.cpp:126] Top shape: 256 96 27 27 (17915904)
I1022 00:41:17.620780  4375 layer_factory.hpp:74] Creating layer conv2
I1022 00:41:17.620790  4375 net.cpp:87] Creating Layer conv2
I1022 00:41:17.620793  4375 net.cpp:386] conv2 <- pool1
I1022 00:41:17.620801  4375 net.cpp:344] conv2 -> conv2
I1022 00:41:17.620810  4375 net.cpp:116] Setting up conv2
I1022 00:41:17.769460  4375 net.cpp:126] Top shape: 256 256 27 27 (47775744)
I1022 00:41:17.769510  4375 layer_factory.hpp:74] Creating layer relu2
I1022 00:41:17.769525  4375 net.cpp:87] Creating Layer relu2
I1022 00:41:17.769531  4375 net.cpp:386] relu2 <- conv2
I1022 00:41:17.769541  4375 net.cpp:333] relu2 -> conv2 (in-place)
I1022 00:41:17.769549  4375 net.cpp:116] Setting up relu2
I1022 00:41:17.769554  4375 net.cpp:126] Top shape: 256 256 27 27 (47775744)
I1022 00:41:17.769562  4375 layer_factory.hpp:74] Creating layer norm2
I1022 00:41:17.769572  4375 net.cpp:87] Creating Layer norm2
I1022 00:41:17.769577  4375 net.cpp:386] norm2 <- conv2
I1022 00:41:17.769583  4375 net.cpp:344] norm2 -> norm2
I1022 00:41:17.769603  4375 net.cpp:116] Setting up norm2
I1022 00:41:17.769613  4375 net.cpp:126] Top shape: 256 256 27 27 (47775744)
I1022 00:41:17.769619  4375 layer_factory.hpp:74] Creating layer pool2
I1022 00:41:17.769628  4375 net.cpp:87] Creating Layer pool2
I1022 00:41:17.769632  4375 net.cpp:386] pool2 <- norm2
I1022 00:41:17.769639  4375 net.cpp:344] pool2 -> pool2
I1022 00:41:17.769649  4375 net.cpp:344] pool2 -> (automatic)
I1022 00:41:17.769654  4375 net.cpp:116] Setting up pool2
I1022 00:41:17.769665  4375 net.cpp:126] Top shape: 256 256 13 13 (11075584)
I1022 00:41:17.769672  4375 net.cpp:126] Top shape: 256 256 13 13 (11075584)
I1022 00:41:17.769680  4375 layer_factory.hpp:74] Creating layer conv3
I1022 00:41:17.769690  4375 net.cpp:87] Creating Layer conv3
I1022 00:41:17.769695  4375 net.cpp:386] conv3 <- pool2
I1022 00:41:17.769703  4375 net.cpp:344] conv3 -> conv3
I1022 00:41:17.769712  4375 net.cpp:116] Setting up conv3
I1022 00:41:17.932358  4375 net.cpp:126] Top shape: 256 384 13 13 (16613376)
I1022 00:41:17.932410  4375 layer_factory.hpp:74] Creating layer relu3
I1022 00:41:17.932425  4375 net.cpp:87] Creating Layer relu3
I1022 00:41:17.932431  4375 net.cpp:386] relu3 <- conv3
I1022 00:41:17.932440  4375 net.cpp:333] relu3 -> conv3 (in-place)
I1022 00:41:17.932451  4375 net.cpp:116] Setting up relu3
I1022 00:41:17.932456  4375 net.cpp:126] Top shape: 256 384 13 13 (16613376)
I1022 00:41:17.932462  4375 layer_factory.hpp:74] Creating layer conv4
I1022 00:41:17.932474  4375 net.cpp:87] Creating Layer conv4
I1022 00:41:17.932479  4375 net.cpp:386] conv4 <- conv3
I1022 00:41:17.932487  4375 net.cpp:344] conv4 -> conv4
I1022 00:41:17.932497  4375 net.cpp:116] Setting up conv4
I1022 00:41:18.103101  4375 net.cpp:126] Top shape: 256 384 13 13 (16613376)
I1022 00:41:18.103149  4375 layer_factory.hpp:74] Creating layer relu4
I1022 00:41:18.103164  4375 net.cpp:87] Creating Layer relu4
I1022 00:41:18.103170  4375 net.cpp:386] relu4 <- conv4
I1022 00:41:18.103180  4375 net.cpp:333] relu4 -> conv4 (in-place)
I1022 00:41:18.103190  4375 net.cpp:116] Setting up relu4
I1022 00:41:18.103195  4375 net.cpp:126] Top shape: 256 384 13 13 (16613376)
I1022 00:41:18.103202  4375 layer_factory.hpp:74] Creating layer conv5
I1022 00:41:18.103214  4375 net.cpp:87] Creating Layer conv5
I1022 00:41:18.103219  4375 net.cpp:386] conv5 <- conv4
I1022 00:41:18.103226  4375 net.cpp:344] conv5 -> conv5
I1022 00:41:18.103236  4375 net.cpp:116] Setting up conv5
I1022 00:41:18.255564  4375 net.cpp:126] Top shape: 256 256 13 13 (11075584)
I1022 00:41:18.255616  4375 layer_factory.hpp:74] Creating layer relu5
I1022 00:41:18.255631  4375 net.cpp:87] Creating Layer relu5
I1022 00:41:18.255637  4375 net.cpp:386] relu5 <- conv5
I1022 00:41:18.255646  4375 net.cpp:333] relu5 -> conv5 (in-place)
I1022 00:41:18.255656  4375 net.cpp:116] Setting up relu5
I1022 00:41:18.255661  4375 net.cpp:126] Top shape: 256 256 13 13 (11075584)
I1022 00:41:18.255668  4375 layer_factory.hpp:74] Creating layer pool5
I1022 00:41:18.255678  4375 net.cpp:87] Creating Layer pool5
I1022 00:41:18.255682  4375 net.cpp:386] pool5 <- conv5
I1022 00:41:18.255689  4375 net.cpp:344] pool5 -> pool5
I1022 00:41:18.255699  4375 net.cpp:344] pool5 -> (automatic)
I1022 00:41:18.255707  4375 net.cpp:116] Setting up pool5
I1022 00:41:18.255718  4375 net.cpp:126] Top shape: 256 256 6 6 (2359296)
I1022 00:41:18.255724  4375 net.cpp:126] Top shape: 256 256 6 6 (2359296)
I1022 00:41:18.255731  4375 layer_factory.hpp:74] Creating layer unpack6
I1022 00:41:18.255738  4375 net.cpp:87] Creating Layer unpack6
I1022 00:41:18.255743  4375 net.cpp:386] unpack6 <- pool5
I1022 00:41:18.255749  4375 net.cpp:344] unpack6 -> unpack6
I1022 00:41:18.255759  4375 net.cpp:116] Setting up unpack6
I1022 00:41:18.255765  4375 net.cpp:126] Top shape: 256 256 6 6 (2359296)
I1022 00:41:18.255771  4375 layer_factory.hpp:74] Creating layer fc6
I1022 00:41:18.255782  4375 net.cpp:87] Creating Layer fc6
I1022 00:41:18.255787  4375 net.cpp:386] fc6 <- unpack6
I1022 00:41:18.255795  4375 net.cpp:344] fc6 -> fc6
I1022 00:41:18.255818  4375 net.cpp:116] Setting up fc6
I1022 00:41:19.192986  4375 net.cpp:126] Top shape: 256 4096 (1048576)
I1022 00:41:19.193033  4375 layer_factory.hpp:74] Creating layer relu6
I1022 00:41:19.193048  4375 net.cpp:87] Creating Layer relu6
I1022 00:41:19.193054  4375 net.cpp:386] relu6 <- fc6
I1022 00:41:19.193064  4375 net.cpp:333] relu6 -> fc6 (in-place)
I1022 00:41:19.193074  4375 net.cpp:116] Setting up relu6
I1022 00:41:19.193079  4375 net.cpp:126] Top shape: 256 4096 (1048576)
I1022 00:41:19.193086  4375 layer_factory.hpp:74] Creating layer drop6
I1022 00:41:19.193095  4375 net.cpp:87] Creating Layer drop6
I1022 00:41:19.193099  4375 net.cpp:386] drop6 <- fc6
I1022 00:41:19.193107  4375 net.cpp:333] drop6 -> fc6 (in-place)
I1022 00:41:19.193119  4375 net.cpp:116] Setting up drop6
I1022 00:41:19.193130  4375 net.cpp:126] Top shape: 256 4096 (1048576)
I1022 00:41:19.193135  4375 layer_factory.hpp:74] Creating layer fc7
I1022 00:41:19.193145  4375 net.cpp:87] Creating Layer fc7
I1022 00:41:19.193150  4375 net.cpp:386] fc7 <- fc6
I1022 00:41:19.193158  4375 net.cpp:344] fc7 -> fc7
I1022 00:41:19.193168  4375 net.cpp:116] Setting up fc7
I1022 00:41:19.708600  4375 net.cpp:126] Top shape: 256 4096 (1048576)
I1022 00:41:19.708643  4375 layer_factory.hpp:74] Creating layer relu7
I1022 00:41:19.708657  4375 net.cpp:87] Creating Layer relu7
I1022 00:41:19.708662  4375 net.cpp:386] relu7 <- fc7
I1022 00:41:19.708673  4375 net.cpp:333] relu7 -> fc7 (in-place)
I1022 00:41:19.708681  4375 net.cpp:116] Setting up relu7
I1022 00:41:19.708688  4375 net.cpp:126] Top shape: 256 4096 (1048576)
I1022 00:41:19.708693  4375 layer_factory.hpp:74] Creating layer drop7
I1022 00:41:19.708701  4375 net.cpp:87] Creating Layer drop7
I1022 00:41:19.708706  4375 net.cpp:386] drop7 <- fc7
I1022 00:41:19.708712  4375 net.cpp:333] drop7 -> fc7 (in-place)
I1022 00:41:19.708719  4375 net.cpp:116] Setting up drop7
I1022 00:41:19.708727  4375 net.cpp:126] Top shape: 256 4096 (1048576)
I1022 00:41:19.708734  4375 layer_factory.hpp:74] Creating layer fc8
I1022 00:41:19.708744  4375 net.cpp:87] Creating Layer fc8
I1022 00:41:19.708747  4375 net.cpp:386] fc8 <- fc7
I1022 00:41:19.708755  4375 net.cpp:344] fc8 -> fc8
I1022 00:41:19.708765  4375 net.cpp:116] Setting up fc8
I1022 00:41:19.919400  4375 net.cpp:126] Top shape: 256 1000 (256000)
I1022 00:41:19.919442  4375 layer_factory.hpp:74] Creating layer loss
I1022 00:41:19.919456  4375 net.cpp:87] Creating Layer loss
I1022 00:41:19.919462  4375 net.cpp:386] loss <- fc8
I1022 00:41:19.919471  4375 net.cpp:386] loss <- label
I1022 00:41:19.919482  4375 net.cpp:344] loss -> loss
I1022 00:41:19.919492  4375 net.cpp:116] Setting up loss
I1022 00:41:19.919502  4375 layer_factory.hpp:74] Creating layer loss
…
