I1014 20:12:15.644034 15445 caffe.cpp:224] Use CPU.
I1014 20:12:15.645380 15445 net.cpp:45] Initializing net from parameters: 
name: "AlexNet"
input: "data"
input_dim: 128
input_dim: 3
input_dim: 227
input_dim: 227
state {
  phase: TRAIN
}
layer {
  name: "pack1"
  type: "IntelPack"
  bottom: "data"
  top: "pack1"
}
layer {
  name: "conv1"
  type: "Convolution"
  bottom: "pack1"
  top: "conv1"
  convolution_param {
    num_output: 64
    kernel_size: 11
    stride: 4
    engine: INTEL
  }
}
layer {
  name: "relu1"
  type: "ReLU"
  bottom: "conv1"
  top: "conv1"
}
layer {
  name: "pool1"
  type: "Pooling"
  bottom: "conv1"
  top: "pool1"
  pooling_param {
    pool: MAX
    kernel_size: 3
    stride: 2
    engine: INTEL
  }
}
layer {
  name: "conv2"
  type: "Convolution"
  bottom: "pool1"
  top: "conv2"
  convolution_param {
    num_output: 192
    pad: 2
    kernel_size: 5
    engine: INTEL
  }
}
layer {
  name: "relu2"
  type: "ReLU"
  bottom: "conv2"
  top: "conv2"
}
layer {
  name: "pool2"
  type: "Pooling"
  bottom: "conv2"
  top: "pool2"
  pooling_param {
    pool: MAX
    kernel_size: 3
    stride: 2
    engine: INTEL
  }
}
layer {
  name: "conv3"
  type: "Convolution"
  bottom: "pool2"
  top: "conv3"
  convolution_param {
    num_output: 384
    pad: 1
    kernel_size: 3
    engine: INTEL
  }
}
layer {
  name: "relu3"
  type: "ReLU"
  bottom: "conv3"
  top: "conv3"
}
layer {
  name: "conv4"
  type: "Convolution"
  bottom: "conv3"
  top: "conv4"
  convolution_param {
    num_output: 256
    pad: 1
    kernel_size: 3
    engine: INTEL
  }
}
layer {
  name: "relu4"
  type: "ReLU"
  bottom: "conv4"
  top: "conv4"
}
layer {
  name: "conv5"
  type: "Convolution"
  bottom: "conv4"
  top: "conv5"
  convolution_param {
    num_output: 256
    pad: 1
    kernel_size: 3
    engine: INTEL
  }
}
layer {
  name: "relu5"
  type: "ReLU"
  bottom: "conv5"
  top: "conv5"
}
layer {
  name: "pool5"
  type: "Pooling"
  bottom: "conv5"
  top: "pool5"
  pooling_param {
    pool: MAX
    kernel_size: 3
    stride: 2
    engine: INTEL
  }
}
layer {
  name: "unpack6"
  type: "IntelUnpack"
  bottom: "pool5"
  top: "unpack6"
}
layer {
  name: "fc6"
  type: "InnerProduct"
  bottom: "unpack6"
  top: "fc6"
  inner_product_param {
    num_output: 4096
  }
}
layer {
  name: "fc7"
  type: "InnerProduct"
  bottom: "fc6"
  top: "fc7"
  inner_product_param {
    num_output: 4096
  }
}
layer {
  name: "fc8"
  type: "InnerProduct"
  bottom: "fc7"
  top: "fc8"
  inner_product_param {
    num_output: 1000
  }
}
I1014 20:12:15.645562 15445 net.cpp:346] Input 0 -> data
I1014 20:12:15.645597 15445 layer_factory.hpp:74] Creating layer pack1
I1014 20:12:15.645606 15445 net.cpp:87] Creating Layer pack1
I1014 20:12:15.645611 15445 net.cpp:386] pack1 <- data
I1014 20:12:15.645617 15445 net.cpp:344] pack1 -> pack1
I1014 20:12:15.645625 15445 net.cpp:116] Setting up pack1
I1014 20:12:15.645633 15445 net.cpp:126] Top shape: 128 3 227 227 (19787136)
I1014 20:12:15.645653 15445 layer_factory.hpp:74] Creating layer conv1
I1014 20:12:15.645659 15445 net.cpp:87] Creating Layer conv1
I1014 20:12:15.645663 15445 net.cpp:386] conv1 <- pack1
I1014 20:12:15.645666 15445 net.cpp:344] conv1 -> conv1
I1014 20:12:15.645673 15445 net.cpp:116] Setting up conv1
I1014 20:12:15.647083 15445 net.cpp:126] Top shape: 128 64 55 55 (24780800)
I1014 20:12:15.647109 15445 layer_factory.hpp:74] Creating layer relu1
I1014 20:12:15.647117 15445 net.cpp:87] Creating Layer relu1
I1014 20:12:15.647122 15445 net.cpp:386] relu1 <- conv1
I1014 20:12:15.647128 15445 net.cpp:333] relu1 -> conv1 (in-place)
I1014 20:12:15.647136 15445 net.cpp:116] Setting up relu1
I1014 20:12:15.647142 15445 net.cpp:126] Top shape: 128 64 55 55 (24780800)
I1014 20:12:15.647148 15445 layer_factory.hpp:74] Creating layer pool1
I1014 20:12:15.647156 15445 net.cpp:87] Creating Layer pool1
I1014 20:12:15.647161 15445 net.cpp:386] pool1 <- conv1
I1014 20:12:15.647167 15445 net.cpp:344] pool1 -> pool1
I1014 20:12:15.647177 15445 net.cpp:344] pool1 -> (automatic)
I1014 20:12:15.647184 15445 net.cpp:116] Setting up pool1
I1014 20:12:15.647199 15445 net.cpp:126] Top shape: 128 64 27 27 (5971968)
I1014 20:12:15.647212 15445 net.cpp:126] Top shape: 128 64 27 27 (5971968)
I1014 20:12:15.647218 15445 layer_factory.hpp:74] Creating layer conv2
I1014 20:12:15.647227 15445 net.cpp:87] Creating Layer conv2
I1014 20:12:15.647230 15445 net.cpp:386] conv2 <- pool1
I1014 20:12:15.647238 15445 net.cpp:344] conv2 -> conv2
I1014 20:12:15.647244 15445 net.cpp:116] Setting up conv2
I1014 20:12:15.661705 15445 net.cpp:126] Top shape: 128 192 27 27 (17915904)
I1014 20:12:15.661756 15445 layer_factory.hpp:74] Creating layer relu2
I1014 20:12:15.661770 15445 net.cpp:87] Creating Layer relu2
I1014 20:12:15.661775 15445 net.cpp:386] relu2 <- conv2
I1014 20:12:15.661784 15445 net.cpp:333] relu2 -> conv2 (in-place)
I1014 20:12:15.661794 15445 net.cpp:116] Setting up relu2
I1014 20:12:15.661800 15445 net.cpp:126] Top shape: 128 192 27 27 (17915904)
I1014 20:12:15.661806 15445 layer_factory.hpp:74] Creating layer pool2
I1014 20:12:15.661814 15445 net.cpp:87] Creating Layer pool2
I1014 20:12:15.661818 15445 net.cpp:386] pool2 <- conv2
I1014 20:12:15.661825 15445 net.cpp:344] pool2 -> pool2
I1014 20:12:15.661835 15445 net.cpp:344] pool2 -> (automatic)
I1014 20:12:15.661841 15445 net.cpp:116] Setting up pool2
I1014 20:12:15.661854 15445 net.cpp:126] Top shape: 128 192 13 13 (4153344)
I1014 20:12:15.661859 15445 net.cpp:126] Top shape: 128 192 13 13 (4153344)
I1014 20:12:15.661865 15445 layer_factory.hpp:74] Creating layer conv3
I1014 20:12:15.661875 15445 net.cpp:87] Creating Layer conv3
I1014 20:12:15.661880 15445 net.cpp:386] conv3 <- pool2
I1014 20:12:15.661885 15445 net.cpp:344] conv3 -> conv3
I1014 20:12:15.661895 15445 net.cpp:116] Setting up conv3
I1014 20:12:15.682240 15445 net.cpp:126] Top shape: 128 384 13 13 (8306688)
I1014 20:12:15.682286 15445 layer_factory.hpp:74] Creating layer relu3
I1014 20:12:15.682299 15445 net.cpp:87] Creating Layer relu3
I1014 20:12:15.682306 15445 net.cpp:386] relu3 <- conv3
I1014 20:12:15.682313 15445 net.cpp:333] relu3 -> conv3 (in-place)
I1014 20:12:15.682323 15445 net.cpp:116] Setting up relu3
I1014 20:12:15.682328 15445 net.cpp:126] Top shape: 128 384 13 13 (8306688)
I1014 20:12:15.682334 15445 layer_factory.hpp:74] Creating layer conv4
I1014 20:12:15.682344 15445 net.cpp:87] Creating Layer conv4
I1014 20:12:15.682348 15445 net.cpp:386] conv4 <- conv3
I1014 20:12:15.682355 15445 net.cpp:344] conv4 -> conv4
I1014 20:12:15.682363 15445 net.cpp:116] Setting up conv4
I1014 20:12:15.711390 15445 net.cpp:126] Top shape: 128 256 13 13 (5537792)
I1014 20:12:15.711432 15445 layer_factory.hpp:74] Creating layer relu4
I1014 20:12:15.711444 15445 net.cpp:87] Creating Layer relu4
I1014 20:12:15.711451 15445 net.cpp:386] relu4 <- conv4
I1014 20:12:15.711458 15445 net.cpp:333] relu4 -> conv4 (in-place)
I1014 20:12:15.711468 15445 net.cpp:116] Setting up relu4
I1014 20:12:15.711474 15445 net.cpp:126] Top shape: 128 256 13 13 (5537792)
I1014 20:12:15.711480 15445 layer_factory.hpp:74] Creating layer conv5
I1014 20:12:15.711489 15445 net.cpp:87] Creating Layer conv5
I1014 20:12:15.711493 15445 net.cpp:386] conv5 <- conv4
I1014 20:12:15.711500 15445 net.cpp:344] conv5 -> conv5
I1014 20:12:15.711509 15445 net.cpp:116] Setting up conv5
I1014 20:12:15.731266 15445 net.cpp:126] Top shape: 128 256 13 13 (5537792)
I1014 20:12:15.731313 15445 layer_factory.hpp:74] Creating layer relu5
I1014 20:12:15.731326 15445 net.cpp:87] Creating Layer relu5
I1014 20:12:15.731333 15445 net.cpp:386] relu5 <- conv5
I1014 20:12:15.731341 15445 net.cpp:333] relu5 -> conv5 (in-place)
I1014 20:12:15.731350 15445 net.cpp:116] Setting up relu5
I1014 20:12:15.731356 15445 net.cpp:126] Top shape: 128 256 13 13 (5537792)
I1014 20:12:15.731362 15445 layer_factory.hpp:74] Creating layer pool5
I1014 20:12:15.731370 15445 net.cpp:87] Creating Layer pool5
I1014 20:12:15.731374 15445 net.cpp:386] pool5 <- conv5
I1014 20:12:15.731381 15445 net.cpp:344] pool5 -> pool5
I1014 20:12:15.731390 15445 net.cpp:344] pool5 -> (automatic)
I1014 20:12:15.731397 15445 net.cpp:116] Setting up pool5
I1014 20:12:15.731408 15445 net.cpp:126] Top shape: 128 256 6 6 (1179648)
I1014 20:12:15.731426 15445 net.cpp:126] Top shape: 128 256 6 6 (1179648)
I1014 20:12:15.731432 15445 layer_factory.hpp:74] Creating layer unpack6
I1014 20:12:15.731439 15445 net.cpp:87] Creating Layer unpack6
I1014 20:12:15.731443 15445 net.cpp:386] unpack6 <- pool5
I1014 20:12:15.731451 15445 net.cpp:344] unpack6 -> unpack6
I1014 20:12:15.731457 15445 net.cpp:116] Setting up unpack6
I1014 20:12:15.731463 15445 net.cpp:126] Top shape: 128 256 6 6 (1179648)
I1014 20:12:15.731469 15445 layer_factory.hpp:74] Creating layer fc6
I1014 20:12:15.731477 15445 net.cpp:87] Creating Layer fc6
I1014 20:12:15.731482 15445 net.cpp:386] fc6 <- unpack6
I1014 20:12:15.731488 15445 net.cpp:344] fc6 -> fc6
I1014 20:12:15.731500 15445 net.cpp:116] Setting up fc6
I1014 20:12:15.754029 15445 net.cpp:126] Top shape: 128 4096 (524288)
I1014 20:12:15.754068 15445 layer_factory.hpp:74] Creating layer fc7
I1014 20:12:15.754083 15445 net.cpp:87] Creating Layer fc7
I1014 20:12:15.754089 15445 net.cpp:386] fc7 <- fc6
I1014 20:12:15.754099 15445 net.cpp:344] fc7 -> fc7
I1014 20:12:15.754109 15445 net.cpp:116] Setting up fc7
I1014 20:12:15.764448 15445 net.cpp:126] Top shape: 128 4096 (524288)
I1014 20:12:15.764487 15445 layer_factory.hpp:74] Creating layer fc8
I1014 20:12:15.764499 15445 net.cpp:87] Creating Layer fc8
I1014 20:12:15.764505 15445 net.cpp:386] fc8 <- fc7
I1014 20:12:15.764514 15445 net.cpp:344] fc8 -> fc8
I1014 20:12:15.764528 15445 net.cpp:116] Setting up fc8
I1014 20:12:15.766729 15445 net.cpp:126] Top shape: 128 1000 (128000)
I1014 20:12:15.766767 15445 net.cpp:175] fc8 does not need backward computation.
I1014 20:12:15.766772 15445 net.cpp:175] fc7 does not need backward computation.
I1014 20:12:15.766777 15445 net.cpp:175] fc6 does not need backward computation.
I1014 20:12:15.766782 15445 net.cpp:175] unpack6 does not need backward computation.
I1014 20:12:15.766787 15445 net.cpp:175] pool5 does not need backward computation.
…
