…
I1022 00:52:56.132969  4656 net.cpp:263] The NetState phase (0) differed from the phase (1) specified by a rule in layer accuracy
I1022 00:52:56.132975  4656 net.cpp:45] Initializing net from parameters: 
name: "AlexNet"
state {
  phase: TRAIN
}
layer {
  name: "data"
  type: "Data"
  top: "data"
  top: "label"
  include {
    phase: TRAIN
  }
  transform_param {
    mirror: true
    crop_size: 227
    mean_file: "data/ilsvrc12/imagenet_mean.binaryproto"
  }
  data_param {
    source: "/home/awesomebox/code/caffe/examples/imagenet/ilsvrc12_train_lmdb"
    batch_size: 256
    backend: LMDB
  }
}
layer {
  name: "pack1"
  type: "IntelPack"
  bottom: "data"
  top: "pack1"
}
layer {
  name: "conv1"
  type: "Convolution"
  bottom: "pack1"
  top: "conv1"
  convolution_param {
    num_output: 64
    kernel_size: 11
    stride: 4
    engine: INTEL
  }
}
layer {
  name: "relu1"
  type: "ReLU"
  bottom: "conv1"
  top: "conv1"
}
layer {
  name: "pool1"
  type: "Pooling"
  bottom: "conv1"
  top: "pool1"
  pooling_param {
    pool: MAX
    kernel_size: 3
    stride: 2
    engine: INTEL
  }
}
layer {
  name: "conv2"
  type: "Convolution"
  bottom: "pool1"
  top: "conv2"
  convolution_param {
    num_output: 192
    pad: 2
    kernel_size: 5
    engine: INTEL
  }
}
layer {
  name: "relu2"
  type: "ReLU"
  bottom: "conv2"
  top: "conv2"
}
layer {
  name: "pool2"
  type: "Pooling"
  bottom: "conv2"
  top: "pool2"
  pooling_param {
    pool: MAX
    kernel_size: 3
    stride: 2
    engine: INTEL
  }
}
layer {
  name: "conv3"
  type: "Convolution"
  bottom: "pool2"
  top: "conv3"
  convolution_param {
    num_output: 384
    pad: 1
    kernel_size: 3
    engine: INTEL
  }
}
layer {
  name: "relu3"
  type: "ReLU"
  bottom: "conv3"
  top: "conv3"
}
layer {
  name: "conv4"
  type: "Convolution"
  bottom: "conv3"
  top: "conv4"
  convolution_param {
    num_output: 256
    pad: 1
    kernel_size: 3
    engine: INTEL
  }
}
layer {
  name: "relu4"
  type: "ReLU"
  bottom: "conv4"
  top: "conv4"
}
layer {
  name: "conv5"
  type: "Convolution"
  bottom: "conv4"
  top: "conv5"
  convolution_param {
    num_output: 256
    pad: 1
    kernel_size: 3
    engine: INTEL
  }
}
layer {
  name: "relu5"
  type: "ReLU"
  bottom: "conv5"
  top: "conv5"
}
layer {
  name: "pool5"
  type: "Pooling"
  bottom: "conv5"
  top: "pool5"
  pooling_param {
    pool: MAX
    kernel_size: 3
    stride: 2
    engine: INTEL
  }
}
layer {
  name: "unpack6"
  type: "IntelUnpack"
  bottom: "pool5"
  top: "unpack6"
}
layer {
  name: "fc6"
  type: "InnerProduct"
  bottom: "unpack6"
  top: "fc6"
  inner_product_param {
    num_output: 4096
  }
}
layer {
  name: "fc7"
  type: "InnerProduct"
  bottom: "fc6"
  top: "fc7"
  inner_product_param {
    num_output: 4096
  }
}
layer {
  name: "fc8"
  type: "InnerProduct"
  bottom: "fc7"
  top: "fc8"
  inner_product_param {
    num_output: 1000
  }
}
layer {
  name: "loss"
  type: "SoftmaxWithLoss"
  bottom: "fc8"
  bottom: "label"
  top: "loss"
}
I1022 00:52:56.133167  4656 layer_factory.hpp:74] Creating layer data
I1022 00:52:56.133182  4656 net.cpp:87] Creating Layer data
I1022 00:52:56.133188  4656 net.cpp:344] data -> data
I1022 00:52:56.133208  4656 net.cpp:344] data -> label
I1022 00:52:56.133215  4656 net.cpp:116] Setting up data
I1022 00:52:56.133282  4656 db.cpp:35] Opened lmdb /home/awesomebox/code/caffe/examples/imagenet/ilsvrc12_train_lmdb
I1022 00:52:56.133424  4656 data_layer.cpp:109] output data size: 256,3,227,227
I1022 00:52:56.133437  4656 data_transformer.cpp:22] Loading mean file from: data/ilsvrc12/imagenet_mean.binaryproto
I1022 00:52:56.190212  4656 net.cpp:126] Top shape: 256 3 227 227 (39574272)
I1022 00:52:56.190289  4656 net.cpp:126] Top shape: 256 (256)
I1022 00:52:56.190304  4656 layer_factory.hpp:74] Creating layer pack1
I1022 00:52:56.190321  4656 net.cpp:87] Creating Layer pack1
I1022 00:52:56.190327  4656 net.cpp:386] pack1 <- data
I1022 00:52:56.190356  4656 net.cpp:344] pack1 -> pack1
I1022 00:52:56.190371  4656 net.cpp:116] Setting up pack1
I1022 00:52:56.190381  4656 net.cpp:126] Top shape: 256 3 227 227 (39574272)
I1022 00:52:56.190387  4656 layer_factory.hpp:74] Creating layer conv1
I1022 00:52:56.190399  4656 net.cpp:87] Creating Layer conv1
I1022 00:52:56.190404  4656 net.cpp:386] conv1 <- pack1
I1022 00:52:56.190412  4656 net.cpp:344] conv1 -> conv1
I1022 00:52:56.190423  4656 net.cpp:116] Setting up conv1
I1022 00:52:56.191079  4656 net.cpp:126] Top shape: 256 64 55 55 (49561600)
I1022 00:52:56.191104  4656 layer_factory.hpp:74] Creating layer relu1
I1022 00:52:56.191113  4656 net.cpp:87] Creating Layer relu1
I1022 00:52:56.191118  4656 net.cpp:386] relu1 <- conv1
I1022 00:52:56.191126  4656 net.cpp:333] relu1 -> conv1 (in-place)
I1022 00:52:56.191134  4656 net.cpp:116] Setting up relu1
I1022 00:52:56.191140  4656 net.cpp:126] Top shape: 256 64 55 55 (49561600)
I1022 00:52:56.191148  4656 layer_factory.hpp:74] Creating layer pool1
I1022 00:52:56.191157  4656 net.cpp:87] Creating Layer pool1
I1022 00:52:56.191161  4656 net.cpp:386] pool1 <- conv1
I1022 00:52:56.191169  4656 net.cpp:344] pool1 -> pool1
I1022 00:52:56.191181  4656 net.cpp:344] pool1 -> (automatic)
I1022 00:52:56.191189  4656 net.cpp:116] Setting up pool1
I1022 00:52:56.191205  4656 net.cpp:126] Top shape: 256 64 27 27 (11943936)
I1022 00:52:56.191210  4656 net.cpp:126] Top shape: 256 64 27 27 (11943936)
I1022 00:52:56.191217  4656 layer_factory.hpp:74] Creating layer conv2
I1022 00:52:56.191225  4656 net.cpp:87] Creating Layer conv2
I1022 00:52:56.191229  4656 net.cpp:386] conv2 <- pool1
I1022 00:52:56.191236  4656 net.cpp:344] conv2 -> conv2
I1022 00:52:56.191244  4656 net.cpp:116] Setting up conv2
I1022 00:52:56.236229  4656 net.cpp:126] Top shape: 256 192 27 27 (35831808)
I1022 00:52:56.236294  4656 layer_factory.hpp:74] Creating layer relu2
I1022 00:52:56.236306  4656 net.cpp:87] Creating Layer relu2
I1022 00:52:56.236312  4656 net.cpp:386] relu2 <- conv2
I1022 00:52:56.236321  4656 net.cpp:333] relu2 -> conv2 (in-place)
I1022 00:52:56.236331  4656 net.cpp:116] Setting up relu2
I1022 00:52:56.236336  4656 net.cpp:126] Top shape: 256 192 27 27 (35831808)
I1022 00:52:56.236343  4656 layer_factory.hpp:74] Creating layer pool2
I1022 00:52:56.236351  4656 net.cpp:87] Creating Layer pool2
I1022 00:52:56.236356  4656 net.cpp:386] pool2 <- conv2
I1022 00:52:56.236364  4656 net.cpp:344] pool2 -> pool2
I1022 00:52:56.236373  4656 net.cpp:344] pool2 -> (automatic)
I1022 00:52:56.236382  4656 net.cpp:116] Setting up pool2
I1022 00:52:56.236393  4656 net.cpp:126] Top shape: 256 192 13 13 (8306688)
I1022 00:52:56.236400  4656 net.cpp:126] Top shape: 256 192 13 13 (8306688)
I1022 00:52:56.236407  4656 layer_factory.hpp:74] Creating layer conv3
I1022 00:52:56.236418  4656 net.cpp:87] Creating Layer conv3
I1022 00:52:56.236423  4656 net.cpp:386] conv3 <- pool2
I1022 00:52:56.236429  4656 net.cpp:344] conv3 -> conv3
I1022 00:52:56.236438  4656 net.cpp:116] Setting up conv3
I1022 00:52:56.278947  4656 net.cpp:126] Top shape: 256 384 13 13 (16613376)
I1022 00:52:56.278995  4656 layer_factory.hpp:74] Creating layer relu3
I1022 00:52:56.279009  4656 net.cpp:87] Creating Layer relu3
I1022 00:52:56.279016  4656 net.cpp:386] relu3 <- conv3
I1022 00:52:56.279024  4656 net.cpp:333] relu3 -> conv3 (in-place)
I1022 00:52:56.279034  4656 net.cpp:116] Setting up relu3
I1022 00:52:56.279039  4656 net.cpp:126] Top shape: 256 384 13 13 (16613376)
I1022 00:52:56.279047  4656 layer_factory.hpp:74] Creating layer conv4
I1022 00:52:56.279055  4656 net.cpp:87] Creating Layer conv4
I1022 00:52:56.279060  4656 net.cpp:386] conv4 <- conv3
I1022 00:52:56.279067  4656 net.cpp:344] conv4 -> conv4
I1022 00:52:56.279075  4656 net.cpp:116] Setting up conv4
I1022 00:52:56.357071  4656 net.cpp:126] Top shape: 256 256 13 13 (11075584)
I1022 00:52:56.357115  4656 layer_factory.hpp:74] Creating layer relu4
I1022 00:52:56.357130  4656 net.cpp:87] Creating Layer relu4
I1022 00:52:56.357136  4656 net.cpp:386] relu4 <- conv4
I1022 00:52:56.357146  4656 net.cpp:333] relu4 -> conv4 (in-place)
I1022 00:52:56.357167  4656 net.cpp:116] Setting up relu4
I1022 00:52:56.357173  4656 net.cpp:126] Top shape: 256 256 13 13 (11075584)
I1022 00:52:56.357180  4656 layer_factory.hpp:74] Creating layer conv5
I1022 00:52:56.357190  4656 net.cpp:87] Creating Layer conv5
I1022 00:52:56.357194  4656 net.cpp:386] conv5 <- conv4
I1022 00:52:56.357203  4656 net.cpp:344] conv5 -> conv5
I1022 00:52:56.357210  4656 net.cpp:116] Setting up conv5
I1022 00:52:56.417650  4656 net.cpp:126] Top shape: 256 256 13 13 (11075584)
I1022 00:52:56.417701  4656 layer_factory.hpp:74] Creating layer relu5
I1022 00:52:56.417713  4656 net.cpp:87] Creating Layer relu5
I1022 00:52:56.417719  4656 net.cpp:386] relu5 <- conv5
I1022 00:52:56.417728  4656 net.cpp:333] relu5 -> conv5 (in-place)
I1022 00:52:56.417737  4656 net.cpp:116] Setting up relu5
I1022 00:52:56.417743  4656 net.cpp:126] Top shape: 256 256 13 13 (11075584)
I1022 00:52:56.417750  4656 layer_factory.hpp:74] Creating layer pool5
I1022 00:52:56.417758  4656 net.cpp:87] Creating Layer pool5
I1022 00:52:56.417763  4656 net.cpp:386] pool5 <- conv5
I1022 00:52:56.417770  4656 net.cpp:344] pool5 -> pool5
I1022 00:52:56.417780  4656 net.cpp:344] pool5 -> (automatic)
I1022 00:52:56.417786  4656 net.cpp:116] Setting up pool5
I1022 00:52:56.417798  4656 net.cpp:126] Top shape: 256 256 6 6 (2359296)
I1022 00:52:56.417804  4656 net.cpp:126] Top shape: 256 256 6 6 (2359296)
I1022 00:52:56.417811  4656 layer_factory.hpp:74] Creating layer unpack6
I1022 00:52:56.417819  4656 net.cpp:87] Creating Layer unpack6
I1022 00:52:56.417824  4656 net.cpp:386] unpack6 <- pool5
I1022 00:52:56.417829  4656 net.cpp:344] unpack6 -> unpack6
I1022 00:52:56.417836  4656 net.cpp:116] Setting up unpack6
I1022 00:52:56.417843  4656 net.cpp:126] Top shape: 256 256 6 6 (2359296)
I1022 00:52:56.417850  4656 layer_factory.hpp:74] Creating layer fc6
I1022 00:52:56.417860  4656 net.cpp:87] Creating Layer fc6
I1022 00:52:56.417865  4656 net.cpp:386] fc6 <- unpack6
I1022 00:52:56.417871  4656 net.cpp:344] fc6 -> fc6
I1022 00:52:56.417883  4656 net.cpp:116] Setting up fc6
I1022 00:52:56.466879  4656 net.cpp:126] Top shape: 256 4096 (1048576)
I1022 00:52:56.466922  4656 layer_factory.hpp:74] Creating layer fc7
I1022 00:52:56.466935  4656 net.cpp:87] Creating Layer fc7
I1022 00:52:56.466940  4656 net.cpp:386] fc7 <- fc6
I1022 00:52:56.466950  4656 net.cpp:344] fc7 -> fc7
I1022 00:52:56.466964  4656 net.cpp:116] Setting up fc7
I1022 00:52:56.498306  4656 net.cpp:126] Top shape: 256 4096 (1048576)
I1022 00:52:56.498347  4656 layer_factory.hpp:74] Creating layer fc8
I1022 00:52:56.498359  4656 net.cpp:87] Creating Layer fc8
I1022 00:52:56.498365  4656 net.cpp:386] fc8 <- fc7
I1022 00:52:56.498374  4656 net.cpp:344] fc8 -> fc8
I1022 00:52:56.498385  4656 net.cpp:116] Setting up fc8
I1022 00:52:56.519131  4656 net.cpp:126] Top shape: 256 1000 (256000)
I1022 00:52:56.519168  4656 layer_factory.hpp:74] Creating layer loss
I1022 00:52:56.519181  4656 net.cpp:87] Creating Layer loss
I1022 00:52:56.519186  4656 net.cpp:386] loss <- fc8
I1022 00:52:56.519194  4656 net.cpp:386] loss <- label
I1022 00:52:56.519204  4656 net.cpp:344] loss -> loss
I1022 00:52:56.519214  4656 net.cpp:116] Setting up loss
I1022 00:52:56.519224  4656 layer_factory.hpp:74] Creating layer loss
…
