…
I0228 23:02:06.932201 24687 upgrade_proto.cpp:65] Attempting to upgrade input file specified using deprecated input fields: ./imagenet_winners/vgg_a.prototxt
I0228 23:02:06.932210 24687 upgrade_proto.cpp:68] Successfully upgraded file specified using deprecated input fields.
W0228 23:02:06.932214 24687 upgrade_proto.cpp:70] Note that future Caffe releases will only support input layers and not input fields.
I0228 23:02:06.932365 24687 net.cpp:49] Initializing net from parameters: 
name: "vgg_a"
force_backward: true
state {
  phase: TRAIN
}
layer {
  name: "input"
  type: "Input"
  top: "data"
  input_param {
    shape {
      dim: 64
      dim: 3
      dim: 224
      dim: 224
    }
  }
}
layer {
  name: "conv1/3x3_s1"
  type: "Convolution"
  bottom: "data"
  top: "conv1/3x3_s1"
  param {
    lr_mult: 1
    decay_mult: 1
  }
  param {
    lr_mult: 2
    decay_mult: 0
  }
  convolution_param {
    num_output: 64
    pad: 1
    kernel_size: 3
    stride: 1
    weight_filler {
      type: "xavier"
      std: 0.1
    }
    bias_filler {
      type: "constant"
      value: 0.2
    }
  }
}
layer {
  name: "conv1/relu"
  type: "ReLU"
  bottom: "conv1/3x3_s1"
  top: "conv1/3x3_s1"
}
layer {
  name: "pool1/2x2_s2"
  type: "Pooling"
  bottom: "conv1/3x3_s1"
  top: "pool1/2x2_s2"
  pooling_param {
    pool: MAX
    kernel_size: 2
    stride: 2
  }
}
layer {
  name: "conv2/3x3_s1"
  type: "Convolution"
  bottom: "pool1/2x2_s2"
  top: "conv2/3x3_s1"
  param {
    lr_mult: 1
    decay_mult: 1
  }
  param {
    lr_mult: 2
    decay_mult: 0
  }
  convolution_param {
    num_output: 128
    pad: 1
    kernel_size: 3
    stride: 1
    weight_filler {
      type: "xavier"
      std: 0.1
    }
    bias_filler {
      type: "constant"
      value: 0.2
    }
  }
}
layer {
  name: "conv2/relu"
  type: "ReLU"
  bottom: "conv2/3x3_s1"
  top: "conv2/3x3_s1"
}
layer {
  name: "pool2/2x2_s2"
  type: "Pooling"
  bottom: "conv2/3x3_s1"
  top: "pool2/2x2_s2"
  pooling_param {
    pool: MAX
    kernel_size: 2
    stride: 2
  }
}
layer {
  name: "conv3/3x3_s1"
  type: "Convolution"
  bottom: "pool2/2x2_s2"
  top: "conv3/3x3_s1"
  param {
    lr_mult: 1
    decay_mult: 1
  }
  param {
    lr_mult: 2
    decay_mult: 0
  }
  convolution_param {
    num_output: 256
    pad: 1
    kernel_size: 3
    stride: 1
    weight_filler {
      type: "xavier"
      std: 0.1
    }
    bias_filler {
      type: "constant"
      value: 0.2
    }
  }
}
layer {
  name: "conv3/relu"
  type: "ReLU"
  bottom: "conv3/3x3_s1"
  top: "conv3/3x3_s1"
}
layer {
  name: "conv4/3x3_s1"
  type: "Convolution"
  bottom: "conv3/3x3_s1"
  top: "conv4/3x3_s1"
  param {
    lr_mult: 1
    decay_mult: 1
  }
  param {
    lr_mult: 2
    decay_mult: 0
  }
  convolution_param {
    num_output: 256
    pad: 1
    kernel_size: 3
    stride: 1
    weight_filler {
      type: "xavier"
      std: 0.1
    }
    bias_filler {
      type: "constant"
      value: 0.2
    }
  }
}
layer {
  name: "conv4/relu"
  type: "ReLU"
  bottom: "conv4/3x3_s1"
  top: "conv4/3x3_s1"
}
layer {
  name: "pool3/2x2_s2"
  type: "Pooling"
  bottom: "conv4/3x3_s1"
  top: "pool3/2x2_s2"
  pooling_param {
    pool: MAX
    kernel_size: 2
    stride: 2
  }
}
layer {
  name: "conv5/3x3_s1"
  type: "Convolution"
  bottom: "pool3/2x2_s2"
  top: "conv5/3x3_s1"
  param {
    lr_mult: 1
    decay_mult: 1
  }
  param {
    lr_mult: 2
    decay_mult: 0
  }
  convolution_param {
    num_output: 512
    pad: 1
    kernel_size: 3
    stride: 1
    weight_filler {
      type: "xavier"
      std: 0.1
    }
    bias_filler {
      type: "constant"
      value: 0.2
    }
  }
}
layer {
  name: "conv5/relu"
  type: "ReLU"
  bottom: "conv5/3x3_s1"
  top: "conv5/3x3_s1"
}
layer {
  name: "conv6/3x3_s1"
  type: "Convolution"
  bottom: "conv5/3x3_s1"
  top: "conv6/3x3_s1"
  param {
    lr_mult: 1
    decay_mult: 1
  }
  param {
    lr_mult: 2
    decay_mult: 0
  }
  convolution_param {
    num_output: 512
    pad: 1
    kernel_size: 3
    stride: 1
    weight_filler {
      type: "xavier"
      std: 0.1
    }
    bias_filler {
      type: "constant"
      value: 0.2
    }
  }
}
layer {
  name: "conv6/relu"
  type: "ReLU"
  bottom: "conv6/3x3_s1"
  top: "conv6/3x3_s1"
}
layer {
  name: "pool4/2x2_s2"
  type: "Pooling"
  bottom: "conv6/3x3_s1"
  top: "pool4/2x2_s2"
  pooling_param {
    pool: MAX
    kernel_size: 2
    stride: 2
  }
}
layer {
  name: "conv7/3x3_s1"
  type: "Convolution"
  bottom: "pool4/2x2_s2"
  top: "conv7/3x3_s1"
  param {
    lr_mult: 1
    decay_mult: 1
  }
  param {
    lr_mult: 2
    decay_mult: 0
  }
  convolution_param {
    num_output: 512
    pad: 1
    kernel_size: 3
    stride: 1
    weight_filler {
      type: "xavier"
      std: 0.1
    }
    bias_filler {
      type: "constant"
      value: 0.2
    }
  }
}
layer {
  name: "conv7/relu"
  type: "ReLU"
  bottom: "conv7/3x3_s1"
  top: "conv7/3x3_s1"
}
layer {
  name: "conv8/3x3_s1"
  type: "Convolution"
  bottom: "conv7/3x3_s1"
  top: "conv8/3x3_s1"
  param {
    lr_mult: 1
    decay_mult: 1
  }
  param {
    lr_mult: 2
    decay_mult: 0
  }
  convolution_param {
    num_output: 512
    pad: 1
    kernel_size: 3
    stride: 1
    weight_filler {
      type: "xavier"
      std: 0.1
    }
    bias_filler {
      type: "constant"
      value: 0.2
    }
  }
}
layer {
  name: "conv8/relu"
  type: "ReLU"
  bottom: "conv8/3x3_s1"
  top: "conv8/3x3_s1"
}
layer {
  name: "pool5/2x2_s2"
  type: "Pooling"
  bottom: "conv8/3x3_s1"
  top: "pool5/2x2_s2"
  pooling_param {
    pool: MAX
    kernel_size: 2
    stride: 2
  }
}
layer {
  name: "fc6"
  type: "InnerProduct"
  bottom: "pool5/2x2_s2"
  top: "fc6"
  inner_product_param {
    num_output: 4096
  }
}
layer {
  name: "fc7"
  type: "InnerProduct"
  bottom: "fc6"
  top: "fc7"
  inner_product_param {
    num_output: 4096
  }
}
layer {
  name: "fc8"
  type: "InnerProduct"
  bottom: "fc7"
  top: "fc8"
  inner_product_param {
    num_output: 1000
  }
}
I0228 23:02:06.932447 24687 layer_factory.hpp:77] Creating layer input
I0228 23:02:06.932467 24687 net.cpp:91] Creating Layer input
I0228 23:02:06.932473 24687 net.cpp:399] input -> data
I0228 23:02:06.938585 24687 net.cpp:141] Setting up input
I0228 23:02:06.938609 24687 net.cpp:148] Top shape: 64 3 224 224 (9633792)
I0228 23:02:06.938613 24687 net.cpp:156] Memory required for data: 38535168
I0228 23:02:06.938621 24687 layer_factory.hpp:77] Creating layer conv1/3x3_s1
I0228 23:02:06.938632 24687 net.cpp:91] Creating Layer conv1/3x3_s1
I0228 23:02:06.938635 24687 net.cpp:425] conv1/3x3_s1 <- data
I0228 23:02:06.938642 24687 net.cpp:399] conv1/3x3_s1 -> conv1/3x3_s1
I0228 23:02:07.075465 24687 net.cpp:141] Setting up conv1/3x3_s1
I0228 23:02:07.075494 24687 net.cpp:148] Top shape: 64 64 224 224 (205520896)
I0228 23:02:07.075497 24687 net.cpp:156] Memory required for data: 860618752
I0228 23:02:07.075515 24687 layer_factory.hpp:77] Creating layer conv1/relu
I0228 23:02:07.075531 24687 net.cpp:91] Creating Layer conv1/relu
I0228 23:02:07.075536 24687 net.cpp:425] conv1/relu <- conv1/3x3_s1
I0228 23:02:07.075541 24687 net.cpp:386] conv1/relu -> conv1/3x3_s1 (in-place)
I0228 23:02:07.075803 24687 net.cpp:141] Setting up conv1/relu
I0228 23:02:07.075814 24687 net.cpp:148] Top shape: 64 64 224 224 (205520896)
I0228 23:02:07.075816 24687 net.cpp:156] Memory required for data: 1682702336
I0228 23:02:07.075819 24687 layer_factory.hpp:77] Creating layer pool1/2x2_s2
I0228 23:02:07.075827 24687 net.cpp:91] Creating Layer pool1/2x2_s2
I0228 23:02:07.075830 24687 net.cpp:425] pool1/2x2_s2 <- conv1/3x3_s1
I0228 23:02:07.075835 24687 net.cpp:399] pool1/2x2_s2 -> pool1/2x2_s2
I0228 23:02:07.075875 24687 net.cpp:141] Setting up pool1/2x2_s2
I0228 23:02:07.075881 24687 net.cpp:148] Top shape: 64 64 112 112 (51380224)
I0228 23:02:07.075883 24687 net.cpp:156] Memory required for data: 1888223232
I0228 23:02:07.075894 24687 layer_factory.hpp:77] Creating layer conv2/3x3_s1
I0228 23:02:07.075906 24687 net.cpp:91] Creating Layer conv2/3x3_s1
I0228 23:02:07.075911 24687 net.cpp:425] conv2/3x3_s1 <- pool1/2x2_s2
I0228 23:02:07.075914 24687 net.cpp:399] conv2/3x3_s1 -> conv2/3x3_s1
I0228 23:02:07.077929 24687 net.cpp:141] Setting up conv2/3x3_s1
I0228 23:02:07.077941 24687 net.cpp:148] Top shape: 64 128 112 112 (102760448)
I0228 23:02:07.077944 24687 net.cpp:156] Memory required for data: 2299265024
I0228 23:02:07.077952 24687 layer_factory.hpp:77] Creating layer conv2/relu
I0228 23:02:07.077958 24687 net.cpp:91] Creating Layer conv2/relu
I0228 23:02:07.077961 24687 net.cpp:425] conv2/relu <- conv2/3x3_s1
I0228 23:02:07.077965 24687 net.cpp:386] conv2/relu -> conv2/3x3_s1 (in-place)
I0228 23:02:07.078213 24687 net.cpp:141] Setting up conv2/relu
I0228 23:02:07.078223 24687 net.cpp:148] Top shape: 64 128 112 112 (102760448)
I0228 23:02:07.078227 24687 net.cpp:156] Memory required for data: 2710306816
I0228 23:02:07.078230 24687 layer_factory.hpp:77] Creating layer pool2/2x2_s2
I0228 23:02:07.078235 24687 net.cpp:91] Creating Layer pool2/2x2_s2
I0228 23:02:07.078238 24687 net.cpp:425] pool2/2x2_s2 <- conv2/3x3_s1
I0228 23:02:07.078243 24687 net.cpp:399] pool2/2x2_s2 -> pool2/2x2_s2
I0228 23:02:07.078275 24687 net.cpp:141] Setting up pool2/2x2_s2
I0228 23:02:07.078281 24687 net.cpp:148] Top shape: 64 128 56 56 (25690112)
I0228 23:02:07.078284 24687 net.cpp:156] Memory required for data: 2813067264
I0228 23:02:07.078287 24687 layer_factory.hpp:77] Creating layer conv3/3x3_s1
I0228 23:02:07.078296 24687 net.cpp:91] Creating Layer conv3/3x3_s1
I0228 23:02:07.078299 24687 net.cpp:425] conv3/3x3_s1 <- pool2/2x2_s2
I0228 23:02:07.078305 24687 net.cpp:399] conv3/3x3_s1 -> conv3/3x3_s1
I0228 23:02:07.080968 24687 net.cpp:141] Setting up conv3/3x3_s1
I0228 23:02:07.080979 24687 net.cpp:148] Top shape: 64 256 56 56 (51380224)
I0228 23:02:07.080983 24687 net.cpp:156] Memory required for data: 3018588160
I0228 23:02:07.080991 24687 layer_factory.hpp:77] Creating layer conv3/relu
I0228 23:02:07.080999 24687 net.cpp:91] Creating Layer conv3/relu
I0228 23:02:07.081002 24687 net.cpp:425] conv3/relu <- conv3/3x3_s1
I0228 23:02:07.081007 24687 net.cpp:386] conv3/relu -> conv3/3x3_s1 (in-place)
I0228 23:02:07.081135 24687 net.cpp:141] Setting up conv3/relu
I0228 23:02:07.081142 24687 net.cpp:148] Top shape: 64 256 56 56 (51380224)
I0228 23:02:07.081146 24687 net.cpp:156] Memory required for data: 3224109056
I0228 23:02:07.081149 24687 layer_factory.hpp:77] Creating layer conv4/3x3_s1
I0228 23:02:07.081158 24687 net.cpp:91] Creating Layer conv4/3x3_s1
I0228 23:02:07.081161 24687 net.cpp:425] conv4/3x3_s1 <- conv3/3x3_s1
I0228 23:02:07.081167 24687 net.cpp:399] conv4/3x3_s1 -> conv4/3x3_s1
I0228 23:02:07.085551 24687 net.cpp:141] Setting up conv4/3x3_s1
I0228 23:02:07.085568 24687 net.cpp:148] Top shape: 64 256 56 56 (51380224)
I0228 23:02:07.085572 24687 net.cpp:156] Memory required for data: 3429629952
I0228 23:02:07.085578 24687 layer_factory.hpp:77] Creating layer conv4/relu
I0228 23:02:07.085589 24687 net.cpp:91] Creating Layer conv4/relu
I0228 23:02:07.085593 24687 net.cpp:425] conv4/relu <- conv4/3x3_s1
I0228 23:02:07.085597 24687 net.cpp:386] conv4/relu -> conv4/3x3_s1 (in-place)
I0228 23:02:07.085845 24687 net.cpp:141] Setting up conv4/relu
I0228 23:02:07.085855 24687 net.cpp:148] Top shape: 64 256 56 56 (51380224)
I0228 23:02:07.085860 24687 net.cpp:156] Memory required for data: 3635150848
I0228 23:02:07.085862 24687 layer_factory.hpp:77] Creating layer pool3/2x2_s2
I0228 23:02:07.085868 24687 net.cpp:91] Creating Layer pool3/2x2_s2
I0228 23:02:07.085871 24687 net.cpp:425] pool3/2x2_s2 <- conv4/3x3_s1
I0228 23:02:07.085877 24687 net.cpp:399] pool3/2x2_s2 -> pool3/2x2_s2
I0228 23:02:07.085911 24687 net.cpp:141] Setting up pool3/2x2_s2
I0228 23:02:07.085918 24687 net.cpp:148] Top shape: 64 256 28 28 (12845056)
I0228 23:02:07.085922 24687 net.cpp:156] Memory required for data: 3686531072
I0228 23:02:07.085924 24687 layer_factory.hpp:77] Creating layer conv5/3x3_s1
I0228 23:02:07.085938 24687 net.cpp:91] Creating Layer conv5/3x3_s1
I0228 23:02:07.085942 24687 net.cpp:425] conv5/3x3_s1 <- pool3/2x2_s2
I0228 23:02:07.085947 24687 net.cpp:399] conv5/3x3_s1 -> conv5/3x3_s1
I0228 23:02:07.093767 24687 net.cpp:141] Setting up conv5/3x3_s1
I0228 23:02:07.093783 24687 net.cpp:148] Top shape: 64 512 28 28 (25690112)
I0228 23:02:07.093786 24687 net.cpp:156] Memory required for data: 3789291520
I0228 23:02:07.093796 24687 layer_factory.hpp:77] Creating layer conv5/relu
I0228 23:02:07.093803 24687 net.cpp:91] Creating Layer conv5/relu
I0228 23:02:07.093807 24687 net.cpp:425] conv5/relu <- conv5/3x3_s1
I0228 23:02:07.093811 24687 net.cpp:386] conv5/relu -> conv5/3x3_s1 (in-place)
I0228 23:02:07.094065 24687 net.cpp:141] Setting up conv5/relu
I0228 23:02:07.094076 24687 net.cpp:148] Top shape: 64 512 28 28 (25690112)
I0228 23:02:07.094079 24687 net.cpp:156] Memory required for data: 3892051968
I0228 23:02:07.094082 24687 layer_factory.hpp:77] Creating layer conv6/3x3_s1
I0228 23:02:07.094092 24687 net.cpp:91] Creating Layer conv6/3x3_s1
I0228 23:02:07.094096 24687 net.cpp:425] conv6/3x3_s1 <- conv5/3x3_s1
I0228 23:02:07.094102 24687 net.cpp:399] conv6/3x3_s1 -> conv6/3x3_s1
I0228 23:02:07.108479 24687 net.cpp:141] Setting up conv6/3x3_s1
I0228 23:02:07.108500 24687 net.cpp:148] Top shape: 64 512 28 28 (25690112)
I0228 23:02:07.108503 24687 net.cpp:156] Memory required for data: 3994812416
I0228 23:02:07.108510 24687 layer_factory.hpp:77] Creating layer conv6/relu
I0228 23:02:07.108520 24687 net.cpp:91] Creating Layer conv6/relu
I0228 23:02:07.108523 24687 net.cpp:425] conv6/relu <- conv6/3x3_s1
I0228 23:02:07.108528 24687 net.cpp:386] conv6/relu -> conv6/3x3_s1 (in-place)
I0228 23:02:07.108675 24687 net.cpp:141] Setting up conv6/relu
I0228 23:02:07.108681 24687 net.cpp:148] Top shape: 64 512 28 28 (25690112)
I0228 23:02:07.108685 24687 net.cpp:156] Memory required for data: 4097572864
I0228 23:02:07.108688 24687 layer_factory.hpp:77] Creating layer pool4/2x2_s2
I0228 23:02:07.108697 24687 net.cpp:91] Creating Layer pool4/2x2_s2
I0228 23:02:07.108700 24687 net.cpp:425] pool4/2x2_s2 <- conv6/3x3_s1
I0228 23:02:07.108705 24687 net.cpp:399] pool4/2x2_s2 -> pool4/2x2_s2
I0228 23:02:07.108739 24687 net.cpp:141] Setting up pool4/2x2_s2
I0228 23:02:07.108746 24687 net.cpp:148] Top shape: 64 512 14 14 (6422528)
I0228 23:02:07.108748 24687 net.cpp:156] Memory required for data: 4123262976
I0228 23:02:07.108752 24687 layer_factory.hpp:77] Creating layer conv7/3x3_s1
I0228 23:02:07.108760 24687 net.cpp:91] Creating Layer conv7/3x3_s1
I0228 23:02:07.108764 24687 net.cpp:425] conv7/3x3_s1 <- pool4/2x2_s2
I0228 23:02:07.108768 24687 net.cpp:399] conv7/3x3_s1 -> conv7/3x3_s1
I0228 23:02:07.124102 24687 net.cpp:141] Setting up conv7/3x3_s1
I0228 23:02:07.124122 24687 net.cpp:148] Top shape: 64 512 14 14 (6422528)
I0228 23:02:07.124126 24687 net.cpp:156] Memory required for data: 4148953088
I0228 23:02:07.124135 24687 layer_factory.hpp:77] Creating layer conv7/relu
I0228 23:02:07.124142 24687 net.cpp:91] Creating Layer conv7/relu
I0228 23:02:07.124146 24687 net.cpp:425] conv7/relu <- conv7/3x3_s1
I0228 23:02:07.124151 24687 net.cpp:386] conv7/relu -> conv7/3x3_s1 (in-place)
I0228 23:02:07.124605 24687 net.cpp:141] Setting up conv7/relu
I0228 23:02:07.124617 24687 net.cpp:148] Top shape: 64 512 14 14 (6422528)
I0228 23:02:07.124620 24687 net.cpp:156] Memory required for data: 4174643200
I0228 23:02:07.124624 24687 layer_factory.hpp:77] Creating layer conv8/3x3_s1
I0228 23:02:07.124634 24687 net.cpp:91] Creating Layer conv8/3x3_s1
I0228 23:02:07.124637 24687 net.cpp:425] conv8/3x3_s1 <- conv7/3x3_s1
I0228 23:02:07.124644 24687 net.cpp:399] conv8/3x3_s1 -> conv8/3x3_s1
I0228 23:02:07.138921 24687 net.cpp:141] Setting up conv8/3x3_s1
I0228 23:02:07.138941 24687 net.cpp:148] Top shape: 64 512 14 14 (6422528)
I0228 23:02:07.138944 24687 net.cpp:156] Memory required for data: 4200333312
I0228 23:02:07.138952 24687 layer_factory.hpp:77] Creating layer conv8/relu
I0228 23:02:07.138959 24687 net.cpp:91] Creating Layer conv8/relu
I0228 23:02:07.138969 24687 net.cpp:425] conv8/relu <- conv8/3x3_s1
I0228 23:02:07.138978 24687 net.cpp:386] conv8/relu -> conv8/3x3_s1 (in-place)
I0228 23:02:07.140534 24687 net.cpp:141] Setting up conv8/relu
I0228 23:02:07.140544 24687 net.cpp:148] Top shape: 64 512 14 14 (6422528)
I0228 23:02:07.140547 24687 net.cpp:156] Memory required for data: 4226023424
I0228 23:02:07.140552 24687 layer_factory.hpp:77] Creating layer pool5/2x2_s2
I0228 23:02:07.140561 24687 net.cpp:91] Creating Layer pool5/2x2_s2
I0228 23:02:07.140565 24687 net.cpp:425] pool5/2x2_s2 <- conv8/3x3_s1
I0228 23:02:07.140570 24687 net.cpp:399] pool5/2x2_s2 -> pool5/2x2_s2
I0228 23:02:07.140609 24687 net.cpp:141] Setting up pool5/2x2_s2
I0228 23:02:07.140615 24687 net.cpp:148] Top shape: 64 512 7 7 (1605632)
I0228 23:02:07.140619 24687 net.cpp:156] Memory required for data: 4232445952
I0228 23:02:07.140621 24687 layer_factory.hpp:77] Creating layer fc6
I0228 23:02:07.140626 24687 net.cpp:91] Creating Layer fc6
I0228 23:02:07.140630 24687 net.cpp:425] fc6 <- pool5/2x2_s2
I0228 23:02:07.140635 24687 net.cpp:399] fc6 -> fc6
I0228 23:02:07.321799 24687 net.cpp:141] Setting up fc6
I0228 23:02:07.321838 24687 net.cpp:148] Top shape: 64 4096 (262144)
I0228 23:02:07.321843 24687 net.cpp:156] Memory required for data: 4233494528
I0228 23:02:07.321858 24687 layer_factory.hpp:77] Creating layer fc7
I0228 23:02:07.321867 24687 net.cpp:91] Creating Layer fc7
I0228 23:02:07.321871 24687 net.cpp:425] fc7 <- fc6
I0228 23:02:07.321877 24687 net.cpp:399] fc7 -> fc7
I0228 23:02:07.351747 24687 net.cpp:141] Setting up fc7
I0228 23:02:07.351794 24687 net.cpp:148] Top shape: 64 4096 (262144)
I0228 23:02:07.351797 24687 net.cpp:156] Memory required for data: 4234543104
I0228 23:02:07.351806 24687 layer_factory.hpp:77] Creating layer fc8
I0228 23:02:07.351815 24687 net.cpp:91] Creating Layer fc8
I0228 23:02:07.351820 24687 net.cpp:425] fc8 <- fc7
I0228 23:02:07.351825 24687 net.cpp:399] fc8 -> fc8
I0228 23:02:07.358830 24687 net.cpp:141] Setting up fc8
I0228 23:02:07.358857 24687 net.cpp:148] Top shape: 64 1000 (64000)
I0228 23:02:07.358861 24687 net.cpp:156] Memory required for data: 4234799104
I0228 23:02:07.358870 24687 net.cpp:219] fc8 does not need backward computation.
I0228 23:02:07.358873 24687 net.cpp:219] fc7 does not need backward computation.
I0228 23:02:07.358877 24687 net.cpp:219] fc6 does not need backward computation.
I0228 23:02:07.358880 24687 net.cpp:219] pool5/2x2_s2 does not need backward computation.
…
