…
:09.148996 28387 caffe.cpp:212] Use GPU with device ID 0
E0417 00:13:09.347857 28387 upgrade_proto.cpp:618] Attempting to upgrade input file specified using deprecated V1LayerParameter: ./imagenet_winners/vgg_a.prototxt
I0417 00:13:09.347946 28387 upgrade_proto.cpp:626] Successfully upgraded file specified using deprecated V1LayerParameter
I0417 00:13:09.348134 28387 net.cpp:42] Initializing net from parameters: 
name: "vgg_a"
input: "data"
input_dim: 64
input_dim: 3
input_dim: 224
input_dim: 224
force_backward: true
state {
  phase: TRAIN
}
layer {
  name: "conv1/3x3_s1"
  type: "Convolution"
  bottom: "data"
  top: "conv1/3x3_s1"
  param {
    lr_mult: 1
    decay_mult: 1
  }
  param {
    lr_mult: 2
    decay_mult: 0
  }
  convolution_param {
    num_output: 64
    kernel_size: 3
    stride: 1
    weight_filler {
      type: "xavier"
      std: 0.1
    }
    bias_filler {
      type: "constant"
      value: 0.2
    }
  }
}
layer {
  name: "conv1/relu"
  type: "ReLU"
  bottom: "conv1/3x3_s1"
  top: "conv1/3x3_s1"
}
layer {
  name: "pool1/2x2_s2"
  type: "Pooling"
  bottom: "conv1/3x3_s1"
  top: "pool1/2x2_s2"
  pooling_param {
    pool: MAX
    kernel_size: 2
    stride: 2
  }
}
layer {
  name: "conv2/3x3_s1"
  type: "Convolution"
  bottom: "pool1/2x2_s2"
  top: "conv2/3x3_s1"
  param {
    lr_mult: 1
    decay_mult: 1
  }
  param {
    lr_mult: 2
    decay_mult: 0
  }
  convolution_param {
    num_output: 128
    pad: 1
    kernel_size: 3
    stride: 1
    weight_filler {
      type: "xavier"
      std: 0.1
    }
    bias_filler {
      type: "constant"
      value: 0.2
    }
  }
}
layer {
  name: "conv2/relu"
  type: "ReLU"
  bottom: "conv2/3x3_s1"
  top: "conv2/3x3_s1"
}
layer {
  name: "pool2/2x2_s2"
  type: "Pooling"
  bottom: "conv2/3x3_s1"
  top: "pool2/2x2_s2"
  pooling_param {
    pool: MAX
    kernel_size: 2
    stride: 2
  }
}
layer {
  name: "conv3/3x3_s1"
  type: "Convolution"
  bottom: "pool2/2x2_s2"
  top: "conv3/3x3_s1"
  param {
    lr_mult: 1
    decay_mult: 1
  }
  param {
    lr_mult: 2
    decay_mult: 0
  }
  convolution_param {
    num_output: 256
    pad: 1
    kernel_size: 3
    stride: 1
    weight_filler {
      type: "xavier"
      std: 0.1
    }
    bias_filler {
      type: "constant"
      value: 0.2
    }
  }
}
layer {
  name: "conv3/relu"
  type: "ReLU"
  bottom: "conv3/3x3_s1"
  top: "conv3/3x3_s1"
}
layer {
  name: "conv4/3x3_s1"
  type: "Convolution"
  bottom: "conv3/3x3_s1"
  top: "conv4/3x3_s1"
  param {
    lr_mult: 1
    decay_mult: 1
  }
  param {
    lr_mult: 2
    decay_mult: 0
  }
  convolution_param {
    num_output: 256
    pad: 1
    kernel_size: 3
    stride: 1
    weight_filler {
      type: "xavier"
      std: 0.1
    }
    bias_filler {
      type: "constant"
      value: 0.2
    }
  }
}
layer {
  name: "conv4/relu"
  type: "ReLU"
  bottom: "conv4/3x3_s1"
  top: "conv4/3x3_s1"
}
layer {
  name: "pool3/2x2_s2"
  type: "Pooling"
  bottom: "conv4/3x3_s1"
  top: "pool3/2x2_s2"
  pooling_param {
    pool: MAX
    kernel_size: 2
    stride: 2
  }
}
layer {
  name: "conv5/3x3_s1"
  type: "Convolution"
  bottom: "pool3/2x2_s2"
  top: "conv5/3x3_s1"
  param {
    lr_mult: 1
    decay_mult: 1
  }
  param {
    lr_mult: 2
    decay_mult: 0
  }
  convolution_param {
    num_output: 512
    pad: 1
    kernel_size: 3
    stride: 1
    weight_filler {
      type: "xavier"
      std: 0.1
    }
    bias_filler {
      type: "constant"
      value: 0.2
    }
  }
}
layer {
  name: "conv5/relu"
  type: "ReLU"
  bottom: "conv5/3x3_s1"
  top: "conv5/3x3_s1"
}
layer {
  name: "conv6/3x3_s1"
  type: "Convolution"
  bottom: "conv5/3x3_s1"
  top: "conv6/3x3_s1"
  param {
    lr_mult: 1
    decay_mult: 1
  }
  param {
    lr_mult: 2
    decay_mult: 0
  }
  convolution_param {
    num_output: 512
    pad: 1
    kernel_size: 3
    stride: 1
    weight_filler {
      type: "xavier"
      std: 0.1
    }
    bias_filler {
      type: "constant"
      value: 0.2
    }
  }
}
layer {
  name: "conv6/relu"
  type: "ReLU"
  bottom: "conv6/3x3_s1"
  top: "conv6/3x3_s1"
}
layer {
  name: "pool4/2x2_s2"
  type: "Pooling"
  bottom: "conv6/3x3_s1"
  top: "pool4/2x2_s2"
  pooling_param {
    pool: MAX
    kernel_size: 2
    stride: 2
  }
}
layer {
  name: "conv7/3x3_s1"
  type: "Convolution"
  bottom: "pool4/2x2_s2"
  top: "conv7/3x3_s1"
  param {
    lr_mult: 1
    decay_mult: 1
  }
  param {
    lr_mult: 2
    decay_mult: 0
  }
  convolution_param {
    num_output: 512
    pad: 1
    kernel_size: 3
    stride: 1
    weight_filler {
      type: "xavier"
      std: 0.1
    }
    bias_filler {
      type: "constant"
      value: 0.2
    }
  }
}
layer {
  name: "conv7/relu"
  type: "ReLU"
  bottom: "conv7/3x3_s1"
  top: "conv7/3x3_s1"
}
layer {
  name: "conv8/3x3_s1"
  type: "Convolution"
  bottom: "conv7/3x3_s1"
  top: "conv8/3x3_s1"
  param {
    lr_mult: 1
    decay_mult: 1
  }
  param {
    lr_mult: 2
    decay_mult: 0
  }
  convolution_param {
    num_output: 512
    pad: 1
    kernel_size: 3
    stride: 1
    weight_filler {
      type: "xavier"
      std: 0.1
    }
    bias_filler {
      type: "constant"
      value: 0.2
    }
  }
}
layer {
  name: "conv8/relu"
  type: "ReLU"
  bottom: "conv8/3x3_s1"
  top: "conv8/3x3_s1"
}
layer {
  name: "pool5/2x2_s2"
  type: "Pooling"
  bottom: "conv8/3x3_s1"
  top: "pool5/2x2_s2"
  pooling_param {
    pool: MAX
    kernel_size: 2
    stride: 2
  }
}
layer {
  name: "fc6-conv"
  type: "Convolution"
  bottom: "pool5/2x2_s2"
  top: "fc6-conv"
  convolution_param {
    num_output: 4096
    kernel_size: 7
  }
}
layer {
  name: "fc7-conv"
  type: "Convolution"
  bottom: "fc6-conv"
  top: "fc7-conv"
  convolution_param {
    num_output: 4096
    kernel_size: 1
  }
}
layer {
  name: "fc8-conv"
  type: "Convolution"
  bottom: "fc7-conv"
  top: "fc8"
  convolution_param {
    num_output: 1000
    kernel_size: 1
  }
}
I0417 00:13:09.348209 28387 net.cpp:340] Input 0 -> data
I0417 00:13:09.348243 28387 layer_factory.hpp:74] Creating layer conv1/3x3_s1
I0417 00:13:09.348259 28387 net.cpp:84] Creating Layer conv1/3x3_s1
I0417 00:13:09.348263 28387 net.cpp:380] conv1/3x3_s1 <- data
I0417 00:13:09.348270 28387 net.cpp:338] conv1/3x3_s1 -> conv1/3x3_s1
I0417 00:13:09.348279 28387 net.cpp:113] Setting up conv1/3x3_s1
I0417 00:13:09.348702 28387 net.cpp:120] Top shape: 64 64 222 222 (201867264)
I0417 00:13:09.348716 28387 layer_factory.hpp:74] Creating layer conv1/relu
I0417 00:13:09.348722 28387 net.cpp:84] Creating Layer conv1/relu
I0417 00:13:09.348726 28387 net.cpp:380] conv1/relu <- conv1/3x3_s1
I0417 00:13:09.348731 28387 net.cpp:327] conv1/relu -> conv1/3x3_s1 (in-place)
I0417 00:13:09.348736 28387 net.cpp:113] Setting up conv1/relu
I0417 00:13:09.348744 28387 net.cpp:120] Top shape: 64 64 222 222 (201867264)
I0417 00:13:09.348747 28387 layer_factory.hpp:74] Creating layer pool1/2x2_s2
I0417 00:13:09.348752 28387 net.cpp:84] Creating Layer pool1/2x2_s2
I0417 00:13:09.348755 28387 net.cpp:380] pool1/2x2_s2 <- conv1/3x3_s1
I0417 00:13:09.348760 28387 net.cpp:338] pool1/2x2_s2 -> pool1/2x2_s2
I0417 00:13:09.348764 28387 net.cpp:113] Setting up pool1/2x2_s2
I0417 00:13:09.348776 28387 net.cpp:120] Top shape: 64 64 111 111 (50466816)
I0417 00:13:09.348779 28387 layer_factory.hpp:74] Creating layer conv2/3x3_s1
I0417 00:13:09.348784 28387 net.cpp:84] Creating Layer conv2/3x3_s1
I0417 00:13:09.348788 28387 net.cpp:380] conv2/3x3_s1 <- pool1/2x2_s2
I0417 00:13:09.348796 28387 net.cpp:338] conv2/3x3_s1 -> conv2/3x3_s1
I0417 00:13:09.348803 28387 net.cpp:113] Setting up conv2/3x3_s1
I0417 00:13:09.349269 28387 net.cpp:120] Top shape: 64 128 111 111 (100933632)
I0417 00:13:09.349278 28387 layer_factory.hpp:74] Creating layer conv2/relu
I0417 00:13:09.349283 28387 net.cpp:84] Creating Layer conv2/relu
I0417 00:13:09.349287 28387 net.cpp:380] conv2/relu <- conv2/3x3_s1
I0417 00:13:09.349289 28387 net.cpp:327] conv2/relu -> conv2/3x3_s1 (in-place)
I0417 00:13:09.349293 28387 net.cpp:113] Setting up conv2/relu
I0417 00:13:09.349298 28387 net.cpp:120] Top shape: 64 128 111 111 (100933632)
I0417 00:13:09.349300 28387 layer_factory.hpp:74] Creating layer pool2/2x2_s2
I0417 00:13:09.349304 28387 net.cpp:84] Creating Layer pool2/2x2_s2
I0417 00:13:09.349310 28387 net.cpp:380] pool2/2x2_s2 <- conv2/3x3_s1
I0417 00:13:09.349315 28387 net.cpp:338] pool2/2x2_s2 -> pool2/2x2_s2
I0417 00:13:09.349320 28387 net.cpp:113] Setting up pool2/2x2_s2
I0417 00:13:09.349326 28387 net.cpp:120] Top shape: 64 128 56 56 (25690112)
I0417 00:13:09.349329 28387 layer_factory.hpp:74] Creating layer conv3/3x3_s1
I0417 00:13:09.349335 28387 net.cpp:84] Creating Layer conv3/3x3_s1
I0417 00:13:09.349339 28387 net.cpp:380] conv3/3x3_s1 <- pool2/2x2_s2
I0417 00:13:09.349342 28387 net.cpp:338] conv3/3x3_s1 -> conv3/3x3_s1
I0417 00:13:09.349346 28387 net.cpp:113] Setting up conv3/3x3_s1
I0417 00:13:09.351163 28387 net.cpp:120] Top shape: 64 256 56 56 (51380224)
I0417 00:13:09.351173 28387 layer_factory.hpp:74] Creating layer conv3/relu
I0417 00:13:09.351179 28387 net.cpp:84] Creating Layer conv3/relu
I0417 00:13:09.351182 28387 net.cpp:380] conv3/relu <- conv3/3x3_s1
I0417 00:13:09.351186 28387 net.cpp:327] conv3/relu -> conv3/3x3_s1 (in-place)
I0417 00:13:09.351189 28387 net.cpp:113] Setting up conv3/relu
I0417 00:13:09.351194 28387 net.cpp:120] Top shape: 64 256 56 56 (51380224)
I0417 00:13:09.351197 28387 layer_factory.hpp:74] Creating layer conv4/3x3_s1
I0417 00:13:09.351202 28387 net.cpp:84] Creating Layer conv4/3x3_s1
I0417 00:13:09.351204 28387 net.cpp:380] conv4/3x3_s1 <- conv3/3x3_s1
I0417 00:13:09.351210 28387 net.cpp:338] conv4/3x3_s1 -> conv4/3x3_s1
I0417 00:13:09.351214 28387 net.cpp:113] Setting up conv4/3x3_s1
I0417 00:13:09.354734 28387 net.cpp:120] Top shape: 64 256 56 56 (51380224)
I0417 00:13:09.354743 28387 layer_factory.hpp:74] Creating layer conv4/relu
I0417 00:13:09.354748 28387 net.cpp:84] Creating Layer conv4/relu
I0417 00:13:09.354750 28387 net.cpp:380] conv4/relu <- conv4/3x3_s1
I0417 00:13:09.354754 28387 net.cpp:327] conv4/relu -> conv4/3x3_s1 (in-place)
I0417 00:13:09.354758 28387 net.cpp:113] Setting up conv4/relu
I0417 00:13:09.354763 28387 net.cpp:120] Top shape: 64 256 56 56 (51380224)
I0417 00:13:09.354765 28387 layer_factory.hpp:74] Creating layer pool3/2x2_s2
I0417 00:13:09.354769 28387 net.cpp:84] Creating Layer pool3/2x2_s2
I0417 00:13:09.354773 28387 net.cpp:380] pool3/2x2_s2 <- conv4/3x3_s1
I0417 00:13:09.354775 28387 net.cpp:338] pool3/2x2_s2 -> pool3/2x2_s2
I0417 00:13:09.354779 28387 net.cpp:113] Setting up pool3/2x2_s2
I0417 00:13:09.354786 28387 net.cpp:120] Top shape: 64 256 28 28 (12845056)
I0417 00:13:09.354790 28387 layer_factory.hpp:74] Creating layer conv5/3x3_s1
I0417 00:13:09.354794 28387 net.cpp:84] Creating Layer conv5/3x3_s1
I0417 00:13:09.354797 28387 net.cpp:380] conv5/3x3_s1 <- pool3/2x2_s2
I0417 00:13:09.354802 28387 net.cpp:338] conv5/3x3_s1 -> conv5/3x3_s1
I0417 00:13:09.354809 28387 net.cpp:113] Setting up conv5/3x3_s1
I0417 00:13:09.361290 28387 net.cpp:120] Top shape: 64 512 28 28 (25690112)
I0417 00:13:09.361300 28387 layer_factory.hpp:74] Creating layer conv5/relu
I0417 00:13:09.361305 28387 net.cpp:84] Creating Layer conv5/relu
I0417 00:13:09.361309 28387 net.cpp:380] conv5/relu <- conv5/3x3_s1
I0417 00:13:09.361312 28387 net.cpp:327] conv5/relu -> conv5/3x3_s1 (in-place)
I0417 00:13:09.361316 28387 net.cpp:113] Setting up conv5/relu
I0417 00:13:09.361320 28387 net.cpp:120] Top shape: 64 512 28 28 (25690112)
I0417 00:13:09.361323 28387 layer_factory.hpp:74] Creating layer conv6/3x3_s1
I0417 00:13:09.361328 28387 net.cpp:84] Creating Layer conv6/3x3_s1
I0417 00:13:09.361331 28387 net.cpp:380] conv6/3x3_s1 <- conv5/3x3_s1
I0417 00:13:09.361336 28387 net.cpp:338] conv6/3x3_s1 -> conv6/3x3_s1
I0417 00:13:09.361341 28387 net.cpp:113] Setting up conv6/3x3_s1
I0417 00:13:09.374500 28387 net.cpp:120] Top shape: 64 512 28 28 (25690112)
I0417 00:13:09.374513 28387 layer_factory.hpp:74] Creating layer conv6/relu
I0417 00:13:09.374519 28387 net.cpp:84] Creating Layer conv6/relu
I0417 00:13:09.374523 28387 net.cpp:380] conv6/relu <- conv6/3x3_s1
I0417 00:13:09.374526 28387 net.cpp:327] conv6/relu -> conv6/3x3_s1 (in-place)
I0417 00:13:09.374531 28387 net.cpp:113] Setting up conv6/relu
I0417 00:13:09.374536 28387 net.cpp:120] Top shape: 64 512 28 28 (25690112)
I0417 00:13:09.374544 28387 layer_factory.hpp:74] Creating layer pool4/2x2_s2
I0417 00:13:09.374548 28387 net.cpp:84] Creating Layer pool4/2x2_s2
I0417 00:13:09.374552 28387 net.cpp:380] pool4/2x2_s2 <- conv6/3x3_s1
I0417 00:13:09.374557 28387 net.cpp:338] pool4/2x2_s2 -> pool4/2x2_s2
I0417 00:13:09.374562 28387 net.cpp:113] Setting up pool4/2x2_s2
I0417 00:13:09.374567 28387 net.cpp:120] Top shape: 64 512 14 14 (6422528)
I0417 00:13:09.374570 28387 layer_factory.hpp:74] Creating layer conv7/3x3_s1
I0417 00:13:09.374578 28387 net.cpp:84] Creating Layer conv7/3x3_s1
I0417 00:13:09.374582 28387 net.cpp:380] conv7/3x3_s1 <- pool4/2x2_s2
I0417 00:13:09.374585 28387 net.cpp:338] conv7/3x3_s1 -> conv7/3x3_s1
I0417 00:13:09.374590 28387 net.cpp:113] Setting up conv7/3x3_s1
I0417 00:13:09.387440 28387 net.cpp:120] Top shape: 64 512 14 14 (6422528)
I0417 00:13:09.387455 28387 layer_factory.hpp:74] Creating layer conv7/relu
I0417 00:13:09.387461 28387 net.cpp:84] Creating Layer conv7/relu
I0417 00:13:09.387465 28387 net.cpp:380] conv7/relu <- conv7/3x3_s1
I0417 00:13:09.387469 28387 net.cpp:327] conv7/relu -> conv7/3x3_s1 (in-place)
I0417 00:13:09.387472 28387 net.cpp:113] Setting up conv7/relu
I0417 00:13:09.387476 28387 net.cpp:120] Top shape: 64 512 14 14 (6422528)
I0417 00:13:09.387480 28387 layer_factory.hpp:74] Creating layer conv8/3x3_s1
I0417 00:13:09.387485 28387 net.cpp:84] Creating Layer conv8/3x3_s1
I0417 00:13:09.387487 28387 net.cpp:380] conv8/3x3_s1 <- conv7/3x3_s1
I0417 00:13:09.387493 28387 net.cpp:338] conv8/3x3_s1 -> conv8/3x3_s1
I0417 00:13:09.387497 28387 net.cpp:113] Setting up conv8/3x3_s1
I0417 00:13:09.400774 28387 net.cpp:120] Top shape: 64 512 14 14 (6422528)
I0417 00:13:09.400787 28387 layer_factory.hpp:74] Creating layer conv8/relu
I0417 00:13:09.400795 28387 net.cpp:84] Creating Layer conv8/relu
I0417 00:13:09.400799 28387 net.cpp:380] conv8/relu <- conv8/3x3_s1
I0417 00:13:09.400802 28387 net.cpp:327] conv8/relu -> conv8/3x3_s1 (in-place)
I0417 00:13:09.400806 28387 net.cpp:113] Setting up conv8/relu
I0417 00:13:09.400810 28387 net.cpp:120] Top shape: 64 512 14 14 (6422528)
I0417 00:13:09.400813 28387 layer_factory.hpp:74] Creating layer pool5/2x2_s2
I0417 00:13:09.400818 28387 net.cpp:84] Creating Layer pool5/2x2_s2
I0417 00:13:09.400821 28387 net.cpp:380] pool5/2x2_s2 <- conv8/3x3_s1
I0417 00:13:09.400825 28387 net.cpp:338] pool5/2x2_s2 -> pool5/2x2_s2
I0417 00:13:09.400830 28387 net.cpp:113] Setting up pool5/2x2_s2
I0417 00:13:09.400835 28387 net.cpp:120] Top shape: 64 512 7 7 (1605632)
I0417 00:13:09.400840 28387 layer_factory.hpp:74] Creating layer fc6-conv
I0417 00:13:09.400843 28387 net.cpp:84] Creating Layer fc6-conv
I0417 00:13:09.400846 28387 net.cpp:380] fc6-conv <- pool5/2x2_s2
I0417 00:13:09.400851 28387 net.cpp:338] fc6-conv -> fc6-conv
I0417 00:13:09.400856 28387 net.cpp:113] Setting up fc6-conv
I0417 00:13:10.703416 28387 net.cpp:120] Top shape: 64 4096 1 1 (262144)
I0417 00:13:10.703449 28387 layer_factory.hpp:74] Creating layer fc7-conv
I0417 00:13:10.703457 28387 net.cpp:84] Creating Layer fc7-conv
I0417 00:13:10.703461 28387 net.cpp:380] fc7-conv <- fc6-conv
I0417 00:13:10.703467 28387 net.cpp:338] fc7-conv -> fc7-conv
I0417 00:13:10.703474 28387 net.cpp:113] Setting up fc7-conv
I0417 00:13:10.951707 28387 net.cpp:120] Top shape: 64 4096 1 1 (262144)
I0417 00:13:10.951738 28387 layer_factory.hpp:74] Creating layer fc8-conv
I0417 00:13:10.951747 28387 net.cpp:84] Creating Layer fc8-conv
I0417 00:13:10.951751 28387 net.cpp:380] fc8-conv <- fc7-conv
I0417 00:13:10.951758 28387 net.cpp:338] fc8-conv -> fc8
I0417 00:13:10.951767 28387 net.cpp:113] Setting up fc8-conv
I0417 00:13:11.008182 28387 net.cpp:120] Top shape: 64 1000 1 1 (64000)
I0417 00:13:11.008209 28387 net.cpp:169] fc8-conv does not need backward computation.
I0417 00:13:11.008213 28387 net.cpp:169] fc7-conv does not need backward computation.
I0417 00:13:11.008216 28387 net.cpp:169] fc6-conv does not need backward computation.
I0417 00:13:11.008219 28387 net.cpp:169] pool5/2x2_s2 does not need backward computation.
I0417 00:13:11.008229 28387 net.cpp:169] conv8/relu does not need backward computation.
…
