I1012 20:56:58.000224 15939 caffe.cpp:301] Use CPU.
I1012 20:56:58.001633 15939 upgrade_proto.cpp:618] Attempting to upgrade input file specified using deprecated V1LayerParameter: ./imagenet_winners/alexnet.prototxt
I1012 20:56:58.001705 15939 upgrade_proto.cpp:626] Successfully upgraded file specified using deprecated V1LayerParameter
I1012 20:56:58.001889 15939 net.cpp:50] Initializing net from parameters: 
name: "alexnet"
input: "data"
input_dim: 128
input_dim: 3
input_dim: 224
input_dim: 224
force_backward: true
state {
  phase: TRAIN
}
layer {
  name: "conv1"
  type: "Convolution"
  bottom: "data"
  top: "conv1/11x11_s4"
  param {
    lr_mult: 1
    decay_mult: 1
  }
  param {
    lr_mult: 2
    decay_mult: 0
  }
  convolution_param {
    num_output: 64
    pad: 2
    kernel_size: 11
    stride: 4
    weight_filler {
      type: "xavier"
      std: 0.1
    }
    bias_filler {
      type: "constant"
      value: 0.2
    }
  }
}
layer {
  name: "conv1/relu"
  type: "ReLU"
  bottom: "conv1/11x11_s4"
  top: "conv1/11x11_s4"
}
layer {
  name: "pool1/3x3_s2"
  type: "Pooling"
  bottom: "conv1/11x11_s4"
  top: "pool1/3x3_s2"
  pooling_param {
    pool: MAX
    kernel_size: 3
    stride: 2
  }
}
layer {
  name: "conv2/5x5_s1"
  type: "Convolution"
  bottom: "pool1/3x3_s2"
  top: "conv2/5x5_s1"
  param {
    lr_mult: 1
    decay_mult: 1
  }
  param {
    lr_mult: 2
    decay_mult: 0
  }
  convolution_param {
    num_output: 192
    pad: 2
    kernel_size: 5
    stride: 1
    weight_filler {
      type: "xavier"
      std: 0.1
    }
    bias_filler {
      type: "constant"
      value: 0.2
    }
  }
}
layer {
  name: "cpnv2/relu"
  type: "ReLU"
  bottom: "conv2/5x5_s1"
  top: "conv2/5x5_s1"
}
layer {
  name: "pool2/3x3_s2"
  type: "Pooling"
  bottom: "conv2/5x5_s1"
  top: "pool2/3x3_s2"
  pooling_param {
    pool: MAX
    kernel_size: 3
    stride: 2
  }
}
layer {
  name: "conv3/3x3_s1"
  type: "Convolution"
  bottom: "pool2/3x3_s2"
  top: "conv3/3x3_s1"
  param {
    lr_mult: 1
    decay_mult: 1
  }
  param {
    lr_mult: 2
    decay_mult: 0
  }
  convolution_param {
    num_output: 384
    pad: 1
    kernel_size: 3
    stride: 1
    weight_filler {
      type: "xavier"
      std: 0.1
    }
    bias_filler {
      type: "constant"
      value: 0.2
    }
  }
}
layer {
  name: "conv3/relu"
  type: "ReLU"
  bottom: "conv3/3x3_s1"
  top: "conv3/3x3_s1"
}
layer {
  name: "conv4/3x3_s1"
  type: "Convolution"
  bottom: "conv3/3x3_s1"
  top: "conv4/3x3_s1"
  param {
    lr_mult: 1
    decay_mult: 1
  }
  param {
    lr_mult: 2
    decay_mult: 0
  }
  convolution_param {
    num_output: 256
    pad: 1
    kernel_size: 3
    stride: 1
    weight_filler {
      type: "xavier"
      std: 0.1
    }
    bias_filler {
      type: "constant"
      value: 0.2
    }
  }
}
layer {
  name: "conv4/relu"
  type: "ReLU"
  bottom: "conv4/3x3_s1"
  top: "conv4/3x3_s1"
}
layer {
  name: "conv5/3x3_s1"
  type: "Convolution"
  bottom: "conv4/3x3_s1"
  top: "conv5/3x3_s1"
  param {
    lr_mult: 1
    decay_mult: 1
  }
  param {
    lr_mult: 2
    decay_mult: 0
  }
  convolution_param {
    num_output: 256
    pad: 1
    kernel_size: 3
    stride: 1
    weight_filler {
      type: "xavier"
      std: 0.1
    }
    bias_filler {
      type: "constant"
      value: 0.2
    }
  }
}
layer {
  name: "conv5/relu"
  type: "ReLU"
  bottom: "conv5/3x3_s1"
  top: "conv5/3x3_s1"
}
layer {
  name: "pool5/3x3_s2"
  type: "Pooling"
  bottom: "conv5/3x3_s1"
  top: "pool5/3x3_s2"
  pooling_param {
    pool: MAX
    kernel_size: 3
    stride: 2
  }
}
layer {
  name: "fc6"
  type: "InnerProduct"
  bottom: "pool5/3x3_s2"
  top: "fc6"
  inner_product_param {
    num_output: 4096
  }
}
layer {
  name: "fc7"
  type: "InnerProduct"
  bottom: "fc6"
  top: "fc7"
  inner_product_param {
    num_output: 4096
  }
}
layer {
  name: "fc8"
  type: "InnerProduct"
  bottom: "fc7"
  top: "fc8"
  inner_product_param {
    num_output: 1000
  }
}
I1012 20:56:58.001958 15939 net.cpp:435] Input 0 -> data
I1012 20:56:58.001988 15939 layer_factory.hpp:76] Creating layer conv1
I1012 20:56:58.002003 15939 net.cpp:110] Creating Layer conv1
I1012 20:56:58.002014 15939 net.cpp:477] conv1 <- data
I1012 20:56:58.002022 15939 net.cpp:433] conv1 -> conv1/11x11_s4
I1012 20:56:58.002573 15939 net.cpp:155] Setting up conv1
I1012 20:56:58.002593 15939 net.cpp:163] Top shape: 128 64 55 55 (24780800)
I1012 20:56:58.002607 15939 layer_factory.hpp:76] Creating layer conv1/relu
I1012 20:56:58.002614 15939 net.cpp:110] Creating Layer conv1/relu
I1012 20:56:58.002617 15939 net.cpp:477] conv1/relu <- conv1/11x11_s4
I1012 20:56:58.002622 15939 net.cpp:419] conv1/relu -> conv1/11x11_s4 (in-place)
I1012 20:56:58.002634 15939 net.cpp:155] Setting up conv1/relu
I1012 20:56:58.002638 15939 net.cpp:163] Top shape: 128 64 55 55 (24780800)
I1012 20:56:58.002641 15939 layer_factory.hpp:76] Creating layer pool1/3x3_s2
I1012 20:56:58.002646 15939 net.cpp:110] Creating Layer pool1/3x3_s2
I1012 20:56:58.002650 15939 net.cpp:477] pool1/3x3_s2 <- conv1/11x11_s4
I1012 20:56:58.002653 15939 net.cpp:433] pool1/3x3_s2 -> pool1/3x3_s2
I1012 20:56:58.002665 15939 net.cpp:155] Setting up pool1/3x3_s2
I1012 20:56:58.002671 15939 net.cpp:163] Top shape: 128 64 27 27 (5971968)
I1012 20:56:58.002673 15939 layer_factory.hpp:76] Creating layer conv2/5x5_s1
I1012 20:56:58.002679 15939 net.cpp:110] Creating Layer conv2/5x5_s1
I1012 20:56:58.002682 15939 net.cpp:477] conv2/5x5_s1 <- pool1/3x3_s2
I1012 20:56:58.002687 15939 net.cpp:433] conv2/5x5_s1 -> conv2/5x5_s1
I1012 20:56:58.004134 15939 net.cpp:155] Setting up conv2/5x5_s1
I1012 20:56:58.004143 15939 net.cpp:163] Top shape: 128 192 27 27 (17915904)
I1012 20:56:58.004151 15939 layer_factory.hpp:76] Creating layer cpnv2/relu
I1012 20:56:58.004158 15939 net.cpp:110] Creating Layer cpnv2/relu
I1012 20:56:58.004160 15939 net.cpp:477] cpnv2/relu <- conv2/5x5_s1
I1012 20:56:58.004164 15939 net.cpp:419] cpnv2/relu -> conv2/5x5_s1 (in-place)
I1012 20:56:58.004169 15939 net.cpp:155] Setting up cpnv2/relu
I1012 20:56:58.004173 15939 net.cpp:163] Top shape: 128 192 27 27 (17915904)
I1012 20:56:58.004176 15939 layer_factory.hpp:76] Creating layer pool2/3x3_s2
I1012 20:56:58.004180 15939 net.cpp:110] Creating Layer pool2/3x3_s2
I1012 20:56:58.004184 15939 net.cpp:477] pool2/3x3_s2 <- conv2/5x5_s1
I1012 20:56:58.004187 15939 net.cpp:433] pool2/3x3_s2 -> pool2/3x3_s2
I1012 20:56:58.004194 15939 net.cpp:155] Setting up pool2/3x3_s2
I1012 20:56:58.004199 15939 net.cpp:163] Top shape: 128 192 13 13 (4153344)
I1012 20:56:58.004202 15939 layer_factory.hpp:76] Creating layer conv3/3x3_s1
I1012 20:56:58.004209 15939 net.cpp:110] Creating Layer conv3/3x3_s1
I1012 20:56:58.004211 15939 net.cpp:477] conv3/3x3_s1 <- pool2/3x3_s2
I1012 20:56:58.004215 15939 net.cpp:433] conv3/3x3_s1 -> conv3/3x3_s1
I1012 20:56:58.007947 15939 net.cpp:155] Setting up conv3/3x3_s1
I1012 20:56:58.007961 15939 net.cpp:163] Top shape: 128 384 13 13 (8306688)
I1012 20:56:58.007969 15939 layer_factory.hpp:76] Creating layer conv3/relu
I1012 20:56:58.007975 15939 net.cpp:110] Creating Layer conv3/relu
I1012 20:56:58.007979 15939 net.cpp:477] conv3/relu <- conv3/3x3_s1
I1012 20:56:58.007984 15939 net.cpp:419] conv3/relu -> conv3/3x3_s1 (in-place)
I1012 20:56:58.008002 15939 net.cpp:155] Setting up conv3/relu
I1012 20:56:58.008005 15939 net.cpp:163] Top shape: 128 384 13 13 (8306688)
I1012 20:56:58.008008 15939 layer_factory.hpp:76] Creating layer conv4/3x3_s1
I1012 20:56:58.008015 15939 net.cpp:110] Creating Layer conv4/3x3_s1
I1012 20:56:58.008018 15939 net.cpp:477] conv4/3x3_s1 <- conv3/3x3_s1
I1012 20:56:58.008023 15939 net.cpp:433] conv4/3x3_s1 -> conv4/3x3_s1
I1012 20:56:58.012961 15939 net.cpp:155] Setting up conv4/3x3_s1
I1012 20:56:58.012974 15939 net.cpp:163] Top shape: 128 256 13 13 (5537792)
I1012 20:56:58.012979 15939 layer_factory.hpp:76] Creating layer conv4/relu
I1012 20:56:58.012985 15939 net.cpp:110] Creating Layer conv4/relu
I1012 20:56:58.012989 15939 net.cpp:477] conv4/relu <- conv4/3x3_s1
I1012 20:56:58.012994 15939 net.cpp:419] conv4/relu -> conv4/3x3_s1 (in-place)
I1012 20:56:58.012998 15939 net.cpp:155] Setting up conv4/relu
I1012 20:56:58.013002 15939 net.cpp:163] Top shape: 128 256 13 13 (5537792)
I1012 20:56:58.013011 15939 layer_factory.hpp:76] Creating layer conv5/3x3_s1
I1012 20:56:58.013017 15939 net.cpp:110] Creating Layer conv5/3x3_s1
I1012 20:56:58.013020 15939 net.cpp:477] conv5/3x3_s1 <- conv4/3x3_s1
I1012 20:56:58.013025 15939 net.cpp:433] conv5/3x3_s1 -> conv5/3x3_s1
I1012 20:56:58.016288 15939 net.cpp:155] Setting up conv5/3x3_s1
I1012 20:56:58.016299 15939 net.cpp:163] Top shape: 128 256 13 13 (5537792)
I1012 20:56:58.016309 15939 layer_factory.hpp:76] Creating layer conv5/relu
I1012 20:56:58.016314 15939 net.cpp:110] Creating Layer conv5/relu
I1012 20:56:58.016317 15939 net.cpp:477] conv5/relu <- conv5/3x3_s1
I1012 20:56:58.016321 15939 net.cpp:419] conv5/relu -> conv5/3x3_s1 (in-place)
I1012 20:56:58.016327 15939 net.cpp:155] Setting up conv5/relu
I1012 20:56:58.016331 15939 net.cpp:163] Top shape: 128 256 13 13 (5537792)
I1012 20:56:58.016335 15939 layer_factory.hpp:76] Creating layer pool5/3x3_s2
I1012 20:56:58.016338 15939 net.cpp:110] Creating Layer pool5/3x3_s2
I1012 20:56:58.016341 15939 net.cpp:477] pool5/3x3_s2 <- conv5/3x3_s1
I1012 20:56:58.016345 15939 net.cpp:433] pool5/3x3_s2 -> pool5/3x3_s2
I1012 20:56:58.016353 15939 net.cpp:155] Setting up pool5/3x3_s2
I1012 20:56:58.016357 15939 net.cpp:163] Top shape: 128 256 6 6 (1179648)
I1012 20:56:58.016360 15939 layer_factory.hpp:76] Creating layer fc6
I1012 20:56:58.016366 15939 net.cpp:110] Creating Layer fc6
I1012 20:56:58.016369 15939 net.cpp:477] fc6 <- pool5/3x3_s2
I1012 20:56:58.016373 15939 net.cpp:433] fc6 -> fc6
I1012 20:56:59.591845 15939 net.cpp:155] Setting up fc6
I1012 20:56:59.591881 15939 net.cpp:163] Top shape: 128 4096 (524288)
I1012 20:56:59.591893 15939 layer_factory.hpp:76] Creating layer fc7
I1012 20:56:59.591903 15939 net.cpp:110] Creating Layer fc7
I1012 20:56:59.591908 15939 net.cpp:477] fc7 <- fc6
I1012 20:56:59.591917 15939 net.cpp:433] fc7 -> fc7
I1012 20:57:02.279439 15939 net.cpp:155] Setting up fc7
I1012 20:57:02.279474 15939 net.cpp:163] Top shape: 128 4096 (524288)
I1012 20:57:02.279481 15939 layer_factory.hpp:76] Creating layer fc8
I1012 20:57:02.279491 15939 net.cpp:110] Creating Layer fc8
I1012 20:57:02.279495 15939 net.cpp:477] fc8 <- fc7
I1012 20:57:02.279502 15939 net.cpp:433] fc8 -> fc8
I1012 20:57:02.844326 15939 net.cpp:155] Setting up fc8
I1012 20:57:02.844360 15939 net.cpp:163] Top shape: 128 1000 (128000)
I1012 20:57:02.844369 15939 net.cpp:240] fc8 does not need backward computation.
I1012 20:57:02.844373 15939 net.cpp:240] fc7 does not need backward computation.
I1012 20:57:02.844377 15939 net.cpp:240] fc6 does not need backward computation.
I1012 20:57:02.844380 15939 net.cpp:240] pool5/3x3_s2 does not need backward computation.
I1012 20:57:02.844383 15939 net.cpp:240] conv5/relu does not need backward computation.
…
