…
9 11766 caffe.cpp:212] Use GPU with device ID 0
E0413 19:15:26.656507 11766 upgrade_proto.cpp:618] Attempting to upgrade input file specified using deprecated V1LayerParameter: ./imagenet_winners/googlenet.prototxt
I0413 19:15:26.656878 11766 upgrade_proto.cpp:626] Successfully upgraded file specified using deprecated V1LayerParameter
I0413 19:15:26.657752 11766 net.cpp:42] Initializing net from parameters: 
name: "googlenet"
input: "data"
input_dim: 128
input_dim: 3
input_dim: 224
input_dim: 224
force_backward: true
state {
  phase: TRAIN
}
layer {
  name: "conv1/7x7_s2"
  type: "Convolution"
  bottom: "data"
  top: "conv1/7x7_s2"
  param {
    lr_mult: 1
    decay_mult: 1
  }
  param {
    lr_mult: 2
    decay_mult: 0
  }
  convolution_param {
    num_output: 64
    pad: 3
    kernel_size: 7
    stride: 2
    weight_filler {
      type: "xavier"
      std: 0.1
    }
    bias_filler {
      type: "constant"
      value: 0.2
    }
  }
}
layer {
  name: "conv1/relu_7x7"
  type: "ReLU"
  bottom: "conv1/7x7_s2"
  top: "conv1/7x7_s2"
}
layer {
  name: "pool1/3x3_s2"
  type: "Pooling"
  bottom: "conv1/7x7_s2"
  top: "pool1/3x3_s2"
  pooling_param {
    pool: MAX
    kernel_size: 3
    stride: 2
  }
}
layer {
  name: "conv2/3x3_reduce"
  type: "Convolution"
  bottom: "pool1/3x3_s2"
  top: "conv2/3x3_reduce"
  param {
    lr_mult: 1
    decay_mult: 1
  }
  param {
    lr_mult: 2
    decay_mult: 0
  }
  convolution_param {
    num_output: 64
    kernel_size: 1
    weight_filler {
      type: "xavier"
      std: 0.1
    }
    bias_filler {
      type: "constant"
      value: 0.2
    }
  }
}
layer {
  name: "conv2/relu_3x3_reduce"
  type: "ReLU"
  bottom: "conv2/3x3_reduce"
  top: "conv2/3x3_reduce"
}
layer {
  name: "conv2/3x3"
  type: "Convolution"
  bottom: "conv2/3x3_reduce"
  top: "conv2/3x3"
  param {
    lr_mult: 1
    decay_mult: 1
  }
  param {
    lr_mult: 2
    decay_mult: 0
  }
  convolution_param {
    num_output: 192
    pad: 1
    kernel_size: 3
    weight_filler {
      type: "xavier"
      std: 0.03
    }
    bias_filler {
      type: "constant"
      value: 0.2
    }
  }
}
layer {
  name: "conv2/relu_3x3"
  type: "ReLU"
  bottom: "conv2/3x3"
  top: "conv2/3x3"
}
layer {
  name: "pool2/3x3_s2"
  type: "Pooling"
  bottom: "conv2/3x3"
  top: "pool2/3x3_s2"
  pooling_param {
    pool: MAX
    kernel_size: 3
    stride: 2
  }
}
layer {
  name: "inception_3a/1x1"
  type: "Convolution"
  bottom: "pool2/3x3_s2"
  top: "inception_3a/1x1"
  param {
    lr_mult: 1
    decay_mult: 1
  }
  param {
    lr_mult: 2
    decay_mult: 0
  }
  convolution_param {
    num_output: 64
    kernel_size: 1
    weight_filler {
      type: "xavier"
      std: 0.03
    }
    bias_filler {
      type: "constant"
      value: 0.2
    }
  }
}
layer {
  name: "inception_3a/relu_1x1"
  type: "ReLU"
  bottom: "inception_3a/1x1"
  top: "inception_3a/1x1"
}
layer {
  name: "inception_3a/3x3_reduce"
  type: "Convolution"
  bottom: "pool2/3x3_s2"
  top: "inception_3a/3x3_reduce"
  param {
    lr_mult: 1
    decay_mult: 1
  }
  param {
    lr_mult: 2
    decay_mult: 0
  }
  convolution_param {
    num_output: 96
    kernel_size: 1
  }
}
layer {
  name: "inception_3a/relu_3x3_reduce"
  type: "ReLU"
  bottom: "inception_3a/3x3_reduce"
  top: "inception_3a/3x3_reduce"
}
layer {
  name: "inception_3a/3x3"
  type: "Convolution"
  bottom: "inception_3a/3x3_reduce"
  top: "inception_3a/3x3"
  param {
    lr_mult: 1
    decay_mult: 1
  }
  param {
    lr_mult: 2
    decay_mult: 0
  }
  convolution_param {
    num_output: 128
    pad: 1
    kernel_size: 3
    weight_filler {
      type: "xavier"
      std: 0.09
    }
    bias_filler {
      type: "constant"
      value: 0.2
    }
  }
}
layer {
  name: "inception_3a/relu_3x3"
  type: "ReLU"
  bottom: "inception_3a/3x3"
  top: "inception_3a/3x3"
}
layer {
  name: "inception_3a/5x5_reduce"
  type: "Convolution"
  bottom: "pool2/3x3_s2"
  top: "inception_3a/5x5_reduce"
  param {
    lr_mult: 1
    decay_mult: 1
  }
  param {
    lr_mult: 2
    decay_mult: 0
  }
  convolution_param {
    num_output: 16
    kernel_size: 1
    weight_filler {
      type: "xavier"
      std: 0.2
    }
    bias_filler {
      type: "constant"
      value: 0.2
    }
  }
}
layer {
  name: "inception_3a/relu_5x5_reduce"
  type: "ReLU"
  bottom: "inception_3a/5x5_reduce"
  top: "inception_3a/5x5_reduce"
}
layer {
  name: "inception_3a/5x5"
  type: "Convolution"
  bottom: "inception_3a/5x5_reduce"
  top: "inception_3a/5x5"
  param {
    lr_mult: 1
    decay_mult: 1
  }
  param {
    lr_mult: 2
    decay_mult: 0
  }
  convolution_param {
    num_output: 32
    pad: 2
    kernel_size: 5
    weight_filler {
      type: "xavier"
      std: 0.03
    }
    bias_filler {
      type: "constant"
      value: 0.2
    }
  }
}
layer {
  name: "inception_3a/relu_5x5"
  type: "ReLU"
  bottom: "inception_3a/5x5"
  top: "inception_3a/5x5"
}
layer {
  name: "inception_3a/pool"
  type: "Pooling"
  bottom: "pool2/3x3_s2"
  top: "inception_3a/pool"
  pooling_param {
    pool: MAX
    kernel_size: 3
    stride: 1
    pad: 1
  }
}
layer {
  name: "inception_3a/pool_proj"
  type: "Convolution"
  bottom: "inception_3a/pool"
  top: "inception_3a/pool_proj"
  param {
    lr_mult: 1
    decay_mult: 1
  }
  param {
    lr_mult: 2
    decay_mult: 0
  }
  convolution_param {
    num_output: 32
    kernel_size: 1
    weight_filler {
      type: "xavier"
      std: 0.1
    }
    bias_filler {
      type: "constant"
      value: 0.2
    }
  }
}
layer {
  name: "inception_3a/relu_pool_proj"
  type: "ReLU"
  bottom: "inception_3a/pool_proj"
  top: "inception_3a/pool_proj"
}
layer {
  name: "inception_3a/output"
  type: "Concat"
  bottom: "inception_3a/1x1"
  bottom: "inception_3a/3x3"
  bottom: "inception_3a/5x5"
  bottom: "inception_3a/pool_proj"
  top: "inception_3a/output"
}
layer {
  name: "inception_3b/1x1"
  type: "Convolution"
  bottom: "inception_3a/output"
  top: "inception_3b/1x1"
  param {
    lr_mult: 1
    decay_mult: 1
  }
  param {
    lr_mult: 2
    decay_mult: 0
  }
  convolution_param {
    num_output: 128
    kernel_size: 1
    weight_filler {
      type: "xavier"
      std: 0.03
    }
    bias_filler {
      type: "constant"
      value: 0.2
    }
  }
}
layer {
  name: "inception_3b/relu_1x1"
  type: "ReLU"
  bottom: "inception_3b/1x1"
  top: "inception_3b/1x1"
}
layer {
  name: "inception_3b/3x3_reduce"
  type: "Convolution"
  bottom: "inception_3a/output"
  top: "inception_3b/3x3_reduce"
  param {
    lr_mult: 1
    decay_mult: 1
  }
  param {
    lr_mult: 2
    decay_mult: 0
  }
  convolution_param {
    num_output: 128
    kernel_size: 1
    weight_filler {
      type: "xavier"
      std: 0.09
    }
    bias_filler {
      type: "constant"
      value: 0.2
    }
  }
}
layer {
  name: "inception_3b/relu_3x3_reduce"
  type: "ReLU"
  bottom: "inception_3b/3x3_reduce"
  top: "inception_3b/3x3_reduce"
}
layer {
  name: "inception_3b/3x3"
  type: "Convolution"
  bottom: "inception_3b/3x3_reduce"
  top: "inception_3b/3x3"
  param {
    lr_mult: 1
    decay_mult: 1
  }
  param {
    lr_mult: 2
    decay_mult: 0
  }
  convolution_param {
    num_output: 192
    pad: 1
    kernel_size: 3
    weight_filler {
      type: "xavier"
      std: 0.03
    }
    bias_filler {
      type: "constant"
      value: 0.2
    }
  }
}
layer {
  name: "inception_3b/relu_3x3"
  type: "ReLU"
  bottom: "inception_3b/3x3"
  top: "inception_3b/3x3"
}
layer {
  name: "inception_3b/5x5_reduce"
  type: "Convolution"
  bottom: "inception_3a/output"
  top: "inception_3b/5x5_reduce"
  param {
    lr_mult: 1
    decay_mult: 1
  }
  param {
    lr_mult: 2
    decay_mult: 0
  }
  convolution_param {
    num_output: 32
    kernel_size: 1
    weight_filler {
      type: "xavier"
      std: 0.2
    }
    bias_filler {
      type: "constant"
      value: 0.2
    }
  }
}
layer {
  name: "inception_3b/relu_5x5_reduce"
  type: "ReLU"
  bottom: "inception_3b/5x5_reduce"
  top: "inception_3b/5x5_reduce"
}
layer {
  name: "inception_3b/5x5"
  type: "Convolution"
  bottom: "inception_3b/5x5_reduce"
  top: "inception_3b/5x5"
  param {
    lr_mult: 1
    decay_mult: 1
  }
  param {
    lr_mult: 2
    decay_mult: 0
  }
  convolution_param {
    num_output: 96
    pad: 2
    kernel_size: 5
    weight_filler {
      type: "xavier"
      std: 0.03
    }
    bias_filler {
      type: "constant"
      value: 0.2
    }
  }
}
layer {
  name: "inception_3b/relu_5x5"
  type: "ReLU"
  bottom: "inception_3b/5x5"
  top: "inception_3b/5x5"
}
layer {
  name: "inception_3b/pool"
  type: "Pooling"
  bottom: "inception_3a/output"
  top: "inception_3b/pool"
  pooling_param {
    pool: MAX
    kernel_size: 3
    stride: 1
    pad: 1
  }
}
layer {
  name: "inception_3b/pool_proj"
  type: "Convolution"
  bottom: "inception_3b/pool"
  top: "inception_3b/pool_proj"
  param {
    lr_mult: 1
    decay_mult: 1
  }
  param {
    lr_mult: 2
    decay_mult: 0
  }
  convolution_param {
    num_output: 64
    kernel_size: 1
    weight_filler {
      type: "xavier"
      std: 0.1
    }
    bias_filler {
      type: "constant"
      value: 0.2
    }
  }
}
layer {
  name: "inception_3b/relu_pool_proj"
  type: "ReLU"
  bottom: "inception_3b/pool_proj"
  top: "inception_3b/pool_proj"
}
layer {
  name: "inception_3b/output"
  type: "Concat"
  bottom: "inception_3b/1x1"
  bottom: "inception_3b/3x3"
  bottom: "inception_3b/5x5"
  bottom: "inception_3b/pool_proj"
  top: "inception_3b/output"
}
layer {
  name: "pool3/3x3_s2"
  type: "Pooling"
  bottom: "inception_3b/output"
  top: "pool3/3x3_s2"
  pooling_param {
    pool: MAX
    kernel_size: 3
    stride: 2
  }
}
layer {
  name: "inception_4a/1x1"
  type: "Convolution"
  bottom: "pool3/3x3_s2"
  top: "inception_4a/1x1"
  param {
    lr_mult: 1
    decay_mult: 1
  }
  param {
    lr_mult: 2
    decay_mult: 0
  }
  convolution_param {
    num_output: 192
    kernel_size: 1
    weight_filler {
      type: "xavier"
      std: 0.03
    }
    bias_filler {
      type: "constant"
      value: 0.2
    }
  }
}
layer {
  name: "inception_4a/relu_1x1"
  type: "ReLU"
  bottom: "inception_4a/1x1"
  top: "inception_4a/1x1"
}
layer {
  name: "inception_4a/3x3_reduce"
  type: "Convolution"
  bottom: "pool3/3x3_s2"
  top: "inception_4a/3x3_reduce"
  param {
    lr_mult: 1
    decay_mult: 1
  }
  param {
    lr_mult: 2
    decay_mult: 0
  }
  convolution_param {
    num_output: 96
    kernel_size: 1
    weight_filler {
      type: "xavier"
      std: 0.09
    }
    bias_filler {
      type: "constant"
      value: 0.2
    }
  }
}
layer {
  name: "inception_4a/relu_3x3_reduce"
  type: "ReLU"
  bottom: "inception_4a/3x3_reduce"
  top: "inception_4a/3x3_reduce"
}
layer {
  name: "inception_4a/3x3"
  type: "Convolution"
  bottom: "inception_4a/3x3_reduce"
  top: "inception_4a/3x3"
  param {
    lr_mult: 1
    decay_mult: 1
  }
  param {
    lr_mult: 2
    decay_mult: 0
  }
  convolution_param {
    num_output: 208
    pad: 1
    kernel_size: 3
    weight_filler {
      type: "xavier"
      std: 0.03
    }
    bias_filler {
      type: "constant"
      value: 0.2
    }
  }
}
layer {
  name: "inception_4a/relu_3x3"
  type: "ReLU"
  bottom: "inception_4a/3x3"
  top: "inception_4a/3x3"
}
layer {
  name: "inception_4a/5x5_reduce"
  type: "Convolution"
  bottom: "pool3/3x3_s2"
  top: "inception_4a/5x5_reduce"
  param {
    lr_mult: 1
    decay_mult: 1
  }
  param {
    lr_mult: 2
    decay_mult: 0
  }
  convolution_param {
    num_output: 16
    kernel_size: 1
    weight_filler {
      type: "xavier"
      std: 0.2
    }
    bias_filler {
      type: "constant"
      value: 0.2
    }
  }
}
layer {
  name: "inception_4a/relu_5x5_reduce"
  type: "ReLU"
  bottom: "inception_4a/5x5_reduce"
  top: "inception_4a/5x5_reduce"
}
layer {
  name: "inception_4a/5x5"
  type: "Convolution"
  bottom: "inception_4a/5x5_reduce"
  top: "inception_4a/5x5"
  param {
    lr_mult: 1
    decay_mult: 1
  }
  param {
    lr_mult: 2
    decay_mult: 0
  }
  convolution_param {
    num_output: 48
    pad: 2
    kernel_size: 5
    weight_filler {
      type: "xavier"
      std: 0.03
    }
    bias_filler {
      type: "constant"
      value: 0.2
    }
  }
}
layer {
  name: "inception_4a/relu_5x5"
  type: "ReLU"
  bottom: "inception_4a/5x5"
  top: "inception_4a/5x5"
}
layer {
  name: "inception_4a/pool"
  type: "Pooling"
  bottom: "pool3/3x3_s2"
  top: "inception_4a/pool"
  pooling_param {
    pool: MAX
    kernel_size: 3
    stride: 1
    pad: 1
  }
}
layer {
  name: "inception_4a/pool_proj"
  type: "Convolution"
  bottom: "inception_4a/pool"
  top: "inception_4a/pool_proj"
  param {
    lr_mult: 1
    decay_mult: 1
  }
  param {
    lr_mult: 2
    decay_mult: 0
  }
  convolution_param {
    num_output: 64
    kernel_size: 1
    weight_filler {
      type: "xavier"
      std: 0.1
    }
    bias_filler {
      type: "constant"
      value: 0.2
    }
  }
}
layer {
  name: "inception_4a/relu_pool_proj"
  type: "ReLU"
  bottom: "inception_4a/pool_proj"
  top: "inception_4a/pool_proj"
}
layer {
  name: "inception_4a/output"
  type: "Concat"
  bottom: "inception_4a/1x1"
  bottom: "inception_4a/3x3"
  bottom: "inception_4a/5x5"
  bottom: "inception_4a/pool_proj"
  top: "inception_4a/output"
}
layer {
  name: "inception_4b/1x1"
  type: "Convolution"
  bottom: "inception_4a/output"
  top: "inception_4b/1x1"
  param {
    lr_mult: 1
    decay_mult: 1
  }
  param {
    lr_mult: 2
    decay_mult: 0
  }
  convolution_param {
    num_output: 160
    kernel_size: 1
    weight_filler {
      type: "xavier"
      std: 0.03
    }
    bias_filler {
      type: "constant"
      value: 0.2
    }
  }
}
layer {
  name: "inception_4b/relu_1x1"
  type: "ReLU"
  bottom: "inception_4b/1x1"
  top: "inception_4b/1x1"
}
layer {
  name: "inception_4b/3x3_reduce"
  type: "Convolution"
  bottom: "inception_4a/output"
  top: "inception_4b/3x3_reduce"
  param {
    lr_mult: 1
    decay_mult: 1
  }
  param {
    lr_mult: 2
    decay_mult: 0
  }
  convolution_param {
    num_output: 112
    kernel_size: 1
    weight_filler {
      type: "xavier"
      std: 0.09
    }
    bias_filler {
      type: "constant"
      value: 0.2
    }
  }
}
layer {
  name: "inception_4b/relu_3x3_reduce"
  type: "ReLU"
  bottom: "inception_4b/3x3_reduce"
  top: "inception_4b/3x3_reduce"
}
layer {
  name: "inception_4b/3x3"
  type: "Convolution"
  bottom: "inception_4b/3x3_reduce"
  top: "inception_4b/3x3"
  param {
    lr_mult: 1
    decay_mult: 1
  }
  param {
    lr_mult: 2
    decay_mult: 0
  }
  convolution_param {
    num_output: 224
    pad: 1
    kernel_size: 3
    weight_filler {
      type: "xavier"
      std: 0.03
    }
    bias_filler {
      type: "constant"
      value: 0.2
    }
  }
}
layer {
  name: "inception_4b/relu_3x3"
  type: "ReLU"
  bottom: "inception_4b/3x3"
  top: "inception_4b/3x3"
}
layer {
  name: "inception_4b/5x5_reduce"
  type: "Convolution"
  bottom: "inception_4a/output"
  top: "inception_4b/5x5_reduce"
  param {
    lr_mult: 1
    decay_mult: 1
  }
  param {
    lr_mult: 2
    decay_mult: 0
  }
  convolution_param {
    num_output: 24
    kernel_size: 1
    weight_filler {
      type: "xavier"
      std: 0.2
    }
    bias_filler {
      type: "constant"
      value: 0.2
    }
  }
}
layer {
  name: "inception_4b/relu_5x5_reduce"
  type: "ReLU"
  bottom: "inception_4b/5x5_reduce"
  top: "inception_4b/5x5_reduce"
}
layer {
  name: "inception_4b/5x5"
  type: "Convolution"
  bottom: "inception_4b/5x5_reduce"
  top: "inception_4b/5x5"
  param {
    lr_mult: 1
    decay_mult: 1
  }
  param {
    lr_mult: 2
    decay_mult: 0
  }
  convolution_param {
    num_output: 64
    pad: 2
    kernel_size: 5
    weight_filler {
      type: "xavier"
      std: 0.03
    }
    bias_filler {
      type: "constant"
      value: 0.2
    }
  }
}
layer {
  name: "inception_4b/relu_5x5"
  type: "ReLU"
  bottom: "inception_4b/5x5"
  top: "inception_4b/5x5"
}
layer {
  name: "inception_4b/pool"
  type: "Pooling"
  bottom: "inception_4a/output"
  top: "inception_4b/pool"
  pooling_param {
    pool: MAX
    kernel_size: 3
    stride: 1
    pad: 1
  }
}
layer {
  name: "inception_4b/pool_proj"
  type: "Convolution"
  bottom: "inception_4b/pool"
  top: "inception_4b/pool_proj"
  param {
    lr_mult: 1
    decay_mult: 1
  }
  param {
    lr_mult: 2
    decay_mult: 0
  }
  convolution_param {
    num_output: 64
    kernel_size: 1
    weight_filler {
      type: "xavier"
      std: 0.1
    }
    bias_filler {
      type: "constant"
      value: 0.2
    }
  }
}
layer {
  name: "inception_4b/relu_pool_proj"
  type: "ReLU"
  bottom: "inception_4b/pool_proj"
  top: "inception_4b/pool_proj"
}
layer {
  name: "inception_4b/output"
  type: "Concat"
  bottom: "inception_4b/1x1"
  bottom: "inception_4b/3x3"
  bottom: "inception_4b/5x5"
  bottom: "inception_4b/pool_proj"
  top: "inception_4b/output"
}
layer {
  name: "inception_4c/1x1"
  type: "Convolution"
  bottom: "inception_4b/output"
  top: "inception_4c/1x1"
  param {
    lr_mult: 1
    decay_mult: 1
  }
  param {
    lr_mult: 2
    decay_mult: 0
  }
  convolution_param {
    num_output: 128
    kernel_size: 1
    weight_filler {
      type: "xavier"
      std: 0.03
    }
    bias_filler {
      type: "constant"
      value: 0.2
    }
  }
}
layer {
  name: "inception_4c/relu_1x1"
  type: "ReLU"
  bottom: "inception_4c/1x1"
  top: "inception_4c/1x1"
}
layer {
  name: "inception_4c/3x3_reduce"
  type: "Convolution"
  bottom: "inception_4b/output"
  top: "inception_4c/3x3_reduce"
  param {
    lr_mult: 1
    decay_mult: 1
  }
  param {
    lr_mult: 2
    decay_mult: 0
  }
  convolution_param {
    num_output: 128
    kernel_size: 1
    weight_filler {
      type: "xavier"
      std: 0.09
    }
    bias_filler {
      type: "constant"
      value: 0.2
    }
  }
}
layer {
  name: "inception_4c/relu_3x3_reduce"
  type: "ReLU"
  bottom: "inception_4c/3x3_reduce"
  top: "inception_4c/3x3_reduce"
}
layer {
  name: "inception_4c/3x3"
  type: "Convolution"
  bottom: "inception_4c/3x3_reduce"
  top: "inception_4c/3x3"
  param {
    lr_mult: 1
    decay_mult: 1
  }
  param {
    lr_mult: 2
    decay_mult: 0
  }
  convolution_param {
    num_output: 256
    pad: 1
    kernel_size: 3
    weight_filler {
      type: "xavier"
      std: 0.03
    }
    bias_filler {
      type: "constant"
      value: 0.2
    }
  }
}
layer {
  name: "inception_4c/relu_3x3"
  type: "ReLU"
  bottom: "inception_4c/3x3"
  top: "inception_4c/3x3"
}
layer {
  name: "inception_4c/5x5_reduce"
  type: "Convolution"
  bottom: "inception_4b/output"
  top: "inception_4c/5x5_reduce"
  param {
    lr_mult: 1
    decay_mult: 1
  }
  param {
    lr_mult: 2
    decay_mult: 0
  }
  convolution_param {
    num_output: 24
    kernel_size: 1
    weight_filler {
      type: "xavier"
      std: 0.2
    }
    bias_filler {
      type: "constant"
      value: 0.2
    }
  }
}
layer {
  name: "inception_4c/relu_5x5_reduce"
  type: "ReLU"
  bottom: "inception_4c/5x5_reduce"
  top: "inception_4c/5x5_reduce"
}
layer {
  name: "inception_4c/5x5"
  type: "Convolution"
  bottom: "inception_4c/5x5_reduce"
  top: "inception_4c/5x5"
  param {
    lr_mult: 1
    decay_mult: 1
  }
  param {
    lr_mult: 2
    decay_mult: 0
  }
  convolution_param {
    num_output: 64
    pad: 2
    kernel_size: 5
    weight_filler {
      type: "xavier"
      std: 0.03
    }
    bias_filler {
      type: "constant"
      value: 0.2
    }
  }
}
layer {
  name: "inception_4c/relu_5x5"
  type: "ReLU"
  bottom: "inception_4c/5x5"
  top: "inception_4c/5x5"
}
layer {
  name: "inception_4c/pool"
  type: "Pooling"
  bottom: "inception_4b/output"
  top: "inception_4c/pool"
  pooling_param {
    pool: MAX
    kernel_size: 3
    stride: 1
    pad: 1
  }
}
layer {
  name: "inception_4c/pool_proj"
  type: "Convolution"
  bottom: "inception_4c/pool"
  top: "inception_4c/pool_proj"
  param {
    lr_mult: 1
    decay_mult: 1
  }
  param {
    lr_mult: 2
    decay_mult: 0
  }
  convolution_param {
    num_output: 64
    kernel_size: 1
    weight_filler {
      type: "xavier"
      std: 0.1
    }
    bias_filler {
      type: "constant"
      value: 0.2
    }
  }
}
layer {
  name: "inception_4c/relu_pool_proj"
  type: "ReLU"
  bottom: "inception_4c/pool_proj"
  top: "inception_4c/pool_proj"
}
layer {
  name: "inception_4c/output"
  type: "Concat"
  bottom: "inception_4c/1x1"
  bottom: "inception_4c/3x3"
  bottom: "inception_4c/5x5"
  bottom: "inception_4c/pool_proj"
  top: "inception_4c/output"
}
layer {
  name: "inception_4d/1x1"
  type: "Convolution"
  bottom: "inception_4c/output"
  top: "inception_4d/1x1"
  param {
    lr_mult: 1
    decay_mult: 1
  }
  param {
    lr_mult: 2
    decay_mult: 0
  }
  convolution_param {
    num_output: 112
    kernel_size: 1
    weight_filler {
      type: "xavier"
      std: 0.03
    }
    bias_filler {
      type: "constant"
      value: 0.2
    }
  }
}
layer {
  name: "inception_4d/relu_1x1"
  type: "ReLU"
  bottom: "inception_4d/1x1"
  top: "inception_4d/1x1"
}
layer {
  name: "inception_4d/3x3_reduce"
  type: "Convolution"
  bottom: "inception_4c/output"
  top: "inception_4d/3x3_reduce"
  param {
    lr_mult: 1
    decay_mult: 1
  }
  param {
    lr_mult: 2
    decay_mult: 0
  }
  convolution_param {
    num_output: 144
    kernel_size: 1
    weight_filler {
      type: "xavier"
      std: 0.09
    }
    bias_filler {
      type: "constant"
      value: 0.2
    }
  }
}
layer {
  name: "inception_4d/relu_3x3_reduce"
  type: "ReLU"
  bottom: "inception_4d/3x3_reduce"
  top: "inception_4d/3x3_reduce"
}
layer {
  name: "inception_4d/3x3"
  type: "Convolution"
  bottom: "inception_4d/3x3_reduce"
  top: "inception_4d/3x3"
  param {
    lr_mult: 1
    decay_mult: 1
  }
  param {
    lr_mult: 2
    decay_mult: 0
  }
  convolution_param {
    num_output: 288
    pad: 1
    kernel_size: 3
    weight_filler {
      type: "xavier"
      std: 0.03
    }
    bias_filler {
      type: "constant"
      value: 0.2
    }
  }
}
layer {
  name: "inception_4d/relu_3x3"
  type: "ReLU"
  bottom: "inception_4d/3x3"
  top: "inception_4d/3x3"
}
layer {
  name: "inception_4d/5x5_reduce"
  type: "Convolution"
  bottom: "inception_4c/output"
  top: "inception_4d/5x5_reduce"
  param {
    lr_mult: 1
    decay_mult: 1
  }
  param {
    lr_mult: 2
    decay_mult: 0
  }
  convolution_param {
    num_output: 32
    kernel_size: 1
    weight_filler {
      type: "xavier"
      std: 0.2
    }
    bias_filler {
      type: "constant"
      value: 0.2
    }
  }
}
layer {
  name: "inception_4d/relu_5x5_reduce"
  type: "ReLU"
  bottom: "inception_4d/5x5_reduce"
  top: "inception_4d/5x5_reduce"
}
layer {
  name: "inception_4d/5x5"
  type: "Convolution"
  bottom: "inception_4d/5x5_reduce"
  top: "inception_4d/5x5"
  param {
    lr_mult: 1
    decay_mult: 1
  }
  param {
    lr_mult: 2
    decay_mult: 0
  }
  convolution_param {
    num_output: 64
    pad: 2
    kernel_size: 5
    weight_filler {
      type: "xavier"
      std: 0.03
    }
    bias_filler {
      type: "constant"
      value: 0.2
    }
  }
}
layer {
  name: "inception_4d/relu_5x5"
  type: "ReLU"
  bottom: "inception_4d/5x5"
  top: "inception_4d/5x5"
}
layer {
  name: "inception_4d/pool"
  type: "Pooling"
  bottom: "inception_4c/output"
  top: "inception_4d/pool"
  pooling_param {
    pool: MAX
    kernel_size: 3
    stride: 1
    pad: 1
  }
}
layer {
  name: "inception_4d/pool_proj"
  type: "Convolution"
  bottom: "inception_4d/pool"
  top: "inception_4d/pool_proj"
  param {
    lr_mult: 1
    decay_mult: 1
  }
  param {
    lr_mult: 2
    decay_mult: 0
  }
  convolution_param {
    num_output: 64
    kernel_size: 1
    weight_filler {
      type: "xavier"
      std: 0.1
    }
    bias_filler {
      type: "constant"
      value: 0.2
    }
  }
}
layer {
  name: "inception_4d/relu_pool_proj"
  type: "ReLU"
  bottom: "inception_4d/pool_proj"
  top: "inception_4d/pool_proj"
}
layer {
  name: "inception_4d/output"
  type: "Concat"
  bottom: "inception_4d/1x1"
  bottom: "inception_4d/3x3"
  bottom: "inception_4d/5x5"
  bottom: "inception_4d/pool_proj"
  top: "inception_4d/output"
}
layer {
  name: "inception_4e/1x1"
  type: "Convolution"
  bottom: "inception_4d/output"
  top: "inception_4e/1x1"
  param {
    lr_mult: 1
    decay_mult: 1
  }
  param {
    lr_mult: 2
    decay_mult: 0
  }
  convolution_param {
    num_output: 256
    kernel_size: 1
    weight_filler {
      type: "xavier"
      std: 0.03
    }
    bias_filler {
      type: "constant"
      value: 0.2
    }
  }
}
layer {
  name: "inception_4e/relu_1x1"
  type: "ReLU"
  bottom: "inception_4e/1x1"
  top: "inception_4e/1x1"
}
layer {
  name: "inception_4e/3x3_reduce"
  type: "Convolution"
  bottom: "inception_4d/output"
  top: "inception_4e/3x3_reduce"
  param {
    lr_mult: 1
    decay_mult: 1
  }
  param {
    lr_mult: 2
    decay_mult: 0
  }
  convolution_param {
    num_output: 160
    kernel_size: 1
    weight_filler {
      type: "xavier"
      std: 0.09
    }
    bias_filler {
      type: "constant"
      value: 0.2
    }
  }
}
layer {
  name: "inception_4e/relu_3x3_reduce"
  type: "ReLU"
  bottom: "inception_4e/3x3_reduce"
  top: "inception_4e/3x3_reduce"
}
layer {
  name: "inception_4e/3x3"
  type: "Convolution"
  bottom: "inception_4e/3x3_reduce"
  top: "inception_4e/3x3"
  param {
    lr_mult: 1
    decay_mult: 1
  }
  param {
    lr_mult: 2
    decay_mult: 0
  }
  convolution_param {
    num_output: 320
    pad: 1
    kernel_size: 3
    weight_filler {
      type: "xavier"
      std: 0.03
    }
    bias_filler {
      type: "constant"
      value: 0.2
    }
  }
}
layer {
  name: "inception_4e/relu_3x3"
  type: "ReLU"
  bottom: "inception_4e/3x3"
  top: "inception_4e/3x3"
}
layer {
  name: "inception_4e/5x5_reduce"
  type: "Convolution"
  bottom: "inception_4d/output"
  top: "inception_4e/5x5_reduce"
  param {
    lr_mult: 1
    decay_mult: 1
  }
  param {
    lr_mult: 2
    decay_mult: 0
  }
  convolution_param {
    num_output: 32
    kernel_size: 1
    weight_filler {
      type: "xavier"
      std: 0.2
    }
    bias_filler {
      type: "constant"
      value: 0.2
    }
  }
}
layer {
  name: "inception_4e/relu_5x5_reduce"
  type: "ReLU"
  bottom: "inception_4e/5x5_reduce"
  top: "inception_4e/5x5_reduce"
}
layer {
  name: "inception_4e/5x5"
  type: "Convolution"
  bottom: "inception_4e/5x5_reduce"
  top: "inception_4e/5x5"
  param {
    lr_mult: 1
    decay_mult: 1
  }
  param {
    lr_mult: 2
    decay_mult: 0
  }
  convolution_param {
    num_output: 128
    pad: 2
    kernel_size: 5
    weight_filler {
      type: "xavier"
      std: 0.03
    }
    bias_filler {
      type: "constant"
      value: 0.2
    }
  }
}
layer {
  name: "inception_4e/relu_5x5"
  type: "ReLU"
  bottom: "inception_4e/5x5"
  top: "inception_4e/5x5"
}
layer {
  name: "inception_4e/pool"
  type: "Pooling"
  bottom: "inception_4d/output"
  top: "inception_4e/pool"
  pooling_param {
    pool: MAX
    kernel_size: 3
    stride: 1
    pad: 1
  }
}
layer {
  name: "inception_4e/pool_proj"
  type: "Convolution"
  bottom: "inception_4e/pool"
  top: "inception_4e/pool_proj"
  param {
    lr_mult: 1
    decay_mult: 1
  }
  param {
    lr_mult: 2
    decay_mult: 0
  }
  convolution_param {
    num_output: 128
    kernel_size: 1
    weight_filler {
      type: "xavier"
      std: 0.1
    }
    bias_filler {
      type: "constant"
      value: 0.2
    }
  }
}
layer {
  name: "inception_4e/relu_pool_proj"
  type: "ReLU"
  bottom: "inception_4e/pool_proj"
  top: "inception_4e/pool_proj"
}
layer {
  name: "inception_4e/output"
  type: "Concat"
  bottom: "inception_4e/1x1"
  bottom: "inception_4e/3x3"
  bottom: "inception_4e/5x5"
  bottom: "inception_4e/pool_proj"
  top: "inception_4e/output"
}
layer {
  name: "pool4/3x3_s2"
  type: "Pooling"
  bottom: "inception_4e/output"
  top: "pool4/3x3_s2"
  pooling_param {
    pool: MAX
    kernel_size: 3
    stride: 2
  }
}
layer {
  name: "inception_5a/1x1"
  type: "Convolution"
  bottom: "pool4/3x3_s2"
  top: "inception_5a/1x1"
  param {
    lr_mult: 1
    decay_mult: 1
  }
  param {
    lr_mult: 2
    decay_mult: 0
  }
  convolution_param {
    num_output: 256
    kernel_size: 1
    weight_filler {
      type: "xavier"
      std: 0.03
    }
    bias_filler {
      type: "constant"
      value: 0.2
    }
  }
}
layer {
  name: "inception_5a/relu_1x1"
  type: "ReLU"
  bottom: "inception_5a/1x1"
  top: "inception_5a/1x1"
}
layer {
  name: "inception_5a/3x3_reduce"
  type: "Convolution"
  bottom: "pool4/3x3_s2"
  top: "inception_5a/3x3_reduce"
  param {
    lr_mult: 1
    decay_mult: 1
  }
  param {
    lr_mult: 2
    decay_mult: 0
  }
  convolution_param {
    num_output: 160
    kernel_size: 1
    weight_filler {
      type: "xavier"
      std: 0.09
    }
    bias_filler {
      type: "constant"
      value: 0.2
    }
  }
}
layer {
  name: "inception_5a/relu_3x3_reduce"
  type: "ReLU"
  bottom: "inception_5a/3x3_reduce"
  top: "inception_5a/3x3_reduce"
}
layer {
  name: "inception_5a/3x3"
  type: "Convolution"
  bottom: "inception_5a/3x3_reduce"
  top: "inception_5a/3x3"
  param {
    lr_mult: 1
    decay_mult: 1
  }
  param {
    lr_mult: 2
    decay_mult: 0
  }
  convolution_param {
    num_output: 320
    pad: 1
    kernel_size: 3
    weight_filler {
      type: "xavier"
      std: 0.03
    }
    bias_filler {
      type: "constant"
      value: 0.2
    }
  }
}
layer {
  name: "inception_5a/relu_3x3"
  type: "ReLU"
  bottom: "inception_5a/3x3"
  top: "inception_5a/3x3"
}
layer {
  name: "inception_5a/5x5_reduce"
  type: "Convolution"
  bottom: "pool4/3x3_s2"
  top: "inception_5a/5x5_reduce"
  param {
    lr_mult: 1
    decay_mult: 1
  }
  param {
    lr_mult: 2
    decay_mult: 0
  }
  convolution_param {
    num_output: 32
    kernel_size: 1
    weight_filler {
      type: "xavier"
      std: 0.2
    }
    bias_filler {
      type: "constant"
      value: 0.2
    }
  }
}
layer {
  name: "inception_5a/relu_5x5_reduce"
  type: "ReLU"
  bottom: "inception_5a/5x5_reduce"
  top: "inception_5a/5x5_reduce"
}
layer {
  name: "inception_5a/5x5"
  type: "Convolution"
  bottom: "inception_5a/5x5_reduce"
  top: "inception_5a/5x5"
  param {
    lr_mult: 1
    decay_mult: 1
  }
  param {
    lr_mult: 2
    decay_mult: 0
  }
  convolution_param {
    num_output: 128
    pad: 2
    kernel_size: 5
    weight_filler {
      type: "xavier"
      std: 0.03
    }
    bias_filler 
I0413 19:15:26.658208 11766 net.cpp:340] Input 0 -> data
I0413 19:15:26.658251 11766 layer_factory.hpp:74] Creating layer conv1/7x7_s2
I0413 19:15:26.658267 11766 net.cpp:84] Creating Layer conv1/7x7_s2
I0413 19:15:26.658272 11766 net.cpp:380] conv1/7x7_s2 <- data
I0413 19:15:26.658278 11766 net.cpp:338] conv1/7x7_s2 -> conv1/7x7_s2
I0413 19:15:26.658288 11766 net.cpp:113] Setting up conv1/7x7_s2
I0413 19:15:26.658713 11766 net.cpp:120] Top shape: 128 64 112 112 (102760448)
I0413 19:15:26.658725 11766 layer_factory.hpp:74] Creating layer conv1/relu_7x7
I0413 19:15:26.658730 11766 net.cpp:84] Creating Layer conv1/relu_7x7
I0413 19:15:26.658733 11766 net.cpp:380] conv1/relu_7x7 <- conv1/7x7_s2
I0413 19:15:26.658737 11766 net.cpp:327] conv1/relu_7x7 -> conv1/7x7_s2 (in-place)
I0413 19:15:26.658741 11766 net.cpp:113] Setting up conv1/relu_7x7
I0413 19:15:26.658751 11766 net.cpp:120] Top shape: 128 64 112 112 (102760448)
I0413 19:15:26.658753 11766 layer_factory.hpp:74] Creating layer pool1/3x3_s2
I0413 19:15:26.658759 11766 net.cpp:84] Creating Layer pool1/3x3_s2
I0413 19:15:26.658762 11766 net.cpp:380] pool1/3x3_s2 <- conv1/7x7_s2
I0413 19:15:26.658766 11766 net.cpp:338] pool1/3x3_s2 -> pool1/3x3_s2
I0413 19:15:26.658771 11766 net.cpp:113] Setting up pool1/3x3_s2
I0413 19:15:26.658782 11766 net.cpp:120] Top shape: 128 64 56 56 (25690112)
I0413 19:15:26.658785 11766 layer_factory.hpp:74] Creating layer conv2/3x3_reduce
I0413 19:15:26.658790 11766 net.cpp:84] Creating Layer conv2/3x3_reduce
I0413 19:15:26.658793 11766 net.cpp:380] conv2/3x3_reduce <- pool1/3x3_s2
I0413 19:15:26.658797 11766 net.cpp:338] conv2/3x3_reduce -> conv2/3x3_reduce
I0413 19:15:26.658802 11766 net.cpp:113] Setting up conv2/3x3_reduce
I0413 19:15:26.658840 11766 net.cpp:120] Top shape: 128 64 56 56 (25690112)
I0413 19:15:26.658846 11766 layer_factory.hpp:74] Creating layer conv2/relu_3x3_reduce
I0413 19:15:26.658850 11766 net.cpp:84] Creating Layer conv2/relu_3x3_reduce
I0413 19:15:26.658854 11766 net.cpp:380] conv2/relu_3x3_reduce <- conv2/3x3_reduce
I0413 19:15:26.658859 11766 net.cpp:327] conv2/relu_3x3_reduce -> conv2/3x3_reduce (in-place)
I0413 19:15:26.658861 11766 net.cpp:113] Setting up conv2/relu_3x3_reduce
I0413 19:15:26.658865 11766 net.cpp:120] Top shape: 128 64 56 56 (25690112)
I0413 19:15:26.658869 11766 layer_factory.hpp:74] Creating layer conv2/3x3
I0413 19:15:26.658872 11766 net.cpp:84] Creating Layer conv2/3x3
I0413 19:15:26.658879 11766 net.cpp:380] conv2/3x3 <- conv2/3x3_reduce
I0413 19:15:26.658885 11766 net.cpp:338] conv2/3x3 -> conv2/3x3
I0413 19:15:26.658890 11766 net.cpp:113] Setting up conv2/3x3
I0413 19:15:26.659620 11766 net.cpp:120] Top shape: 128 192 56 56 (77070336)
I0413 19:15:26.659629 11766 layer_factory.hpp:74] Creating layer conv2/relu_3x3
I0413 19:15:26.659633 11766 net.cpp:84] Creating Layer conv2/relu_3x3
I0413 19:15:26.659636 11766 net.cpp:380] conv2/relu_3x3 <- conv2/3x3
I0413 19:15:26.659639 11766 net.cpp:327] conv2/relu_3x3 -> conv2/3x3 (in-place)
I0413 19:15:26.659643 11766 net.cpp:113] Setting up conv2/relu_3x3
I0413 19:15:26.659647 11766 net.cpp:120] Top shape: 128 192 56 56 (77070336)
I0413 19:15:26.659651 11766 layer_factory.hpp:74] Creating layer pool2/3x3_s2
I0413 19:15:26.659656 11766 net.cpp:84] Creating Layer pool2/3x3_s2
I0413 19:15:26.659658 11766 net.cpp:380] pool2/3x3_s2 <- conv2/3x3
I0413 19:15:26.659662 11766 net.cpp:338] pool2/3x3_s2 -> pool2/3x3_s2
I0413 19:15:26.659665 11766 net.cpp:113] Setting up pool2/3x3_s2
I0413 19:15:26.659672 11766 net.cpp:120] Top shape: 128 192 28 28 (19267584)
I0413 19:15:26.659674 11766 layer_factory.hpp:74] Creating layer pool2/3x3_s2_pool2/3x3_s2_0_split
I0413 19:15:26.659679 11766 net.cpp:84] Creating Layer pool2/3x3_s2_pool2/3x3_s2_0_split
I0413 19:15:26.659682 11766 net.cpp:380] pool2/3x3_s2_pool2/3x3_s2_0_split <- pool2/3x3_s2
I0413 19:15:26.659687 11766 net.cpp:338] pool2/3x3_s2_pool2/3x3_s2_0_split -> pool2/3x3_s2_pool2/3x3_s2_0_split_0
I0413 19:15:26.659690 11766 net.cpp:338] pool2/3x3_s2_pool2/3x3_s2_0_split -> pool2/3x3_s2_pool2/3x3_s2_0_split_1
I0413 19:15:26.659694 11766 net.cpp:338] pool2/3x3_s2_pool2/3x3_s2_0_split -> pool2/3x3_s2_pool2/3x3_s2_0_split_2
I0413 19:15:26.659699 11766 net.cpp:338] pool2/3x3_s2_pool2/3x3_s2_0_split -> pool2/3x3_s2_pool2/3x3_s2_0_split_3
I0413 19:15:26.659703 11766 net.cpp:113] Setting up pool2/3x3_s2_pool2/3x3_s2_0_split
I0413 19:15:26.659709 11766 net.cpp:120] Top shape: 128 192 28 28 (19267584)
I0413 19:15:26.659713 11766 net.cpp:120] Top shape: 128 192 28 28 (19267584)
I0413 19:15:26.659716 11766 net.cpp:120] Top shape: 128 192 28 28 (19267584)
I0413 19:15:26.659719 11766 net.cpp:120] Top shape: 128 192 28 28 (19267584)
I0413 19:15:26.659723 11766 layer_factory.hpp:74] Creating layer inception_3a/1x1
I0413 19:15:26.659728 11766 net.cpp:84] Creating Layer inception_3a/1x1
I0413 19:15:26.659729 11766 net.cpp:380] inception_3a/1x1 <- pool2/3x3_s2_pool2/3x3_s2_0_split_0
I0413 19:15:26.659737 11766 net.cpp:338] inception_3a/1x1 -> inception_3a/1x1
I0413 19:15:26.659742 11766 net.cpp:113] Setting up inception_3a/1x1
I0413 19:15:26.659827 11766 net.cpp:120] Top shape: 128 64 28 28 (6422528)
I0413 19:15:26.659833 11766 layer_factory.hpp:74] Creating layer inception_3a/relu_1x1
I0413 19:15:26.659837 11766 net.cpp:84] Creating Layer inception_3a/relu_1x1
I0413 19:15:26.659839 11766 net.cpp:380] inception_3a/relu_1x1 <- inception_3a/1x1
I0413 19:15:26.659844 11766 net.cpp:327] inception_3a/relu_1x1 -> inception_3a/1x1 (in-place)
I0413 19:15:26.659848 11766 net.cpp:113] Setting up inception_3a/relu_1x1
I0413 19:15:26.659852 11766 net.cpp:120] Top shape: 128 64 28 28 (6422528)
I0413 19:15:26.659854 11766 layer_factory.hpp:74] Creating layer inception_3a/3x3_reduce
I0413 19:15:26.659858 11766 net.cpp:84] Creating Layer inception_3a/3x3_reduce
I0413 19:15:26.659862 11766 net.cpp:380] inception_3a/3x3_reduce <- pool2/3x3_s2_pool2/3x3_s2_0_split_1
I0413 19:15:26.659867 11766 net.cpp:338] inception_3a/3x3_reduce -> inception_3a/3x3_reduce
I0413 19:15:26.659871 11766 net.cpp:113] Setting up inception_3a/3x3_reduce
I0413 19:15:26.659906 11766 net.cpp:120] Top shape: 128 96 28 28 (9633792)
I0413 19:15:26.659914 11766 layer_factory.hpp:74] Creating layer inception_3a/relu_3x3_reduce
I0413 19:15:26.659917 11766 net.cpp:84] Creating Layer inception_3a/relu_3x3_reduce
I0413 19:15:26.659919 11766 net.cpp:380] inception_3a/relu_3x3_reduce <- inception_3a/3x3_reduce
I0413 19:15:26.659924 11766 net.cpp:327] inception_3a/relu_3x3_reduce -> inception_3a/3x3_reduce (in-place)
I0413 19:15:26.659930 11766 net.cpp:113] Setting up inception_3a/relu_3x3_reduce
I0413 19:15:26.659934 11766 net.cpp:120] Top shape: 128 96 28 28 (9633792)
I0413 19:15:26.659937 11766 layer_factory.hpp:74] Creating layer inception_3a/3x3
I0413 19:15:26.659943 11766 net.cpp:84] Creating Layer inception_3a/3x3
I0413 19:15:26.659946 11766 net.cpp:380] inception_3a/3x3 <- inception_3a/3x3_reduce
I0413 19:15:26.659951 11766 net.cpp:338] inception_3a/3x3 -> inception_3a/3x3
I0413 19:15:26.659956 11766 net.cpp:113] Setting up inception_3a/3x3
I0413 19:15:26.660640 11766 net.cpp:120] Top shape: 128 128 28 28 (12845056)
I0413 19:15:26.660647 11766 layer_factory.hpp:74] Creating layer inception_3a/relu_3x3
I0413 19:15:26.660650 11766 net.cpp:84] Creating Layer inception_3a/relu_3x3
I0413 19:15:26.660653 11766 net.cpp:380] inception_3a/relu_3x3 <- inception_3a/3x3
I0413 19:15:26.660657 11766 net.cpp:327] inception_3a/relu_3x3 -> inception_3a/3x3 (in-place)
I0413 19:15:26.660660 11766 net.cpp:113] Setting up inception_3a/relu_3x3
I0413 19:15:26.660665 11766 net.cpp:120] Top shape: 128 128 28 28 (12845056)
I0413 19:15:26.660667 11766 layer_factory.hpp:74] Creating layer inception_3a/5x5_reduce
I0413 19:15:26.660672 11766 net.cpp:84] Creating Layer inception_3a/5x5_reduce
I0413 19:15:26.660676 11766 net.cpp:380] inception_3a/5x5_reduce <- pool2/3x3_s2_pool2/3x3_s2_0_split_2
I0413 19:15:26.660679 11766 net.cpp:338] inception_3a/5x5_reduce -> inception_3a/5x5_reduce
I0413 19:15:26.660686 11766 net.cpp:113] Setting up inception_3a/5x5_reduce
I0413 19:15:26.660714 11766 net.cpp:120] Top shape: 128 16 28 28 (1605632)
I0413 19:15:26.660718 11766 layer_factory.hpp:74] Creating layer inception_3a/relu_5x5_reduce
I0413 19:15:26.660723 11766 net.cpp:84] Creating Layer inception_3a/relu_5x5_reduce
I0413 19:15:26.660727 11766 net.cpp:380] inception_3a/relu_5x5_reduce <- inception_3a/5x5_reduce
I0413 19:15:26.660729 11766 net.cpp:327] inception_3a/relu_5x5_reduce -> inception_3a/5x5_reduce (in-place)
I0413 19:15:26.660733 11766 net.cpp:113] Setting up inception_3a/relu_5x5_reduce
I0413 19:15:26.660737 11766 net.cpp:120] Top shape: 128 16 28 28 (1605632)
I0413 19:15:26.660739 11766 layer_factory.hpp:74] Creating layer inception_3a/5x5
I0413 19:15:26.660744 11766 net.cpp:84] Creating Layer inception_3a/5x5
I0413 19:15:26.660748 11766 net.cpp:380] inception_3a/5x5 <- inception_3a/5x5_reduce
I0413 19:15:26.660751 11766 net.cpp:338] inception_3a/5x5 -> inception_3a/5x5
I0413 19:15:26.660755 11766 net.cpp:113] Setting up inception_3a/5x5
I0413 19:15:26.660840 11766 net.cpp:120] Top shape: 128 32 28 28 (3211264)
I0413 19:15:26.660845 11766 layer_factory.hpp:74] Creating layer inception_3a/relu_5x5
I0413 19:15:26.660848 11766 net.cpp:84] Creating Layer inception_3a/relu_5x5
I0413 19:15:26.660851 11766 net.cpp:380] inception_3a/relu_5x5 <- inception_3a/5x5
I0413 19:15:26.660856 11766 net.cpp:327] inception_3a/relu_5x5 -> inception_3a/5x5 (in-place)
I0413 19:15:26.660859 11766 net.cpp:113] Setting up inception_3a/relu_5x5
I0413 19:15:26.660862 11766 net.cpp:120] Top shape: 128 32 28 28 (3211264)
I0413 19:15:26.660866 11766 layer_factory.hpp:74] Creating layer inception_3a/pool
I0413 19:15:26.660869 11766 net.cpp:84] Creating Layer inception_3a/pool
I0413 19:15:26.660872 11766 net.cpp:380] inception_3a/pool <- pool2/3x3_s2_pool2/3x3_s2_0_split_3
I0413 19:15:26.660879 11766 net.cpp:338] inception_3a/pool -> inception_3a/pool
I0413 19:15:26.660883 11766 net.cpp:113] Setting up inception_3a/pool
I0413 19:15:26.660888 11766 net.cpp:120] Top shape: 128 192 28 28 (19267584)
I0413 19:15:26.660892 11766 layer_factory.hpp:74] Creating layer inception_3a/pool_proj
I0413 19:15:26.660895 11766 net.cpp:84] Creating Layer inception_3a/pool_proj
I0413 19:15:26.660898 11766 net.cpp:380] inception_3a/pool_proj <- inception_3a/pool
I0413 19:15:26.660903 11766 net.cpp:338] inception_3a/pool_proj -> inception_3a/pool_proj
I0413 19:15:26.660909 11766 net.cpp:113] Setting up inception_3a/pool_proj
I0413 19:15:26.660956 11766 net.cpp:120] Top shape: 128 32 28 28 (3211264)
I0413 19:15:26.660965 11766 layer_factory.hpp:74] Creating layer inception_3a/relu_pool_proj
I0413 19:15:26.660969 11766 net.cpp:84] Creating Layer inception_3a/relu_pool_proj
I0413 19:15:26.660972 11766 net.cpp:380] inception_3a/relu_pool_proj <- inception_3a/pool_proj
I0413 19:15:26.660976 11766 net.cpp:327] inception_3a/relu_pool_proj -> inception_3a/pool_proj (in-place)
I0413 19:15:26.660980 11766 net.cpp:113] Setting up inception_3a/relu_pool_proj
I0413 19:15:26.660984 11766 net.cpp:120] Top shape: 128 32 28 28 (3211264)
I0413 19:15:26.660986 11766 layer_factory.hpp:74] Creating layer inception_3a/output
I0413 19:15:26.660990 11766 net.cpp:84] Creating Layer inception_3a/output
I0413 19:15:26.660994 11766 net.cpp:380] inception_3a/output <- inception_3a/1x1
I0413 19:15:26.660996 11766 net.cpp:380] inception_3a/output <- inception_3a/3x3
I0413 19:15:26.661000 11766 net.cpp:380] inception_3a/output <- inception_3a/5x5
I0413 19:15:26.661003 11766 net.cpp:380] inception_3a/output <- inception_3a/pool_proj
I0413 19:15:26.661006 11766 net.cpp:338] inception_3a/output -> inception_3a/output
I0413 19:15:26.661010 11766 net.cpp:113] Setting up inception_3a/output
I0413 19:15:26.661016 11766 net.cpp:120] Top shape: 128 256 28 28 (25690112)
I0413 19:15:26.661020 11766 layer_factory.hpp:74] Creating layer inception_3a/output_inception_3a/output_0_split
I0413 19:15:26.661025 11766 net.cpp:84] Creating Layer inception_3a/output_inception_3a/output_0_split
I0413 19:15:26.661027 11766 net.cpp:380] inception_3a/output_inception_3a/output_0_split <- inception_3a/output
I0413 19:15:26.661031 11766 net.cpp:338] inception_3a/output_inception_3a/output_0_split -> inception_3a/output_inception_3a/output_0_split_0
I0413 19:15:26.661036 11766 net.cpp:338] inception_3a/output_inception_3a/output_0_split -> inception_3a/output_inception_3a/output_0_split_1
I0413 19:15:26.661041 11766 net.cpp:338] inception_3a/output_inception_3a/output_0_split -> inception_3a/output_inception_3a/output_0_split_2
I0413 19:15:26.661046 11766 net.cpp:338] inception_3a/output_inception_3a/output_0_split -> inception_3a/output_inception_3a/output_0_split_3
I0413 19:15:26.661049 11766 net.cpp:113] Setting up inception_3a/output_inception_3a/output_0_split
I0413 19:15:26.661054 11766 net.cpp:120] Top shape: 128 256 28 28 (25690112)
I0413 19:15:26.661057 11766 net.cpp:120] Top shape: 128 256 28 28 (25690112)
I0413 19:15:26.661061 11766 net.cpp:120] Top shape: 128 256 28 28 (25690112)
I0413 19:15:26.661064 11766 net.cpp:120] Top shape: 128 256 28 28 (25690112)
I0413 19:15:26.661067 11766 layer_factory.hpp:74] Creating layer inception_3b/1x1
I0413 19:15:26.661070 11766 net.cpp:84] Creating Layer inception_3b/1x1
I0413 19:15:26.661073 11766 net.cpp:380] inception_3b/1x1 <- inception_3a/output_inception_3a/output_0_split_0
I0413 19:15:26.661080 11766 net.cpp:338] inception_3b/1x1 -> inception_3b/1x1
I0413 19:15:26.661085 11766 net.cpp:113] Setting up inception_3b/1x1
I0413 19:15:26.661293 11766 net.cpp:120] Top shape: 128 128 28 28 (12845056)
I0413 19:15:26.661299 11766 layer_factory.hpp:74] Creating layer inception_3b/relu_1x1
I0413 19:15:26.661303 11766 net.cpp:84] Creating Layer inception_3b/relu_1x1
I0413 19:15:26.661305 11766 net.cpp:380] inception_3b/relu_1x1 <- inception_3b/1x1
I0413 19:15:26.661310 11766 net.cpp:327] inception_3b/relu_1x1 -> inception_3b/1x1 (in-place)
I0413 19:15:26.661314 11766 net.cpp:113] Setting up inception_3b/relu_1x1
I0413 19:15:26.661319 11766 net.cpp:120] Top shape: 128 128 28 28 (12845056)
I0413 19:15:26.661320 11766 layer_factory.hpp:74] Creating layer inception_3b/3x3_reduce
I0413 19:15:26.661324 11766 net.cpp:84] Creating Layer inception_3b/3x3_reduce
I0413 19:15:26.661327 11766 net.cpp:380] inception_3b/3x3_reduce <- inception_3a/output_inception_3a/output_0_split_1
I0413 19:15:26.661332 11766 net.cpp:338] inception_3b/3x3_reduce -> inception_3b/3x3_reduce
I0413 19:15:26.661337 11766 net.cpp:113] Setting up inception_3b/3x3_reduce
I0413 19:15:26.661546 11766 net.cpp:120] Top shape: 128 128 28 28 (12845056)
I0413 19:15:26.661555 11766 layer_factory.hpp:74] Creating layer inception_3b/relu_3x3_reduce
I0413 19:15:26.661558 11766 net.cpp:84] Creating Layer inception_3b/relu_3x3_reduce
I0413 19:15:26.661561 11766 net.cpp:380] inception_3b/relu_3x3_reduce <- inception_3b/3x3_reduce
I0413 19:15:26.661566 11766 net.cpp:327] inception_3b/relu_3x3_reduce -> inception_3b/3x3_reduce (in-place)
I0413 19:15:26.661571 11766 net.cpp:113] Setting up inception_3b/relu_3x3_reduce
I0413 19:15:26.661574 11766 net.cpp:120] Top shape: 128 128 28 28 (12845056)
I0413 19:15:26.661577 11766 layer_factory.hpp:74] Creating layer inception_3b/3x3
I0413 19:15:26.661581 11766 net.cpp:84] Creating Layer inception_3b/3x3
I0413 19:15:26.661583 11766 net.cpp:380] inception_3b/3x3 <- inception_3b/3x3_reduce
I0413 19:15:26.661588 11766 net.cpp:338] inception_3b/3x3 -> inception_3b/3x3
I0413 19:15:26.661593 11766 net.cpp:113] Setting up inception_3b/3x3
I0413 19:15:26.662945 11766 net.cpp:120] Top shape: 128 192 28 28 (19267584)
I0413 19:15:26.662952 11766 layer_factory.hpp:74] Creating layer inception_3b/relu_3x3
I0413 19:15:26.662956 11766 net.cpp:84] Creating Layer inception_3b/relu_3x3
I0413 19:15:26.662960 11766 net.cpp:380] inception_3b/relu_3x3 <- inception_3b/3x3
I0413 19:15:26.662964 11766 net.cpp:327] inception_3b/relu_3x3 -> inception_3b/3x3 (in-place)
I0413 19:15:26.662968 11766 net.cpp:113] Setting up inception_3b/relu_3x3
I0413 19:15:26.662971 11766 net.cpp:120] Top shape: 128 192 28 28 (19267584)
I0413 19:15:26.662974 11766 layer_factory.hpp:74] Creating layer inception_3b/5x5_reduce
I0413 19:15:26.662978 11766 net.cpp:84] Creating Layer inception_3b/5x5_reduce
I0413 19:15:26.662981 11766 net.cpp:380] inception_3b/5x5_reduce <- inception_3a/output_inception_3a/output_0_split_2
I0413 19:15:26.662986 11766 net.cpp:338] inception_3b/5x5_reduce -> inception_3b/5x5_reduce
I0413 19:15:26.662991 11766 net.cpp:113] Setting up inception_3b/5x5_reduce
I0413 19:15:26.663069 11766 net.cpp:120] Top shape: 128 32 28 28 (3211264)
I0413 19:15:26.663076 11766 layer_factory.hpp:74] Creating layer inception_3b/relu_5x5_reduce
I0413 19:15:26.663081 11766 net.cpp:84] Creating Layer inception_3b/relu_5x5_reduce
I0413 19:15:26.663084 11766 net.cpp:380] inception_3b/relu_5x5_reduce <- inception_3b/5x5_reduce
I0413 19:15:26.663087 11766 net.cpp:327] inception_3b/relu_5x5_reduce -> inception_3b/5x5_reduce (in-place)
I0413 19:15:26.663091 11766 net.cpp:113] Setting up inception_3b/relu_5x5_reduce
I0413 19:15:26.663095 11766 net.cpp:120] Top shape: 128 32 28 28 (3211264)
I0413 19:15:26.663099 11766 layer_factory.hpp:74] Creating layer inception_3b/5x5
I0413 19:15:26.663108 11766 net.cpp:84] Creating Layer inception_3b/5x5
I0413 19:15:26.663111 11766 net.cpp:380] inception_3b/5x5 <- inception_3b/5x5_reduce
I0413 19:15:26.663116 11766 net.cpp:338] inception_3b/5x5 -> inception_3b/5x5
I0413 19:15:26.663121 11766 net.cpp:113] Setting up inception_3b/5x5
I0413 19:15:26.663614 11766 net.cpp:120] Top shape: 128 96 28 28 (9633792)
I0413 19:15:26.663619 11766 layer_factory.hpp:74] Creating layer inception_3b/relu_5x5
I0413 19:15:26.663624 11766 net.cpp:84] Creating Layer inception_3b/relu_5x5
I0413 19:15:26.663625 11766 net.cpp:380] inception_3b/relu_5x5 <- inception_3b/5x5
I0413 19:15:26.663630 11766 net.cpp:327] inception_3b/relu_5x5 -> inception_3b/5x5 (in-place)
I0413 19:15:26.663635 11766 net.cpp:113] Setting up inception_3b/relu_5x5
I0413 19:15:26.663638 11766 net.cpp:120] Top shape: 128 96 28 28 (9633792)
I0413 19:15:26.663640 11766 layer_factory.hpp:74] Creating layer inception_3b/pool
I0413 19:15:26.663645 11766 net.cpp:84] Creating Layer inception_3b/pool
I0413 19:15:26.663647 11766 net.cpp:380] inception_3b/pool <- inception_3a/output_inception_3a/output_0_split_3
I0413 19:15:26.663651 11766 net.cpp:338] inception_3b/pool -> inception_3b/pool
I0413 19:15:26.663655 11766 net.cpp:113] Setting up inception_3b/pool
I0413 19:15:26.663661 11766 net.cpp:120] Top shape: 128 256 28 28 (25690112)
I0413 19:15:26.663663 11766 layer_factory.hpp:74] Creating layer inception_3b/pool_proj
I0413 19:15:26.663672 11766 net.cpp:84] Creating Layer inception_3b/pool_proj
I0413 19:15:26.663676 11766 net.cpp:380] inception_3b/pool_proj <- inception_3b/pool
I0413 19:15:26.663681 11766 net.cpp:338] inception_3b/pool_proj -> inception_3b/pool_proj
I0413 19:15:26.663684 11766 net.cpp:113] Setting up inception_3b/pool_proj
I0413 19:15:26.663796 11766 net.cpp:120] Top shape: 128 64 28 28 (6422528)
I0413 19:15:26.663802 11766 layer_factory.hpp:74] Creating layer inception_3b/relu_pool_proj
I0413 19:15:26.663806 11766 net.cpp:84] Creating Layer inception_3b/relu_pool_proj
I0413 19:15:26.663810 11766 net.cpp:380] inception_3b/relu_pool_proj <- inception_3b/pool_proj
I0413 19:15:26.663812 11766 net.cpp:327] inception_3b/relu_pool_proj -> inception_3b/pool_proj (in-place)
I0413 19:15:26.663816 11766 net.cpp:113] Setting up inception_3b/relu_pool_proj
I0413 19:15:26.663820 11766 net.cpp:120] Top shape: 128 64 28 28 (6422528)
I0413 19:15:26.663822 11766 layer_factory.hpp:74] Creating layer inception_3b/output
I0413 19:15:26.663826 11766 net.cpp:84] Creating Layer inception_3b/output
I0413 19:15:26.663828 11766 net.cpp:380] inception_3b/output <- inception_3b/1x1
I0413 19:15:26.663832 11766 net.cpp:380] inception_3b/output <- inception_3b/3x3
I0413 19:15:26.663836 11766 net.cpp:380] inception_3b/output <- inception_3b/5x5
I0413 19:15:26.663838 11766 net.cpp:380] inception_3b/output <- inception_3b/pool_proj
I0413 19:15:26.663841 11766 net.cpp:338] inception_3b/output -> inception_3b/output
I0413 19:15:26.663846 11766 net.cpp:113] Setting up inception_3b/output
I0413 19:15:26.663851 11766 net.cpp:120] Top shape: 128 480 28 28 (48168960)
I0413 19:15:26.663853 11766 layer_factory.hpp:74] Creating layer pool3/3x3_s2
I0413 19:15:26.663858 11766 net.cpp:84] Creating Layer pool3/3x3_s2
I0413 19:15:26.663861 11766 net.cpp:380] pool3/3x3_s2 <- inception_3b/output
I0413 19:15:26.663864 11766 net.cpp:338] pool3/3x3_s2 -> pool3/3x3_s2
I0413 19:15:26.663868 11766 net.cpp:113] Setting up pool3/3x3_s2
I0413 19:15:26.663874 11766 net.cpp:120] Top shape: 128 480 14 14 (12042240)
I0413 19:15:26.663877 11766 layer_factory.hpp:74] Creating layer pool3/3x3_s2_pool3/3x3_s2_0_split
I0413 19:15:26.663882 11766 net.cpp:84] Creating Layer pool3/3x3_s2_pool3/3x3_s2_0_split
I0413 19:15:26.663883 11766 net.cpp:380] pool3/3x3_s2_pool3/3x3_s2_0_split <- pool3/3x3_s2
I0413 19:15:26.663887 11766 net.cpp:338] pool3/3x3_s2_pool3/3x3_s2_0_split -> pool3/3x3_s2_pool3/3x3_s2_0_split_0
I0413 19:15:26.663892 11766 net.cpp:338] pool3/3x3_s2_pool3/3x3_s2_0_split -> pool3/3x3_s2_pool3/3x3_s2_0_split_1
I0413 19:15:26.663899 11766 net.cpp:338] pool3/3x3_s2_pool3/3x3_s2_0_split -> pool3/3x3_s2_pool3/3x3_s2_0_split_2
I0413 19:15:26.663903 11766 net.cpp:338] pool3/3x3_s2_pool3/3x3_s2_0_split -> pool3/3x3_s2_pool3/3x3_s2_0_split_3
I0413 19:15:26.663908 11766 net.cpp:113] Setting up pool3/3x3_s2_pool3/3x3_s2_0_split
I0413 19:15:26.663913 11766 net.cpp:120] Top shape: 128 480 14 14 (12042240)
I0413 19:15:26.663915 11766 net.cpp:120] Top shape: 128 480 14 14 (12042240)
I0413 19:15:26.663918 11766 net.cpp:120] Top shape: 128 480 14 14 (12042240)
I0413 19:15:26.663921 11766 net.cpp:120] Top shape: 128 480 14 14 (12042240)
I0413 19:15:26.663924 11766 layer_factory.hpp:74] Creating layer inception_4a/1x1
I0413 19:15:26.663930 11766 net.cpp:84] Creating Layer inception_4a/1x1
I0413 19:15:26.663933 11766 net.cpp:380] inception_4a/1x1 <- pool3/3x3_s2_pool3/3x3_s2_0_split_0
I0413 19:15:26.663938 11766 net.cpp:338] inception_4a/1x1 -> inception_4a/1x1
I0413 19:15:26.663943 11766 net.cpp:113] Setting up inception_4a/1x1
I0413 19:15:26.664508 11766 net.cpp:120] Top shape: 128 192 14 14 (4816896)
I0413 19:15:26.664515 11766 layer_factory.hpp:74] Creating layer inception_4a/relu_1x1
I0413 19:15:26.664520 11766 net.cpp:84] Creating Layer inception_4a/relu_1x1
I0413 19:15:26.664522 11766 net.cpp:380] inception_4a/relu_1x1 <- inception_4a/1x1
I0413 19:15:26.664525 11766 net.cpp:327] inception_4a/relu_1x1 -> inception_4a/1x1 (in-place)
I0413 19:15:26.664530 11766 net.cpp:113] Setting up inception_4a/relu_1x1
I0413 19:15:26.664536 11766 net.cpp:120] Top shape: 128 192 14 14 (4816896)
I0413 19:15:26.664540 11766 layer_factory.hpp:74] Creating layer inception_4a/3x3_reduce
I0413 19:15:26.664544 11766 net.cpp:84] Creating Layer inception_4a/3x3_reduce
I0413 19:15:26.664547 11766 net.cpp:380] inception_4a/3x3_reduce <- pool3/3x3_s2_pool3/3x3_s2_0_split_1
I0413 19:15:26.664552 11766 net.cpp:338] inception_4a/3x3_reduce -> inception_4a/3x3_reduce
I0413 19:15:26.664556 11766 net.cpp:113] Setting up inception_4a/3x3_reduce
I0413 19:15:26.664847 11766 net.cpp:120] Top shape: 128 96 14 14 (2408448)
I0413 19:15:26.664856 11766 layer_factory.hpp:74] Creating layer inception_4a/relu_3x3_reduce
I0413 19:15:26.664861 11766 net.cpp:84] Creating Layer inception_4a/relu_3x3_reduce
I0413 19:15:26.664865 11766 net.cpp:380] inception_4a/relu_3x3_reduce <- inception_4a/3x3_reduce
I0413 19:15:26.664870 11766 net.cpp:327] inception_4a/relu_3x3_reduce -> inception_4a/3x3_reduce (in-place)
I0413 19:15:26.664873 11766 net.cpp:113] Setting up inception_4a/relu_3x3_reduce
I0413 19:15:26.664877 11766 net.cpp:120] Top shape: 128 96 14 14 (2408448)
I0413 19:15:26.664880 11766 layer_factory.hpp:74] Creating layer inception_4a/3x3
I0413 19:15:26.664883 11766 net.cpp:84] Creating Layer inception_4a/3x3
I0413 19:15:26.664886 11766 net.cpp:380] inception_4a/3x3 <- inception_4a/3x3_reduce
I0413 19:15:26.664891 11766 net.cpp:338] inception_4a/3x3 -> inception_4a/3x3
I0413 19:15:26.664896 11766 net.cpp:113] Setting up inception_4a/3x3
I0413 19:15:26.665994 11766 net.cpp:120] Top shape: 128 208 14 14 (5218304)
I0413 19:15:26.666002 11766 layer_factory.hpp:74] Creating layer inception_4a/relu_3x3
I0413 19:15:26.666007 11766 net.cpp:84] Creating Layer inception_4a/relu_3x3
I0413 19:15:26.666009 11766 net.cpp:380] inception_4a/relu_3x3 <- inception_4a/3x3
I0413 19:15:26.666013 11766 net.cpp:327] inception_4a/relu_3x3 -> inception_4a/3x3 (in-place)
I0413 19:15:26.666016 11766 net.cpp:113] Setting up inception_4a/relu_3x3
I0413 19:15:26.666020 11766 net.cpp:120] Top shape: 128 208 14 14 (5218304)
I0413 19:15:26.666023 11766 layer_factory.hpp:74] Creating layer inception_4a/5x5_reduce
I0413 19:15:26.666028 11766 net.cpp:84] Creating Layer inception_4a/5x5_reduce
I0413 19:15:26.666030 11766 net.cpp:380] inception_4a/5x5_reduce <- pool3/3x3_s2_pool3/3x3_s2_0_split_2
I0413 19:15:26.666035 11766 net.cpp:338] inception_4a/5x5_reduce -> inception_4a/5x5_reduce
I0413 19:15:26.666039 11766 net.cpp:113] Setting up inception_4a/5x5_reduce
I0413 19:15:26.666093 11766 net.cpp:120] Top shape: 128 16 14 14 (401408)
I0413 19:15:26.666098 11766 layer_factory.hpp:74] Creating layer inception_4a/relu_5x5_reduce
I0413 19:15:26.666102 11766 net.cpp:84] Creating Layer inception_4a/relu_5x5_reduce
I0413 19:15:26.666105 11766 net.cpp:380] inception_4a/relu_5x5_reduce <- inception_4a/5x5_reduce
I0413 19:15:26.666110 11766 net.cpp:327] inception_4a/relu_5x5_reduce -> inception_4a/5x5_reduce (in-place)
I0413 19:15:26.666113 11766 net.cpp:113] Setting up inception_4a/relu_5x5_reduce
I0413 19:15:26.666116 11766 net.cpp:120] Top shape: 128 16 14 14 (401408)
I0413 19:15:26.666120 11766 layer_factory.hpp:74] Creating layer inception_4a/5x5
I0413 19:15:26.666123 11766 net.cpp:84] Creating Layer inception_4a/5x5
I0413 19:15:26.666126 11766 net.cpp:380] inception_4a/5x5 <- inception_4a/5x5_reduce
I0413 19:15:26.666131 11766 net.cpp:338] inception_4a/5x5 -> inception_4a/5x5
I0413 19:15:26.666136 11766 net.cpp:113] Setting up inception_4a/5x5
I0413 19:15:26.666262 11766 net.cpp:120] Top shape: 128 48 14 14 (1204224)
I0413 19:15:26.666267 11766 layer_factory.hpp:74] Creating layer inception_4a/relu_5x5
I0413 19:15:26.666270 11766 net.cpp:84] Creating Layer inception_4a/relu_5x5
I0413 19:15:26.666273 11766 net.cpp:380] inception_4a/relu_5x5 <- inception_4a/5x5
I0413 19:15:26.666278 11766 net.cpp:327] inception_4a/relu_5x5 -> inception_4a/5x5 (in-place)
I0413 19:15:26.666282 11766 net.cpp:113] Setting up inception_4a/relu_5x5
I0413 19:15:26.666285 11766 net.cpp:120] Top shape: 128 48 14 14 (1204224)
I0413 19:15:26.666291 11766 layer_factory.hpp:74] Creating layer inception_4a/pool
I0413 19:15:26.666296 11766 net.cpp:84] Creating Layer inception_4a/pool
I0413 19:15:26.666298 11766 net.cpp:380] inception_4a/pool <- pool3/3x3_s2_pool3/3x3_s2_0_split_3
I0413 19:15:26.666303 11766 net.cpp:338] inception_4a/pool -> inception_4a/pool
I0413 19:15:26.666308 11766 net.cpp:113] Setting up inception_4a/pool
I0413 19:15:26.666313 11766 net.cpp:120] Top shape: 128 480 14 14 (12042240)
I0413 19:15:26.666316 11766 layer_factory.hpp:74] Creating layer inception_4a/pool_proj
I0413 19:15:26.666321 11766 net.cpp:84] Creating Layer inception_4a/pool_proj
I0413 19:15:26.666323 11766 net.cpp:380] inception_4a/pool_proj <- inception_4a/pool
I0413 19:15:26.666328 11766 net.cpp:338] inception_4a/pool_proj -> inception_4a/pool_proj
I0413 19:15:26.666333 11766 net.cpp:113] Setting up inception_4a/pool_proj
I0413 19:15:26.666527 11766 net.cpp:120] Top shape: 128 64 14 14 (1605632)
I0413 19:15:26.666533 11766 layer_factory.hpp:74] Creating layer inception_4a/relu_pool_proj
I0413 19:15:26.666537 11766 net.cpp:84] Creating Layer inception_4a/relu_pool_proj
I0413 19:15:26.666539 11766 net.cpp:380] inception_4a/relu_pool_proj <- inception_4a/pool_proj
I0413 19:15:26.666543 11766 net.cpp:327] inception_4a/relu_pool_proj -> inception_4a/pool_proj (in-place)
I0413 19:15:26.666546 11766 net.cpp:113] Setting up inception_4a/relu_pool_proj
I0413 19:15:26.666550 11766 net.cpp:120] Top shape: 128 64 14 14 (1605632)
I0413 19:15:26.666553 11766 layer_factory.hpp:74] Creating layer inception_4a/output
I0413 19:15:26.666556 11766 net.cpp:84] Creating Layer inception_4a/output
I0413 19:15:26.666559 11766 net.cpp:380] inception_4a/output <- inception_4a/1x1
I0413 19:15:26.666563 11766 net.cpp:380] inception_4a/output <- inception_4a/3x3
I0413 19:15:26.666565 11766 net.cpp:380] inception_4a/output <- inception_4a/5x5
I0413 19:15:26.666568 11766 net.cpp:380] inception_4a/output <- inception_4a/pool_proj
I0413 19:15:26.666578 11766 net.cpp:338] inception_4a/output -> inception_4a/output
I0413 19:15:26.666582 11766 net.cpp:113] Setting up inception_4a/output
I0413 19:15:26.666587 11766 net.cpp:120] Top shape: 128 512 14 14 (12845056)
I0413 19:15:26.666589 11766 layer_factory.hpp:74] Creating layer inception_4a/output_inception_4a/output_0_split
I0413 19:15:26.666594 11766 net.cpp:84] Creating Layer inception_4a/output_inception_4a/output_0_split
I0413 19:15:26.666596 11766 net.cpp:380] inception_4a/output_inception_4a/output_0_split <- inception_4a/output
I0413 19:15:26.666601 11766 net.cpp:338] inception_4a/output_inception_4a/output_0_split -> inception_4a/output_inception_4a/output_0_split_0
I0413 19:15:26.666606 11766 net.cpp:338] inception_4a/output_inception_4a/output_0_split -> inception_4a/output_inception_4a/output_0_split_1
I0413 19:15:26.666610 11766 net.cpp:338] inception_4a/output_inception_4a/output_0_split -> inception_4a/output_inception_4a/output_0_split_2
I0413 19:15:26.666615 11766 net.cpp:338] inception_4a/output_inception_4a/output_0_split -> inception_4a/output_inception_4a/output_0_split_3
I0413 19:15:26.666620 11766 net.cpp:113] Setting up inception_4a/output_inception_4a/output_0_split
I0413 19:15:26.666623 11766 net.cpp:120] Top shape: 128 512 14 14 (12845056)
I0413 19:15:26.666627 11766 net.cpp:120] Top shape: 128 512 14 14 (12845056)
I0413 19:15:26.666630 11766 net.cpp:120] Top shape: 128 512 14 14 (12845056)
I0413 19:15:26.666633 11766 net.cpp:120] Top shape: 128 512 14 14 (12845056)
I0413 19:15:26.666636 11766 layer_factory.hpp:74] Creating layer inception_4b/1x1
I0413 19:15:26.666641 11766 net.cpp:84] Creating Layer inception_4b/1x1
I0413 19:15:26.666645 11766 net.cpp:380] inception_4b/1x1 <- inception_4a/output_inception_4a/output_0_split_0
I0413 19:15:26.666648 11766 net.cpp:338] inception_4b/1x1 -> inception_4b/1x1
I0413 19:15:26.666652 11766 net.cpp:113] Setting up inception_4b/1x1
I0413 19:15:26.667187 11766 net.cpp:120] Top shape: 128 160 14 14 (4014080)
I0413 19:15:26.667196 11766 layer_factory.hpp:74] Creating layer inception_4b/relu_1x1
I0413 19:15:26.667204 11766 net.cpp:84] Creating Layer inception_4b/relu_1x1
I0413 19:15:26.667207 11766 net.cpp:380] inception_4b/relu_1x1 <- inception_4b/1x1
I0413 19:15:26.667212 11766 net.cpp:327] inception_4b/relu_1x1 -> inception_4b/1x1 (in-place)
I0413 19:15:26.667215 11766 net.cpp:113] Setting up inception_4b/relu_1x1
I0413 19:15:26.667219 11766 net.cpp:120] Top shape: 128 160 14 14 (4014080)
I0413 19:15:26.667222 11766 layer_factory.hpp:74] Creating layer inception_4b/3x3_reduce
I0413 19:15:26.667227 11766 net.cpp:84] Creating Layer inception_4b/3x3_reduce
I0413 19:15:26.667230 11766 net.cpp:380] inception_4b/3x3_reduce <- inception_4a/output_inception_4a/output_0_split_1
I0413 19:15:26.667234 11766 net.cpp:338] inception_4b/3x3_reduce -> inception_4b/3x3_reduce
I0413 19:15:26.667239 11766 net.cpp:113] Setting up inception_4b/3x3_reduce
I0413 19:15:26.667605 11766 net.cpp:120] Top shape: 128 112 14 14 (2809856)
I0413 19:15:26.667613 11766 layer_factory.hpp:74] Creating layer inception_4b/relu_3x3_reduce
I0413 19:15:26.667616 11766 net.cpp:84] Creating Layer inception_4b/relu_3x3_reduce
I0413 19:15:26.667623 11766 net.cpp:380] inception_4b/relu_3x3_reduce <- inception_4b/3x3_reduce
I0413 19:15:26.667626 11766 net.cpp:327] inception_4b/relu_3x3_reduce -> inception_4b/3x3_reduce (in-place)
I0413 19:15:26.667631 11766 net.cpp:113] Setting up inception_4b/relu_3x3_reduce
I0413 19:15:26.667634 11766 net.cpp:120] Top shape: 128 112 14 14 (2809856)
I0413 19:15:26.667637 11766 layer_factory.hpp:74] Creating layer inception_4b/3x3
I0413 19:15:26.667642 11766 net.cpp:84] Creating Layer inception_4b/3x3
I0413 19:15:26.667645 11766 net.cpp:380] inception_4b/3x3 <- inception_4b/3x3_reduce
I0413 19:15:26.667650 11766 net.cpp:338] inception_4b/3x3 -> inception_4b/3x3
I0413 19:15:26.667654 11766 net.cpp:113] Setting up inception_4b/3x3
I0413 19:15:26.669075 11766 net.cpp:120] Top shape: 128 224 14 14 (5619712)
I0413 19:15:26.669081 11766 layer_factory.hpp:74] Creating layer inception_4b/relu_3x3
I0413 19:15:26.669085 11766 net.cpp:84] Creating Layer inception_4b/relu_3x3
I0413 19:15:26.669088 11766 net.cpp:380] inception_4b/relu_3x3 <- inception_4b/3x3
I0413 19:15:26.669093 11766 net.cpp:327] inception_4b/relu_3x3 -> inception_4b/3x3 (in-place)
I0413 19:15:26.669097 11766 net.cpp:113] Setting up inception_4b/relu_3x3
I0413 19:15:26.669101 11766 net.cpp:120] Top shape: 128 224 14 14 (5619712)
I0413 19:15:26.669105 11766 layer_factory.hpp:74] Creating layer inception_4b/5x5_reduce
I0413 19:15:26.669108 11766 net.cpp:84] Creating Layer inception_4b/5x5_reduce
I0413 19:15:26.669111 11766 net.cpp:380] inception_4b/5x5_reduce <- inception_4a/output_inception_4a/output_0_split_2
I0413 19:15:26.669116 11766 net.cpp:338] inception_4b/5x5_reduce -> inception_4b/5x5_reduce
I0413 19:15:26.669121 11766 net.cpp:113] Setting up inception_4b/5x5_reduce
I0413 19:15:26.669203 11766 net.cpp:120] Top shape: 128 24 14 14 (602112)
I0413 19:15:26.669209 11766 layer_factory.hpp:74] Creating layer inception_4b/relu_5x5_reduce
I0413 19:15:26.669211 11766 net.cpp:84] Creating Layer inception_4b/relu_5x5_reduce
I0413 19:15:26.669214 11766 net.cpp:380] inception_4b/relu_5x5_reduce <- inception_4b/5x5_reduce
I0413 19:15:26.669219 11766 net.cpp:327] inception_4b/relu_5x5_reduce -> inception_4b/5x5_reduce (in-place)
I0413 19:15:26.669221 11766 net.cpp:113] Setting up inception_4b/relu_5x5_reduce
I0413 19:15:26.669225 11766 net.cpp:120] Top shape: 128 24 14 14 (602112)
I0413 19:15:26.669227 11766 layer_factory.hpp:74] Creating layer inception_4b/5x5
I0413 19:15:26.669234 11766 net.cpp:84] Creating Layer inception_4b/5x5
I0413 19:15:26.669235 11766 net.cpp:380] inception_4b/5x5 <- inception_4b/5x5_reduce
I0413 19:15:26.669239 11766 net.cpp:338] inception_4b/5x5 -> inception_4b/5x5
I0413 19:15:26.669245 11766 net.cpp:113] Setting up inception_4b/5x5
I0413 19:15:26.669487 11766 net.cpp:120] Top shape: 128 64 14 14 (1605632)
I0413 19:15:26.669493 11766 layer_factory.hpp:74] Creating layer inception_4b/relu_5x5
I0413 19:15:26.669500 11766 net.cpp:84] Creating Layer inception_4b/relu_5x5
I0413 19:15:26.669507 11766 net.cpp:380] inception_4b/relu_5x5 <- inception_4b/5x5
I0413 19:15:26.669512 11766 net.cpp:327] inception_4b/relu_5x5 -> inception_4b/5x5 (in-place)
I0413 19:15:26.669515 11766 net.cpp:113] Setting up inception_4b/relu_5x5
I0413 19:15:26.669518 11766 net.cpp:120] Top shape: 128 64 14 14 (1605632)
I0413 19:15:26.669522 11766 layer_factory.hpp:74] Creating layer inception_4b/pool
I0413 19:15:26.669528 11766 net.cpp:84] Creating Layer inception_4b/pool
I0413 19:15:26.669531 11766 net.cpp:380] inception_4b/pool <- inception_4a/output_inception_4a/output_0_split_3
I0413 19:15:26.669535 11766 net.cpp:338] inception_4b/pool -> inception_4b/pool
I0413 19:15:26.669539 11766 net.cpp:113] Setting up inception_4b/pool
I0413 19:15:26.669548 11766 net.cpp:120] Top shape: 128 512 14 14 (12845056)
I0413 19:15:26.669551 11766 layer_factory.hpp:74] Creating layer inception_4b/pool_proj
I0413 19:15:26.669556 11766 net.cpp:84] Creating Layer inception_4b/pool_proj
I0413 19:15:26.669559 11766 net.cpp:380] inception_4b/pool_proj <- inception_4b/pool
I0413 19:15:26.669562 11766 net.cpp:338] inception_4b/pool_proj -> inception_4b/pool_proj
I0413 19:15:26.669567 11766 net.cpp:113] Setting up inception_4b/pool_proj
I0413 19:15:26.669775 11766 net.cpp:120] Top shape: 128 64 14 14 (1605632)
I0413 19:15:26.669781 11766 layer_factory.hpp:74] Creating layer inception_4b/relu_pool_proj
I0413 19:15:26.669785 11766 net.cpp:84] Creating Layer inception_4b/relu_pool_proj
I0413 19:15:26.669787 11766 net.cpp:380] inception_4b/relu_pool_proj <- inception_4b/pool_proj
I0413 19:15:26.669791 11766 net.cpp:327] inception_4b/relu_pool_proj -> inception_4b/pool_proj (in-place)
I0413 19:15:26.669795 11766 net.cpp:113] Setting up inception_4b/relu_pool_proj
I0413 19:15:26.669798 11766 net.cpp:120] Top shape: 128 64 14 14 (1605632)
I0413 19:15:26.669801 11766 layer_factory.hpp:74] Creating layer inception_4b/output
I0413 19:15:26.669805 11766 net.cpp:84] Creating Layer inception_4b/output
I0413 19:15:26.669807 11766 net.cpp:380] inception_4b/output <- inception_4b/1x1
I0413 19:15:26.669811 11766 net.cpp:380] inception_4b/output <- inception_4b/3x3
I0413 19:15:26.669813 11766 net.cpp:380] inception_4b/output <- inception_4b/5x5
I0413 19:15:26.669816 11766 net.cpp:380] inception_4b/output <- inception_4b/pool_proj
I0413 19:15:26.669821 11766 net.cpp:338] inception_4b/output -> inception_4b/output
I0413 19:15:26.669824 11766 net.cpp:113] Setting up inception_4b/output
I0413 19:15:26.669829 11766 net.cpp:120] Top shape: 128 512 14 14 (12845056)
I0413 19:15:26.669831 11766 layer_factory.hpp:74] Creating layer inception_4b/output_inception_4b/output_0_split
I0413 19:15:26.669836 11766 net.cpp:84] Creating Layer inception_4b/output_inception_4b/output_0_split
I0413 19:15:26.669839 11766 net.cpp:380] inception_4b/output_inception_4b/output_0_split <- inception_4b/output
I0413 19:15:26.669843 11766 net.cpp:338] inception_4b/output_inception_4b/output_0_split -> inception_4b/output_inception_4b/output_0_split_0
I0413 19:15:26.669847 11766 net.cpp:338] inception_4b/output_inception_4b/output_0_split -> inception_4b/output_inception_4b/output_0_split_1
I0413 19:15:26.669853 11766 net.cpp:338] inception_4b/output_inception_4b/output_0_split -> inception_4b/output_inception_4b/output_0_split_2
I0413 19:15:26.669857 11766 net.cpp:338] inception_4b/output_inception_4b/output_0_split -> inception_4b/output_inception_4b/output_0_split_3
I0413 19:15:26.669862 11766 net.cpp:113] Setting up inception_4b/output_inception_4b/output_0_split
I0413 19:15:26.669867 11766 net.cpp:120] Top shape: 128 512 14 14 (12845056)
I0413 19:15:26.669869 11766 net.cpp:120] Top shape: 128 512 14 14 (12845056)
I0413 19:15:26.669872 11766 net.cpp:120] Top shape: 128 512 14 14 (12845056)
I0413 19:15:26.669875 11766 net.cpp:120] Top shape: 128 512 14 14 (12845056)
I0413 19:15:26.669878 11766 layer_factory.hpp:74] Creating layer inception_4c/1x1
I0413 19:15:26.669883 11766 net.cpp:84] Creating Layer inception_4c/1x1
I0413 19:15:26.669885 11766 net.cpp:380] inception_4c/1x1 <- inception_4b/output_inception_4b/output_0_split_0
I0413 19:15:26.669893 11766 net.cpp:338] inception_4c/1x1 -> inception_4c/1x1
I0413 19:15:26.669898 11766 net.cpp:113] Setting up inception_4c/1x1
I0413 19:15:26.670310 11766 net.cpp:120] Top shape: 128 128 14 14 (3211264)
I0413 19:15:26.670316 11766 layer_factory.hpp:74] Creating layer inception_4c/relu_1x1
I0413 19:15:26.670320 11766 net.cpp:84] Creating Layer inception_4c/relu_1x1
I0413 19:15:26.670323 11766 net.cpp:380] inception_4c/relu_1x1 <- inception_4c/1x1
I0413 19:15:26.670327 11766 net.cpp:327] inception_4c/relu_1x1 -> inception_4c/1x1 (in-place)
I0413 19:15:26.670331 11766 net.cpp:113] Setting up inception_4c/relu_1x1
I0413 19:15:26.670336 11766 net.cpp:120] Top shape: 128 128 14 14 (3211264)
I0413 19:15:26.670338 11766 layer_factory.hpp:74] Creating layer inception_4c/3x3_reduce
I0413 19:15:26.670342 11766 net.cpp:84] Creating Layer inception_4c/3x3_reduce
I0413 19:15:26.670346 11766 net.cpp:380] inception_4c/3x3_reduce <- inception_4b/output_inception_4b/output_0_split_1
I0413 19:15:26.670351 11766 net.cpp:338] inception_4c/3x3_reduce -> inception_4c/3x3_reduce
I0413 19:15:26.670354 11766 net.cpp:113] Setting up inception_4c/3x3_reduce
I0413 19:15:26.670760 11766 net.cpp:120] Top shape: 128 128 14 14 (3211264)
I0413 19:15:26.670766 11766 layer_factory.hpp:74] Creating layer inception_4c/relu_3x3_reduce
I0413 19:15:26.670770 11766 net.cpp:84] Creating Layer inception_4c/relu_3x3_reduce
I0413 19:15:26.670773 11766 net.cpp:380] inception_4c/relu_3x3_reduce <- inception_4c/3x3_reduce
I0413 19:15:26.670778 11766 net.cpp:327] inception_4c/relu_3x3_reduce -> inception_4c/3x3_reduce (in-place)
I0413 19:15:26.670783 11766 net.cpp:113] Setting up inception_4c/relu_3x3_reduce
I0413 19:15:26.670786 11766 net.cpp:120] Top shape: 128 128 14 14 (3211264)
I0413 19:15:26.670789 11766 layer_factory.hpp:74] Creating layer inception_4c/3x3
I0413 19:15:26.670794 11766 net.cpp:84] Creating Layer inception_4c/3x3
I0413 19:15:26.670795 11766 net.cpp:380] inception_4c/3x3 <- inception_4c/3x3_reduce
I0413 19:15:26.670799 11766 net.cpp:338] inception_4c/3x3 -> inception_4c/3x3
I0413 19:15:26.670804 11766 net.cpp:113] Setting up inception_4c/3x3
I0413 19:15:26.672603 11766 net.cpp:120] Top shape: 128 256 14 14 (6422528)
I0413 19:15:26.672611 11766 layer_factory.hpp:74] Creating layer inception_4c/relu_3x3
I0413 19:15:26.672616 11766 net.cpp:84] Creating Layer inception_4c/relu_3x3
I0413 19:15:26.672618 11766 net.cpp:380] inception_4c/relu_3x3 <- inception_4c/3x3
I0413 19:15:26.672621 11766 net.cpp:327] inception_4c/relu_3x3 -> inception_4c/3x3 (in-place)
I0413 19:15:26.672626 11766 net.cpp:113] Setting up inception_4c/relu_3x3
I0413 19:15:26.672629 11766 net.cpp:120] Top shape: 128 256 14 14 (6422528)
I0413 19:15:26.672631 11766 layer_factory.hpp:74] Creating layer inception_4c/5x5_reduce
I0413 19:15:26.672637 11766 net.cpp:84] Creating Layer inception_4c/5x5_reduce
I0413 19:15:26.672641 11766 net.cpp:380] inception_4c/5x5_reduce <- inception_4b/output_inception_4b/output_0_split_2
I0413 19:15:26.672646 11766 net.cpp:338] inception_4c/5x5_reduce -> inception_4c/5x5_reduce
I0413 19:15:26.672649 11766 net.cpp:113] Setting up inception_4c/5x5_reduce
I0413 19:15:26.672734 11766 net.cpp:120] Top shape: 128 24 14 14 (602112)
I0413 19:15:26.672739 11766 layer_factory.hpp:74] Creating layer inception_4c/relu_5x5_reduce
I0413 19:15:26.672742 11766 net.cpp:84] Creating Layer inception_4c/relu_5x5_reduce
I0413 19:15:26.672745 11766 net.cpp:380] inception_4c/relu_5x5_reduce <- inception_4c/5x5_reduce
I0413 19:15:26.672749 11766 net.cpp:327] inception_4c/relu_5x5_reduce -> inception_4c/5x5_reduce (in-place)
I0413 19:15:26.672754 11766 net.cpp:113] Setting up inception_4c/relu_5x5_reduce
I0413 19:15:26.672757 11766 net.cpp:120] Top shape: 128 24 14 14 (602112)
I0413 19:15:26.672771 11766 layer_factory.hpp:74] Creating layer inception_4c/5x5
I0413 19:15:26.672776 11766 net.cpp:84] Creating Layer inception_4c/5x5
I0413 19:15:26.672780 11766 net.cpp:380] inception_4c/5x5 <- inception_4c/5x5_reduce
I0413 19:15:26.672787 11766 net.cpp:338] inception_4c/5x5 -> inception_4c/5x5
I0413 19:15:26.672792 11766 net.cpp:113] Setting up inception_4c/5x5
I0413 19:15:26.673041 11766 net.cpp:120] Top shape: 128 64 14 14 (1605632)
I0413 19:15:26.673058 11766 layer_factory.hpp:74] Creating layer inception_4c/relu_5x5
I0413 19:15:26.673063 11766 net.cpp:84] Creating Layer inception_4c/relu_5x5
I0413 19:15:26.673065 11766 net.cpp:380] inception_4c/relu_5x5 <- inception_4c/5x5
I0413 19:15:26.673069 11766 net.cpp:327] inception_4c/relu_5x5 -> inception_4c/5x5 (in-place)
I0413 19:15:26.673073 11766 net.cpp:113] Setting up inception_4c/relu_5x5
I0413 19:15:26.673075 11766 net.cpp:120] Top shape: 128 64 14 14 (1605632)
I0413 19:15:26.673079 11766 layer_factory.hpp:74] Creating layer inception_4c/pool
I0413 19:15:26.673084 11766 net.cpp:84] Creating Layer inception_4c/pool
I0413 19:15:26.673086 11766 net.cpp:380] inception_4c/pool <- inception_4b/output_inception_4b/output_0_split_3
I0413 19:15:26.673090 11766 net.cpp:338] inception_4c/pool -> inception_4c/pool
I0413 19:15:26.673099 11766 net.cpp:113] Setting up inception_4c/pool
I0413 19:15:26.673105 11766 net.cpp:120] Top shape: 128 512 14 14 (12845056)
I0413 19:15:26.673107 11766 layer_factory.hpp:74] Creating layer inception_4c/pool_proj
I0413 19:15:26.673113 11766 net.cpp:84] Creating Layer inception_4c/pool_proj
I0413 19:15:26.673116 11766 net.cpp:380] inception_4c/pool_proj <- inception_4c/pool
I0413 19:15:26.673120 11766 net.cpp:338] inception_4c/pool_proj -> inception_4c/pool_proj
I0413 19:15:26.673125 11766 net.cpp:113] Setting up inception_4c/pool_proj
I0413 19:15:26.673333 11766 net.cpp:120] Top shape: 128 64 14 14 (1605632)
I0413 19:15:26.673346 11766 layer_factory.hpp:74] Creating layer inception_4c/relu_pool_proj
I0413 19:15:26.673349 11766 net.cpp:84] Creating Layer inception_4c/relu_pool_proj
I0413 19:15:26.673352 11766 net.cpp:380] inception_4c/relu_pool_proj <- inception_4c/pool_proj
I0413 19:15:26.673357 11766 net.cpp:327] inception_4c/relu_pool_proj -> inception_4c/pool_proj (in-place)
I0413 19:15:26.673360 11766 net.cpp:113] Setting up inception_4c/relu_pool_proj
I0413 19:15:26.673364 11766 net.cpp:120] Top shape: 128 64 14 14 (1605632)
I0413 19:15:26.673367 11766 layer_factory.hpp:74] Creating layer inception_4c/output
I0413 19:15:26.673370 11766 net.cpp:84] Creating Layer inception_4c/output
I0413 19:15:26.673373 11766 net.cpp:380] inception_4c/output <- inception_4c/1x1
I0413 19:15:26.673377 11766 net.cpp:380] inception_4c/output <- inception_4c/3x3
I0413 19:15:26.673380 11766 net.cpp:380] inception_4c/output <- inception_4c/5x5
I0413 19:15:26.673383 11766 net.cpp:380] inception_4c/output <- inception_4c/pool_proj
I0413 19:15:26.673388 11766 net.cpp:338] inception_4c/output -> inception_4c/output
I0413 19:15:26.673393 11766 net.cpp:113] Setting up inception_4c/output
I0413 19:15:26.673398 11766 net.cpp:120] Top shape: 128 512 14 14 (12845056)
I0413 19:15:26.673399 11766 layer_factory.hpp:74] Creating layer inception_4c/output_inception_4c/output_0_split
I0413 19:15:26.673403 11766 net.cpp:84] Creating Layer inception_4c/output_inception_4c/output_0_split
I0413 19:15:26.673406 11766 net.cpp:380] inception_4c/output_inception_4c/output_0_split <- inception_4c/output
I0413 19:15:26.673410 11766 net.cpp:338] inception_4c/output_inception_4c/output_0_split -> inception_4c/output_inception_4c/output_0_split_0
I0413 19:15:26.673415 11766 net.cpp:338] inception_4c/output_inception_4c/output_0_split -> inception_4c/output_inception_4c/output_0_split_1
I0413 19:15:26.673420 11766 net.cpp:338] inception_4c/output_inception_4c/output_0_split -> inception_4c/output_inception_4c/output_0_split_2
I0413 19:15:26.673425 11766 net.cpp:338] inception_4c/output_inception_4c/output_0_split -> inception_4c/output_inception_4c/output_0_split_3
I0413 19:15:26.673429 11766 net.cpp:113] Setting up inception_4c/output_inception_4c/output_0_split
I0413 19:15:26.673434 11766 net.cpp:120] Top shape: 128 512 14 14 (12845056)
I0413 19:15:26.673437 11766 net.cpp:120] Top shape: 128 512 14 14 (12845056)
I0413 19:15:26.673444 11766 net.cpp:120] Top shape: 128 512 14 14 (12845056)
I0413 19:15:26.673446 11766 net.cpp:120] Top shape: 128 512 14 14 (12845056)
I0413 19:15:26.673449 11766 layer_factory.hpp:74] Creating layer inception_4d/1x1
I0413 19:15:26.673454 11766 net.cpp:84] Creating Layer inception_4d/1x1
I0413 19:15:26.673456 11766 net.cpp:380] inception_4d/1x1 <- inception_4c/output_inception_4c/output_0_split_0
I0413 19:15:26.673461 11766 net.cpp:338] inception_4d/1x1 -> inception_4d/1x1
I0413 19:15:26.673466 11766 net.cpp:113] Setting up inception_4d/1x1
I0413 19:15:26.673822 11766 net.cpp:120] Top shape: 128 112 14 14 (2809856)
I0413 19:15:26.673828 11766 layer_factory.hpp:74] Creating layer inception_4d/relu_1x1
I0413 19:15:26.673832 11766 net.cpp:84] Creating Layer inception_4d/relu_1x1
I0413 19:15:26.673835 11766 net.cpp:380] inception_4d/relu_1x1 <- inception_4d/1x1
I0413 19:15:26.673840 11766 net.cpp:327] inception_4d/relu_1x1 -> inception_4d/1x1 (in-place)
I0413 19:15:26.673856 11766 net.cpp:113] Setting up inception_4d/relu_1x1
I0413 19:15:26.673859 11766 net.cpp:120] Top shape: 128 112 14 14 (2809856)
I0413 19:15:26.673862 11766 layer_factory.hpp:74] Creating layer inception_4d/3x3_reduce
I0413 19:15:26.673866 11766 net.cpp:84] Creating Layer inception_4d/3x3_reduce
I0413 19:15:26.673869 11766 net.cpp:380] inception_4d/3x3_reduce <- inception_4c/output_inception_4c/output_0_split_1
I0413 19:15:26.673874 11766 net.cpp:338] inception_4d/3x3_reduce -> inception_4d/3x3_reduce
I0413 19:15:26.673879 11766 net.cpp:113] Setting up inception_4d/3x3_reduce
I0413 19:15:26.674356 11766 net.cpp:120] Top shape: 128 144 14 14 (3612672)
I0413 19:15:26.674363 11766 layer_factory.hpp:74] Creating layer inception_4d/relu_3x3_reduce
I0413 19:15:26.674367 11766 net.cpp:84] Creating Layer inception_4d/relu_3x3_reduce
I0413 19:15:26.674371 11766 net.cpp:380] inception_4d/relu_3x3_reduce <- inception_4d/3x3_reduce
I0413 19:15:26.674374 11766 net.cpp:327] inception_4d/relu_3x3_reduce -> inception_4d/3x3_reduce (in-place)
I0413 19:15:26.674378 11766 net.cpp:113] Setting up inception_4d/relu_3x3_reduce
I0413 19:15:26.674382 11766 net.cpp:120] Top shape: 128 144 14 14 (3612672)
I0413 19:15:26.674386 11766 layer_factory.hpp:74] Creating layer inception_4d/3x3
I0413 19:15:26.674389 11766 net.cpp:84] Creating Layer inception_4d/3x3
I0413 19:15:26.674392 11766 net.cpp:380] inception_4d/3x3 <- inception_4d/3x3_reduce
I0413 19:15:26.674396 11766 net.cpp:338] inception_4d/3x3 -> inception_4d/3x3
I0413 19:15:26.674401 11766 net.cpp:113] Setting up inception_4d/3x3
I0413 19:15:26.676669 11766 net.cpp:120] Top shape: 128 288 14 14 (7225344)
I0413 19:15:26.676676 11766 layer_factory.hpp:74] Creating layer inception_4d/relu_3x3
I0413 19:15:26.676681 11766 net.cpp:84] Creating Layer inception_4d/relu_3x3
I0413 19:15:26.676683 11766 net.cpp:380] inception_4d/relu_3x3 <- inception_4d/3x3
I0413 19:15:26.676688 11766 net.cpp:327] inception_4d/relu_3x3 -> inception_4d/3x3 (in-place)
I0413 19:15:26.676692 11766 net.cpp:113] Setting up inception_4d/relu_3x3
I0413 19:15:26.676695 11766 net.cpp:120] Top shape: 128 288 14 14 (7225344)
I0413 19:15:26.676698 11766 layer_factory.hpp:74] Creating layer inception_4d/5x5_reduce
I0413 19:15:26.676702 11766 net.cpp:84] Creating Layer inception_4d/5x5_reduce
I0413 19:15:26.676705 11766 net.cpp:380] inception_4d/5x5_reduce <- inception_4c/output_inception_4c/output_0_split_2
I0413 19:15:26.676709 11766 net.cpp:338] inception_4d/5x5_reduce -> inception_4d/5x5_reduce
I0413 19:15:26.676713 11766 net.cpp:113] Setting up inception_4d/5x5_reduce
I0413 19:15:26.676823 11766 net.cpp:120] Top shape: 128 32 14 14 (802816)
I0413 19:15:26.676828 11766 layer_factory.hpp:74] Creating layer inception_4d/relu_5x5_reduce
I0413 19:15:26.676832 11766 net.cpp:84] Creating Layer inception_4d/relu_5x5_reduce
I0413 19:15:26.676836 11766 net.cpp:380] inception_4d/relu_5x5_reduce <- inception_4d/5x5_reduce
I0413 19:15:26.676838 11766 net.cpp:327] inception_4d/relu_5x5_reduce -> inception_4d/5x5_reduce (in-place)
I0413 19:15:26.676846 11766 net.cpp:113] Setting up inception_4d/relu_5x5_reduce
I0413 19:15:26.676849 11766 net.cpp:120] Top shape: 128 32 14 14 (802816)
I0413 19:15:26.676852 11766 layer_factory.hpp:74] Creating layer inception_4d/5x5
I0413 19:15:26.676856 11766 net.cpp:84] Creating Layer inception_4d/5x5
I0413 19:15:26.676859 11766 net.cpp:380] inception_4d/5x5 <- inception_4d/5x5_reduce
I0413 19:15:26.676864 11766 net.cpp:338] inception_4d/5x5 -> inception_4d/5x5
I0413 19:15:26.676868 11766 net.cpp:113] Setting up inception_4d/5x5
I0413 19:15:26.677206 11766 net.cpp:120] Top shape: 128 64 14 14 (1605632)
I0413 19:15:26.677212 11766 layer_factory.hpp:74] Creating layer inception_4d/relu_5x5
I0413 19:15:26.677217 11766 net.cpp:84] Creating Layer inception_4d/relu_5x5
I0413 19:15:26.677219 11766 net.cpp:380] inception_4d/relu_5x5 <- inception_4d/5x5
I0413 19:15:26.677223 11766 net.cpp:327] inception_4d/relu_5x5 -> inception_4d/5x5 (in-place)
I0413 19:15:26.677227 11766 net.cpp:113] Setting up inception_4d/relu_5x5
I0413 19:15:26.677230 11766 net.cpp:120] Top shape: 128 64 14 14 (1605632)
I0413 19:15:26.677233 11766 layer_factory.hpp:74] Creating layer inception_4d/pool
I0413 19:15:26.677239 11766 net.cpp:84] Creating Layer inception_4d/pool
I0413 19:15:26.677243 11766 net.cpp:380] inception_4d/pool <- inception_4c/output_inception_4c/output_0_split_3
I0413 19:15:26.677248 11766 net.cpp:338] inception_4d/pool -> inception_4d/pool
I0413 19:15:26.677252 11766 net.cpp:113] Setting up inception_4d/pool
I0413 19:15:26.677258 11766 net.cpp:120] Top shape: 128 512 14 14 (12845056)
I0413 19:15:26.677260 11766 layer_factory.hpp:74] Creating layer inception_4d/pool_proj
I0413 19:15:26.677265 11766 net.cpp:84] Creating Layer inception_4d/pool_proj
I0413 19:15:26.677268 11766 net.cpp:380] inception_4d/pool_proj <- inception_4d/pool
I0413 19:15:26.677273 11766 net.cpp:338] inception_4d/pool_proj -> inception_4d/pool_proj
I0413 19:15:26.677287 11766 net.cpp:113] Setting up inception_4d/pool_proj
I0413 19:15:26.677500 11766 net.cpp:120] Top shape: 128 64 14 14 (1605632)
I0413 19:15:26.677506 11766 layer_factory.hpp:74] Creating layer inception_4d/relu_pool_proj
I0413 19:15:26.677510 11766 net.cpp:84] Creating Layer inception_4d/relu_pool_proj
I0413 19:15:26.677513 11766 net.cpp:380] inception_4d/relu_pool_proj <- inception_4d/pool_proj
I0413 19:15:26.677516 11766 net.cpp:327] inception_4d/relu_pool_proj -> inception_4d/pool_proj (in-place)
I0413 19:15:26.677520 11766 net.cpp:113] Setting up inception_4d/relu_pool_proj
I0413 19:15:26.677525 11766 net.cpp:120] Top shape: 128 64 14 14 (1605632)
I0413 19:15:26.677526 11766 layer_factory.hpp:74] Creating layer inception_4d/output
I0413 19:15:26.677531 11766 net.cpp:84] Creating Layer inception_4d/output
I0413 19:15:26.677533 11766 net.cpp:380] inception_4d/output <- inception_4d/1x1
I0413 19:15:26.677536 11766 net.cpp:380] inception_4d/output <- inception_4d/3x3
I0413 19:15:26.677539 11766 net.cpp:380] inception_4d/output <- inception_4d/5x5
I0413 19:15:26.677542 11766 net.cpp:380] inception_4d/output <- inception_4d/pool_proj
I0413 19:15:26.677547 11766 net.cpp:338] inception_4d/output -> inception_4d/output
I0413 19:15:26.677551 11766 net.cpp:113] Setting up inception_4d/output
I0413 19:15:26.677556 11766 net.cpp:120] Top shape: 128 528 14 14 (13246464)
I0413 19:15:26.677559 11766 layer_factory.hpp:74] Creating layer inception_4d/output_inception_4d/output_0_split
I0413 19:15:26.677563 11766 net.cpp:84] Creating Layer inception_4d/output_inception_4d/output_0_split
I0413 19:15:26.677567 11766 net.cpp:380] inception_4d/output_inception_4d/output_0_split <- inception_4d/output
I0413 19:15:26.677569 11766 net.cpp:338] inception_4d/output_inception_4d/output_0_split -> inception_4d/output_inception_4d/output_0_split_0
I0413 19:15:26.677575 11766 net.cpp:338] inception_4d/output_inception_4d/output_0_split -> inception_4d/output_inception_4d/output_0_split_1
I0413 19:15:26.677579 11766 net.cpp:338] inception_4d/output_inception_4d/output_0_split -> inception_4d/output_inception_4d/output_0_split_2
I0413 19:15:26.677587 11766 net.cpp:338] inception_4d/output_inception_4d/output_0_split -> inception_4d/output_inception_4d/output_0_split_3
I0413 19:15:26.677592 11766 net.cpp:113] Setting up inception_4d/output_inception_4d/output_0_split
I0413 19:15:26.677597 11766 net.cpp:120] Top shape: 128 528 14 14 (13246464)
I0413 19:15:26.677599 11766 net.cpp:120] Top shape: 128 528 14 14 (13246464)
I0413 19:15:26.677603 11766 net.cpp:120] Top shape: 128 528 14 14 (13246464)
I0413 19:15:26.677605 11766 net.cpp:120] Top shape: 128 528 14 14 (13246464)
I0413 19:15:26.677608 11766 layer_factory.hpp:74] Creating layer inception_4e/1x1
I0413 19:15:26.677613 11766 net.cpp:84] Creating Layer inception_4e/1x1
I0413 19:15:26.677615 11766 net.cpp:380] inception_4e/1x1 <- inception_4d/output_inception_4d/output_0_split_0
I0413 19:15:26.677621 11766 net.cpp:338] inception_4e/1x1 -> inception_4e/1x1
I0413 19:15:26.677625 11766 net.cpp:113] Setting up inception_4e/1x1
I0413 19:15:26.678480 11766 net.cpp:120] Top shape: 128 256 14 14 (6422528)
I0413 19:15:26.678488 11766 layer_factory.hpp:74] Creating layer inception_4e/relu_1x1
I0413 19:15:26.678493 11766 net.cpp:84] Creating Layer inception_4e/relu_1x1
I0413 19:15:26.678495 11766 net.cpp:380] inception_4e/relu_1x1 <- inception_4e/1x1
I0413 19:15:26.678499 11766 net.cpp:327] inception_4e/relu_1x1 -> inception_4e/1x1 (in-place)
I0413 19:15:26.678503 11766 net.cpp:113] Setting up inception_4e/relu_1x1
I0413 19:15:26.678506 11766 net.cpp:120] Top shape: 128 256 14 14 (6422528)
I0413 19:15:26.678509 11766 layer_factory.hpp:74] Creating layer inception_4e/3x3_reduce
I0413 19:15:26.678514 11766 net.cpp:84] Creating Layer inception_4e/3x3_reduce
I0413 19:15:26.678517 11766 net.cpp:380] inception_4e/3x3_reduce <- inception_4d/output_inception_4d/output_0_split_1
I0413 19:15:26.678522 11766 net.cpp:338] inception_4e/3x3_reduce -> inception_4e/3x3_reduce
I0413 19:15:26.678526 11766 net.cpp:113] Setting up inception_4e/3x3_reduce
I0413 19:15:26.679050 11766 net.cpp:120] Top shape: 128 160 14 14 (4014080)
I0413 19:15:26.679057 11766 layer_factory.hpp:74] Creating layer inception_4e/relu_3x3_reduce
I0413 19:15:26.679061 11766 net.cpp:84] Creating Layer inception_4e/relu_3x3_reduce
I0413 19:15:26.679064 11766 net.cpp:380] inception_4e/relu_3x3_reduce <- inception_4e/3x3_reduce
I0413 19:15:26.679069 11766 net.cpp:327] inception_4e/relu_3x3_reduce -> inception_4e/3x3_reduce (in-place)
I0413 19:15:26.679072 11766 net.cpp:113] Setting up inception_4e/relu_3x3_reduce
I0413 19:15:26.679076 11766 net.cpp:120] Top shape: 128 160 14 14 (4014080)
I0413 19:15:26.679080 11766 layer_factory.hpp:74] Creating layer inception_4e/3x3
I0413 19:15:26.679083 11766 net.cpp:84] Creating Layer inception_4e/3x3
I0413 19:15:26.679086 11766 net.cpp:380] inception_4e/3x3 <- inception_4e/3x3_reduce
I0413 19:15:26.679091 11766 net.cpp:338] inception_4e/3x3 -> inception_4e/3x3
I0413 19:15:26.679095 11766 net.cpp:113] Setting up inception_4e/3x3
I0413 19:15:26.681876 11766 net.cpp:120] Top shape: 128 320 14 14 (8028160)
I0413 19:15:26.681884 11766 layer_factory.hpp:74] Creating layer inception_4e/relu_3x3
I0413 19:15:26.681892 11766 net.cpp:84] Creating Layer inception_4e/relu_3x3
I0413 19:15:26.681895 11766 net.cpp:380] inception_4e/relu_3x3 <- inception_4e/3x3
I0413 19:15:26.681898 11766 net.cpp:327] inception_4e/relu_3x3 -> inception_4e/3x3 (in-place)
I0413 19:15:26.681902 11766 net.cpp:113] Setting up inception_4e/relu_3x3
I0413 19:15:26.681905 11766 net.cpp:120] Top shape: 128 320 14 14 (8028160)
I0413 19:15:26.681908 11766 layer_factory.hpp:74] Creating layer inception_4e/5x5_reduce
I0413 19:15:26.681913 11766 net.cpp:84] Creating Layer inception_4e/5x5_reduce
I0413 19:15:26.681916 11766 net.cpp:380] inception_4e/5x5_reduce <- inception_4d/output_inception_4d/output_0_split_2
I0413 19:15:26.681921 11766 net.cpp:338] inception_4e/5x5_reduce -> inception_4e/5x5_reduce
I0413 19:15:26.681926 11766 net.cpp:113] Setting up inception_4e/5x5_reduce
I0413 19:15:26.682035 11766 net.cpp:120] Top shape: 128 32 14 14 (802816)
I0413 19:15:26.682044 11766 layer_factory.hpp:74] Creating layer inception_4e/relu_5x5_reduce
I0413 19:15:26.682049 11766 net.cpp:84] Creating Layer inception_4e/relu_5x5_reduce
I0413 19:15:26.682051 11766 net.cpp:380] inception_4e/relu_5x5_reduce <- inception_4e/5x5_reduce
I0413 19:15:26.682055 11766 net.cpp:327] inception_4e/relu_5x5_reduce -> inception_4e/5x5_reduce (in-place)
I0413 19:15:26.682060 11766 net.cpp:113] Setting up inception_4e/relu_5x5_reduce
I0413 19:15:26.682063 11766 net.cpp:120] Top shape: 128 32 14 14 (802816)
I0413 19:15:26.682066 11766 layer_factory.hpp:74] Creating layer inception_4e/5x5
I0413 19:15:26.682070 11766 net.cpp:84] Creating Layer inception_4e/5x5
I0413 19:15:26.682073 11766 net.cpp:380] inception_4e/5x5 <- inception_4e/5x5_reduce
I0413 19:15:26.682077 11766 net.cpp:338] inception_4e/5x5 -> inception_4e/5x5
I0413 19:15:26.682081 11766 net.cpp:113] Setting up inception_4e/5x5
I0413 19:15:26.682744 11766 net.cpp:120] Top shape: 128 128 14 14 (3211264)
I0413 19:15:26.682751 11766 layer_factory.hpp:74] Creating layer inception_4e/relu_5x5
I0413 19:15:26.682756 11766 net.cpp:84] Creating Layer inception_4e/relu_5x5
I0413 19:15:26.682760 11766 net.cpp:380] inception_4e/relu_5x5 <- inception_4e/5x5
I0413 19:15:26.682762 11766 net.cpp:327] inception_4e/relu_5x5 -> inception_4e/5x5 (in-place)
I0413 19:15:26.682766 11766 net.cpp:113] Setting up inception_4e/relu_5x5
I0413 19:15:26.682770 11766 net.cpp:120] Top shape: 128 128 14 14 (3211264)
I0413 19:15:26.682772 11766 layer_factory.hpp:74] Creating layer inception_4e/pool
I0413 19:15:26.682776 11766 net.cpp:84] Creating Layer inception_4e/pool
I0413 19:15:26.682780 11766 net.cpp:380] inception_4e/pool <- inception_4d/output_inception_4d/output_0_split_3
I0413 19:15:26.682785 11766 net.cpp:338] inception_4e/pool -> inception_4e/pool
I0413 19:15:26.682790 11766 net.cpp:113] Setting up inception_4e/pool
I0413 19:15:26.682795 11766 net.cpp:120] Top shape: 128 528 14 14 (13246464)
I0413 19:15:26.682797 11766 layer_factory.hpp:74] Creating layer inception_4e/pool_proj
I0413 19:15:26.682803 11766 net.cpp:84] Creating Layer inception_4e/pool_proj
I0413 19:15:26.682806 11766 net.cpp:380] inception_4e/pool_proj <- inception_4e/pool
I0413 19:15:26.682811 11766 net.cpp:338] inception_4e/pool_proj -> inception_4e/pool_proj
I0413 19:15:26.682814 11766 net.cpp:113] Setting up inception_4e/pool_proj
I0413 19:15:26.683236 11766 net.cpp:120] Top shape: 128 128 14 14 (3211264)
I0413 19:15:26.683243 11766 layer_factory.hpp:74] Creating layer inception_4e/relu_pool_proj
I0413 19:15:26.683248 11766 net.cpp:84] Creating Layer inception_4e/relu_pool_proj
I0413 19:15:26.683251 11766 net.cpp:380] inception_4e/relu_pool_proj <- inception_4e/pool_proj
I0413 19:15:26.683254 11766 net.cpp:327] inception_4e/relu_pool_proj -> inception_4e/pool_proj (in-place)
I0413 19:15:26.683270 11766 net.cpp:113] Setting up inception_4e/relu_pool_proj
I0413 19:15:26.683274 11766 net.cpp:120] Top shape: 128 128 14 14 (3211264)
I0413 19:15:26.683277 11766 layer_factory.hpp:74] Creating layer inception_4e/output
I0413 19:15:26.683281 11766 net.cpp:84] Creating Layer inception_4e/output
I0413 19:15:26.683284 11766 net.cpp:380] inception_4e/output <- inception_4e/1x1
I0413 19:15:26.683289 11766 net.cpp:380] inception_4e/output <- inception_4e/3x3
I0413 19:15:26.683291 11766 net.cpp:380] inception_4e/output <- inception_4e/5x5
I0413 19:15:26.683295 11766 net.cpp:380] inception_4e/output <- inception_4e/pool_proj
I0413 19:15:26.683298 11766 net.cpp:338] inception_4e/output -> inception_4e/output
I0413 19:15:26.683302 11766 net.cpp:113] Setting up inception_4e/output
I0413 19:15:26.683306 11766 net.cpp:120] Top shape: 128 832 14 14 (20873216)
I0413 19:15:26.683310 11766 layer_factory.hpp:74] Creating layer pool4/3x3_s2
I0413 19:15:26.683315 11766 net.cpp:84] Creating Layer pool4/3x3_s2
I0413 19:15:26.683318 11766 net.cpp:380] pool4/3x3_s2 <- inception_4e/output
I0413 19:15:26.683322 11766 net.cpp:338] pool4/3x3_s2 -> pool4/3x3_s2
I0413 19:15:26.683326 11766 net.cpp:113] Setting up pool4/3x3_s2
I0413 19:15:26.683334 11766 net.cpp:120] Top shape: 128 832 7 7 (5218304)
I0413 19:15:26.683338 11766 layer_factory.hpp:74] Creating layer pool4/3x3_s2_pool4/3x3_s2_0_split
I0413 19:15:26.683343 11766 net.cpp:84] Creating Layer pool4/3x3_s2_pool4/3x3_s2_0_split
I0413 19:15:26.683346 11766 net.cpp:380] pool4/3x3_s2_pool4/3x3_s2_0_split <- pool4/3x3_s2
I0413 19:15:26.683351 11766 net.cpp:338] pool4/3x3_s2_pool4/3x3_s2_0_split -> pool4/3x3_s2_pool4/3x3_s2_0_split_0
I0413 19:15:26.683356 11766 net.cpp:338] pool4/3x3_s2_pool4/3x3_s2_0_split -> pool4/3x3_s2_pool4/3x3_s2_0_split_1
I0413 19:15:26.683361 11766 net.cpp:338] pool4/3x3_s2_pool4/3x3_s2_0_split -> pool4/3x3_s2_pool4/3x3_s2_0_split_2
I0413 19:15:26.683364 11766 net.cpp:338] pool4/3x3_s2_pool4/3x3_s2_0_split -> pool4/3x3_s2_pool4/3x3_s2_0_split_3
I0413 19:15:26.683368 11766 net.cpp:113] Setting up pool4/3x3_s2_pool4/3x3_s2_0_split
I0413 19:15:26.683373 11766 net.cpp:120] Top shape: 128 832 7 7 (5218304)
I0413 19:15:26.683377 11766 net.cpp:120] Top shape: 128 832 7 7 (5218304)
I0413 19:15:26.683380 11766 net.cpp:120] Top shape: 128 832 7 7 (5218304)
I0413 19:15:26.683383 11766 net.cpp:120] Top shape: 128 832 7 7 (5218304)
I0413 19:15:26.683387 11766 layer_factory.hpp:74] Creating layer inception_5a/1x1
I0413 19:15:26.683393 11766 net.cpp:84] Creating Layer inception_5a/1x1
I0413 19:15:26.683395 11766 net.cpp:380] inception_5a/1x1 <- pool4/3x3_s2_pool4/3x3_s2_0_split_0
I0413 19:15:26.683400 11766 net.cpp:338] inception_5a/1x1 -> inception_5a/1x1
I0413 19:15:26.683405 11766 net.cpp:113] Setting up inception_5a/1x1
I0413 19:15:26.684715 11766 net.cpp:120] Top shape: 128 256 7 7 (1605632)
I0413 19:15:26.684722 11766 layer_factory.hpp:74] Creating layer inception_5a/relu_1x1
I0413 19:15:26.684726 11766 net.cpp:84] Creating Layer inception_5a/relu_1x1
I0413 19:15:26.684730 11766 net.cpp:380] inception_5a/relu_1x1 <- inception_5a/1x1
I0413 19:15:26.684733 11766 net.cpp:327] inception_5a/relu_1x1 -> inception_5a/1x1 (in-place)
I0413 19:15:26.684736 11766 net.cpp:113] Setting up inception_5a/relu_1x1
I0413 19:15:26.684741 11766 net.cpp:120] Top shape: 128 256 7 7 (1605632)
I0413 19:15:26.684743 11766 layer_factory.hpp:74] Creating layer inception_5a/3x3_reduce
I0413 19:15:26.684749 11766 net.cpp:84] Creating Layer inception_5a/3x3_reduce
I0413 19:15:26.684752 11766 net.cpp:380] inception_5a/3x3_reduce <- pool4/3x3_s2_pool4/3x3_s2_0_split_1
I0413 19:15:26.684756 11766 net.cpp:338] inception_5a/3x3_reduce -> inception_5a/3x3_reduce
I0413 19:15:26.684762 11766 net.cpp:113] Setting up inception_5a/3x3_reduce
I0413 19:15:26.685569 11766 net.cpp:120] Top shape: 128 160 7 7 (1003520)
I0413 19:15:26.685575 11766 layer_factory.hpp:74] Creating layer inception_5a/relu_3x3_reduce
I0413 19:15:26.685580 11766 net.cpp:84] Creating Layer inception_5a/relu_3x3_reduce
I0413 19:15:26.685583 11766 net.cpp:380] inception_5a/relu_3x3_reduce <- inception_5a/3x3_reduce
I0413 19:15:26.685586 11766 net.cpp:327] inception_5a/relu_3x3_reduce -> inception_5a/3x3_reduce (in-place)
I0413 19:15:26.685590 11766 net.cpp:113] Setting up inception_5a/relu_3x3_reduce
I0413 19:15:26.685595 11766 net.cpp:120] Top shape: 128 160 7 7 (1003520)
I0413 19:15:26.685597 11766 layer_factory.hpp:74] Creating layer inception_5a/3x3
I0413 19:15:26.685602 11766 net.cpp:84] Creating Layer inception_5a/3x3
I0413 19:15:26.685605 11766 net.cpp:380] inception_5a/3x3 <- inception_5a/3x3_reduce
I0413 19:15:26.685611 11766 net.cpp:338] inception_5a/3x3 -> inception_5a/3x3
I0413 19:15:26.685616 11766 net.cpp:113] Setting up inception_5a/3x3
I0413 19:15:26.688403 11766 net.cpp:120] Top shape: 128 320 7 7 (2007040)
I0413 19:15:26.688411 11766 layer_factory.hpp:74] Creating layer inception_5a/relu_3x3
I0413 19:15:26.688416 11766 net.cpp:84] Creating Layer inception_5a/relu_3x3
I0413 19:15:26.688418 11766 net.cpp:380] inception_5a/relu_3x3 <- inception_5a/3x3
I0413 19:15:26.688422 11766 net.cpp:327] inception_5a/relu_3x3 -> inception_5a/3x3 (in-place)
I0413 19:15:26.688426 11766 net.cpp:113] Setting up inception_5a/relu_3x3
I0413 19:15:26.688433 11766 net.cpp:120] Top shape: 128 320 7 7 (2007040)
I0413 19:15:26.688436 11766 layer_factory.hpp:74] Creating layer inception_5a/5x5_reduce
I0413 19:15:26.688442 11766 net.cpp:84] Creating Layer inception_5a/5x5_reduce
I0413 19:15:26.688446 11766 net.cpp:380] inception_5a/5x5_reduce <- pool4/3x3_s2_pool4/3x3_s2_0_split_2
I0413 19:15:26.688452 11766 net.cpp:338] inception_5a/5x5_reduce -> inception_5a/5x5_reduce
I0413 19:15:26.688457 11766 net.cpp:113] Setting up inception_5a/5x5_reduce
I0413 19:15:26.688624 11766 net.cpp:120] Top shape: 128 32 7 7 (200704)
I0413 19:15:26.688629 11766 layer_factory.hpp:74] Creating layer inception_5a/relu_5x5_reduce
I0413 19:15:26.688633 11766 net.cpp:84] Creating Layer inception_5a/relu_5x5_reduce
I0413 19:15:26.688637 11766 net.cpp:380] inception_5a/relu_5x5_reduce <- inception_5a/5x5_reduce
I0413 19:15:26.688642 11766 net.cpp:327] inception_5a/relu_5x5_reduce -> inception_5a/5x5_reduce (in-place)
I0413 19:15:26.688645 11766 net.cpp:113] Setting up inception_5a/relu_5x5_reduce
I0413 19:15:26.688648 11766 net.cpp:120] Top shape: 128 32 7 7 (200704)
I0413 19:15:26.688652 11766 layer_factory.hpp:74] Creating layer inception_5a/5x5
I0413 19:15:26.688657 11766 net.cpp:84] Creating Layer inception_5a/5x5
I0413 19:15:26.688659 11766 net.cpp:380] inception_5a/5x5 <- inception_5a/5x5_reduce
I0413 19:15:26.688664 11766 net.cpp:338] inception_5a/5x5 -> inception_5a/5x5
I0413 19:15:26.688668 11766 net.cpp:113] Setting up inception_5a/5x5
I0413 19:15:26.689296 11766 net.cpp:120] Top shape: 128 128 7 7 (802816)
I0413 19:15:26.689303 11766 layer_factory.hpp:74] Creating layer inception_5a/relu_5x5
I0413 19:15:26.689308 11766 net.cpp:84] Creating Layer inception_5a/relu_5x5
I0413 19:15:26.689311 11766 net.cpp:380] inception_5a/relu_5x5 <- inception_5a/5x5
I0413 19:15:26.689314 11766 net.cpp:327] inception_5a/relu_5x5 -> inception_5a/5x5 (in-place)
I0413 19:15:26.689318 11766 net.cpp:113] Setting up inception_5a/relu_5x5
I0413 19:15:26.689321 11766 net.cpp:120] Top shape: 128 128 7 7 (802816)
I0413 19:15:26.689324 11766 layer_factory.hpp:74] Creating layer inception_5a/pool
I0413 19:15:26.689330 11766 net.cpp:84] Creating Layer inception_5a/pool
I0413 19:15:26.689333 11766 net.cpp:380] inception_5a/pool <- pool4/3x3_s2_pool4/3x3_s2_0_split_3
I0413 19:15:26.689337 11766 net.cpp:338] inception_5a/pool -> inception_5a/pool
I0413 19:15:26.689342 11766 net.cpp:113] Setting up inception_5a/pool
I0413 19:15:26.689347 11766 net.cpp:120] Top shape: 128 832 7 7 (5218304)
I0413 19:15:26.689349 11766 layer_factory.hpp:74] Creating layer inception_5a/pool_proj
I0413 19:15:26.689355 11766 net.cpp:84] Creating Layer inception_5a/pool_proj
I0413 19:15:26.689358 11766 net.cpp:380] inception_5a/pool_proj <- inception_5a/pool
I0413 19:15:26.689363 11766 net.cpp:338] inception_5a/pool_proj -> inception_5a/pool_proj
I0413 19:15:26.689368 11766 net.cpp:113] Setting up inception_5a/pool_proj
I0413 19:15:26.690016 11766 net.cpp:120] Top shape: 128 128 7 7 (802816)
I0413 19:15:26.690022 11766 layer_factory.hpp:74] Creating layer inception_5a/relu_pool_proj
I0413 19:15:26.690037 11766 net.cpp:84] Creating Layer inception_5a/relu_pool_proj
I0413 19:15:26.690039 11766 net.cpp:380] inception_5a/relu_pool_proj <- inception_5a/pool_proj
I0413 19:15:26.690043 11766 net.cpp:327] inception_5a/relu_pool_proj -> inception_5a/pool_proj (in-place)
I0413 19:15:26.690047 11766 net.cpp:113] Setting up inception_5a/relu_pool_proj
I0413 19:15:26.690050 11766 net.cpp:120] Top shape: 128 128 7 7 (802816)
I0413 19:15:26.690054 11766 layer_factory.hpp:74] Creating layer inception_5a/output
I0413 19:15:26.690058 11766 net.cpp:84] Creating Layer inception_5a/output
I0413 19:15:26.690062 11766 net.cpp:380] inception_5a/output <- inception_5a/1x1
I0413 19:15:26.690064 11766 net.cpp:380] inception_5a/output <- inception_5a/3x3
I0413 19:15:26.690068 11766 net.cpp:380] inception_5a/output <- inception_5a/5x5
I0413 19:15:26.690070 11766 net.cpp:380] inception_5a/output <- inception_5a/pool_proj
I0413 19:15:26.690075 11766 net.cpp:338] inception_5a/output -> inception_5a/output
I0413 19:15:26.690083 11766 net.cpp:113] Setting up inception_5a/output
I0413 19:15:26.690088 11766 net.cpp:120] Top shape: 128 832 7 7 (5218304)
I0413 19:15:26.690090 11766 layer_factory.hpp:74] Creating layer inception_5a/output_inception_5a/output_0_split
I0413 19:15:26.690095 11766 net.cpp:84] Creating Layer inception_5a/output_inception_5a/output_0_split
I0413 19:15:26.690099 11766 net.cpp:380] inception_5a/output_inception_5a/output_0_split <- inception_5a/output
I0413 19:15:26.690103 11766 net.cpp:338] inception_5a/output_inception_5a/output_0_split -> inception_5a/output_inception_5a/output_0_split_0
I0413 19:15:26.690107 11766 net.cpp:338] inception_5a/output_inception_5a/output_0_split -> inception_5a/output_inception_5a/output_0_split_1
I0413 19:15:26.690112 11766 net.cpp:338] inception_5a/output_inception_5a/output_0_split -> inception_5a/output_inception_5a/output_0_split_2
I0413 19:15:26.690117 11766 net.cpp:338] inception_5a/output_inception_5a/output_0_split -> inception_5a/output_inception_5a/output_0_split_3
I0413 19:15:26.690120 11766 net.cpp:113] Setting up inception_5a/output_inception_5a/output_0_split
I0413 19:15:26.690125 11766 net.cpp:120] Top shape: 128 832 7 7 (5218304)
I0413 19:15:26.690129 11766 net.cpp:120] Top shape: 128 832 7 7 (5218304)
I0413 19:15:26.690131 11766 net.cpp:120] Top shape: 128 832 7 7 (5218304)
I0413 19:15:26.690135 11766 net.cpp:120] Top shape: 128 832 7 7 (5218304)
I0413 19:15:26.690137 11766 layer_factory.hpp:74] Creating layer inception_5b/1x1
I0413 19:15:26.690142 11766 net.cpp:84] Creating Layer inception_5b/1x1
I0413 19:15:26.690145 11766 net.cpp:380] inception_5b/1x1 <- inception_5a/output_inception_5a/output_0_split_0
I0413 19:15:26.690150 11766 net.cpp:338] inception_5b/1x1 -> inception_5b/1x1
I0413 19:15:26.690155 11766 net.cpp:113] Setting up inception_5b/1x1
I0413 19:15:26.692127 11766 net.cpp:120] Top shape: 128 384 7 7 (2408448)
I0413 19:15:26.692136 11766 layer_factory.hpp:74] Creating layer inception_5b/relu_1x1
I0413 19:15:26.692142 11766 net.cpp:84] Creating Layer inception_5b/relu_1x1
I0413 19:15:26.692144 11766 net.cpp:380] inception_5b/relu_1x1 <- inception_5b/1x1
I0413 19:15:26.692147 11766 net.cpp:327] inception_5b/relu_1x1 -> inception_5b/1x1 (in-place)
I0413 19:15:26.692152 11766 net.cpp:113] Setting up inception_5b/relu_1x1
I0413 19:15:26.692155 11766 net.cpp:120] Top shape: 128 384 7 7 (2408448)
I0413 19:15:26.692158 11766 layer_factory.hpp:74] Creating layer inception_5b/3x3_reduce
I0413 19:15:26.692164 11766 net.cpp:84] Creating Layer inception_5b/3x3_reduce
I0413 19:15:26.692167 11766 net.cpp:380] inception_5b/3x3_reduce <- inception_5a/output_inception_5a/output_0_split_1
I0413 19:15:26.692172 11766 net.cpp:338] inception_5b/3x3_reduce -> inception_5b/3x3_reduce
I0413 19:15:26.692175 11766 net.cpp:113] Setting up inception_5b/3x3_reduce
I0413 19:15:26.693148 11766 net.cpp:120] Top shape: 128 192 7 7 (1204224)
I0413 19:15:26.693156 11766 layer_factory.hpp:74] Creating layer inception_5b/relu_3x3_reduce
I0413 19:15:26.693159 11766 net.cpp:84] Creating Layer inception_5b/relu_3x3_reduce
I0413 19:15:26.693162 11766 net.cpp:380] inception_5b/relu_3x3_reduce <- inception_5b/3x3_reduce
I0413 19:15:26.693166 11766 net.cpp:327] inception_5b/relu_3x3_reduce -> inception_5b/3x3_reduce (in-place)
I0413 19:15:26.693171 11766 net.cpp:113] Setting up inception_5b/relu_3x3_reduce
I0413 19:15:26.693174 11766 net.cpp:120] Top shape: 128 192 7 7 (1204224)
I0413 19:15:26.693177 11766 layer_factory.hpp:74] Creating layer inception_5b/3x3
I0413 19:15:26.693182 11766 net.cpp:84] Creating Layer inception_5b/3x3
I0413 19:15:26.693184 11766 net.cpp:380] inception_5b/3x3 <- inception_5b/3x3_reduce
I0413 19:15:26.693189 11766 net.cpp:338] inception_5b/3x3 -> inception_5b/3x3
I0413 19:15:26.693194 11766 net.cpp:113] Setting up inception_5b/3x3
I0413 19:15:26.697196 11766 net.cpp:120] Top shape: 128 384 7 7 (2408448)
I0413 19:15:26.697203 11766 layer_factory.hpp:74] Creating layer inception_5b/relu_3x3
I0413 19:15:26.697207 11766 net.cpp:84] Creating Layer inception_5b/relu_3x3
I0413 19:15:26.697213 11766 net.cpp:380] inception_5b/relu_3x3 <- inception_5b/3x3
I0413 19:15:26.697217 11766 net.cpp:327] inception_5b/relu_3x3 -> inception_5b/3x3 (in-place)
I0413 19:15:26.697221 11766 net.cpp:113] Setting up inception_5b/relu_3x3
I0413 19:15:26.697226 11766 net.cpp:120] Top shape: 128 384 7 7 (2408448)
I0413 19:15:26.697228 11766 layer_factory.hpp:74] Creating layer inception_5b/5x5_reduce
I0413 19:15:26.697234 11766 net.cpp:84] Creating Layer inception_5b/5x5_reduce
I0413 19:15:26.697237 11766 net.cpp:380] inception_5b/5x5_reduce <- inception_5a/output_inception_5a/output_0_split_2
I0413 19:15:26.697243 11766 net.cpp:338] inception_5b/5x5_reduce -> inception_5b/5x5_reduce
I0413 19:15:26.697247 11766 net.cpp:113] Setting up inception_5b/5x5_reduce
I0413 19:15:26.697495 11766 net.cpp:120] Top shape: 128 48 7 7 (301056)
I0413 19:15:26.697501 11766 layer_factory.hpp:74] Creating layer inception_5b/relu_5x5_reduce
I0413 19:15:26.697505 11766 net.cpp:84] Creating Layer inception_5b/relu_5x5_reduce
I0413 19:15:26.697509 11766 net.cpp:380] inception_5b/relu_5x5_reduce <- inception_5b/5x5_reduce
I0413 19:15:26.697512 11766 net.cpp:327] inception_5b/relu_5x5_reduce -> inception_5b/5x5_reduce (in-place)
I0413 19:15:26.697516 11766 net.cpp:113] Setting up inception_5b/relu_5x5_reduce
I0413 19:15:26.697520 11766 net.cpp:120] Top shape: 128 48 7 7 (301056)
I0413 19:15:26.697523 11766 layer_factory.hpp:74] Creating layer inception_5b/5x5
I0413 19:15:26.697527 11766 net.cpp:84] Creating Layer inception_5b/5x5
I0413 19:15:26.697530 11766 net.cpp:380] inception_5b/5x5 <- inception_5b/5x5_reduce
I0413 19:15:26.697535 11766 net.cpp:338] inception_5b/5x5 -> inception_5b/5x5
I0413 19:15:26.697540 11766 net.cpp:113] Setting up inception_5b/5x5
I0413 19:15:26.698474 11766 net.cpp:120] Top shape: 128 128 7 7 (802816)
I0413 19:15:26.698482 11766 layer_factory.hpp:74] Creating layer inception_5b/relu_5x5
I0413 19:15:26.698487 11766 net.cpp:84] Creating Layer inception_5b/relu_5x5
I0413 19:15:26.698489 11766 net.cpp:380] inception_5b/relu_5x5 <- inception_5b/5x5
I0413 19:15:26.698493 11766 net.cpp:327] inception_5b/relu_5x5 -> inception_5b/5x5 (in-place)
I0413 19:15:26.698498 11766 net.cpp:113] Setting up inception_5b/relu_5x5
I0413 19:15:26.698500 11766 net.cpp:120] Top shape: 128 128 7 7 (802816)
I0413 19:15:26.698503 11766 layer_factory.hpp:74] Creating layer inception_5b/pool
I0413 19:15:26.698509 11766 net.cpp:84] Creating Layer inception_5b/pool
I0413 19:15:26.698513 11766 net.cpp:380] inception_5b/pool <- inception_5a/output_inception_5a/output_0_split_3
I0413 19:15:26.698516 11766 net.cpp:338] inception_5b/pool -> inception_5b/pool
I0413 19:15:26.698520 11766 net.cpp:113] Setting up inception_5b/pool
I0413 19:15:26.698525 11766 net.cpp:120] Top shape: 128 832 7 7 (5218304)
I0413 19:15:26.698529 11766 layer_factory.hpp:74] Creating layer inception_5b/pool_proj
I0413 19:15:26.698534 11766 net.cpp:84] Creating Layer inception_5b/pool_proj
I0413 19:15:26.698536 11766 net.cpp:380] inception_5b/pool_proj <- inception_5b/pool
I0413 19:15:26.698541 11766 net.cpp:338] inception_5b/pool_proj -> inception_5b/pool_proj
I0413 19:15:26.698546 11766 net.cpp:113] Setting up inception_5b/pool_proj
I0413 19:15:26.699198 11766 net.cpp:120] Top shape: 128 128 7 7 (802816)
I0413 19:15:26.699204 11766 layer_factory.hpp:74] Creating layer inception_5b/relu_pool_proj
I0413 19:15:26.699208 11766 net.cpp:84] Creating Layer inception_5b/relu_pool_proj
I0413 19:15:26.699211 11766 net.cpp:380] inception_5b/relu_pool_proj <- inception_5b/pool_proj
I0413 19:15:26.699215 11766 net.cpp:327] inception_5b/relu_pool_proj -> inception_5b/pool_proj (in-place)
I0413 19:15:26.699219 11766 net.cpp:113] Setting up inception_5b/relu_pool_proj
I0413 19:15:26.699223 11766 net.cpp:120] Top shape: 128 128 7 7 (802816)
I0413 19:15:26.699225 11766 layer_factory.hpp:74] Creating layer inception_5b/output
I0413 19:15:26.699231 11766 net.cpp:84] Creating Layer inception_5b/output
I0413 19:15:26.699234 11766 net.cpp:380] inception_5b/output <- inception_5b/1x1
I0413 19:15:26.699240 11766 net.cpp:380] inception_5b/output <- inception_5b/3x3
I0413 19:15:26.699244 11766 net.cpp:380] inception_5b/output <- inception_5b/5x5
I0413 19:15:26.699246 11766 net.cpp:380] inception_5b/output <- inception_5b/pool_proj
I0413 19:15:26.699250 11766 net.cpp:338] inception_5b/output -> inception_5b/output
I0413 19:15:26.699254 11766 net.cpp:113] Setting up inception_5b/output
I0413 19:15:26.699259 11766 net.cpp:120] Top shape: 128 1024 7 7 (6422528)
I0413 19:15:26.699262 11766 layer_factory.hpp:74] Creating layer pool5/7x7_s1
I0413 19:15:26.699267 11766 net.cpp:84] Creating Layer pool5/7x7_s1
I0413 19:15:26.699270 11766 net.cpp:380] pool5/7x7_s1 <- inception_5b/output
I0413 19:15:26.699273 11766 net.cpp:338] pool5/7x7_s1 -> pool5/7x7_s1
I0413 19:15:26.699277 11766 net.cpp:113] Setting up pool5/7x7_s1
I0413 19:15:26.699282 11766 net.cpp:120] Top shape: 128 1024 1 1 (131072)
I0413 19:15:26.699285 11766 layer_factory.hpp:74] Creating layer fc6-conv
I0413 19:15:26.699290 11766 net.cpp:84] Creating Layer fc6-conv
I0413 19:15:26.699292 11766 net.cpp:380] fc6-conv <- pool5/7x7_s1
I0413 19:15:26.699301 11766 net.cpp:338] fc6-conv -> fc6-conv
I0413 19:15:26.699306 11766 net.cpp:113] Setting up fc6-conv
I0413 19:15:26.700415 11766 net.cpp:120] Top shape: 128 1000 1 1 (128000)
I0413 19:15:26.700423 11766 layer_factory.hpp:74] Creating layer fc6-conv/relu
I0413 19:15:26.700428 11766 net.cpp:84] Creating Layer fc6-conv/relu
I0413 19:15:26.700431 11766 net.cpp:380] fc6-conv/relu <- fc6-conv
I0413 19:15:26.700434 11766 net.cpp:327] fc6-conv/relu -> fc6-conv (in-place)
I0413 19:15:26.700438 11766 net.cpp:113] Setting up fc6-conv/relu
I0413 19:15:26.700443 11766 net.cpp:120] Top shape: 128 1000 1 1 (128000)
I0413 19:15:26.700445 11766 net.cpp:169] fc6-conv/relu does not need backward computation.
I0413 19:15:26.700448 11766 net.cpp:169] fc6-conv does not need backward computation.
I0413 19:15:26.700450 11766 net.cpp:169] pool5/7x7_s1 does not need backward computation.
I0413 19:15:26.700453 11766 net.cpp:169] inception_5b/output does not need backward computation.
I0413 19:15:26.700455 11766 net.cpp:169] inception_5b/relu_pool_proj does not need backward computation.
…
