…
12:25.924254 28377 caffe.cpp:212] Use GPU with device ID 0
E0417 00:12:26.145711 28377 upgrade_proto.cpp:618] Attempting to upgrade input file specified using deprecated V1LayerParameter: ./imagenet_winners/alexnet.prototxt
I0417 00:12:26.145784 28377 upgrade_proto.cpp:626] Successfully upgraded file specified using deprecated V1LayerParameter
I0417 00:12:26.145925 28377 net.cpp:42] Initializing net from parameters: 
name: "alexnet"
input: "data"
input_dim: 128
input_dim: 3
input_dim: 224
input_dim: 224
force_backward: true
state {
  phase: TRAIN
}
layer {
  name: "conv1"
  type: "Convolution"
  bottom: "data"
  top: "conv1/11x11_s4"
  param {
    lr_mult: 1
    decay_mult: 1
  }
  param {
    lr_mult: 2
    decay_mult: 0
  }
  convolution_param {
    num_output: 64
    pad: 2
    kernel_size: 11
    stride: 4
    weight_filler {
      type: "xavier"
      std: 0.1
    }
    bias_filler {
      type: "constant"
      value: 0.2
    }
  }
}
layer {
  name: "conv1/relu"
  type: "ReLU"
  bottom: "conv1/11x11_s4"
  top: "conv1/11x11_s4"
}
layer {
  name: "pool1/3x3_s2"
  type: "Pooling"
  bottom: "conv1/11x11_s4"
  top: "pool1/3x3_s2"
  pooling_param {
    pool: MAX
    kernel_size: 3
    stride: 2
  }
}
layer {
  name: "conv2/5x5_s1"
  type: "Convolution"
  bottom: "pool1/3x3_s2"
  top: "conv2/5x5_s1"
  param {
    lr_mult: 1
    decay_mult: 1
  }
  param {
    lr_mult: 2
    decay_mult: 0
  }
  convolution_param {
    num_output: 192
    pad: 2
    kernel_size: 5
    stride: 1
    weight_filler {
      type: "xavier"
      std: 0.1
    }
    bias_filler {
      type: "constant"
      value: 0.2
    }
  }
}
layer {
  name: "cpnv2/relu"
  type: "ReLU"
  bottom: "conv2/5x5_s1"
  top: "conv2/5x5_s1"
}
layer {
  name: "pool2/3x3_s2"
  type: "Pooling"
  bottom: "conv2/5x5_s1"
  top: "pool2/3x3_s2"
  pooling_param {
    pool: MAX
    kernel_size: 3
    stride: 2
  }
}
layer {
  name: "conv3/3x3_s1"
  type: "Convolution"
  bottom: "pool2/3x3_s2"
  top: "conv3/3x3_s1"
  param {
    lr_mult: 1
    decay_mult: 1
  }
  param {
    lr_mult: 2
    decay_mult: 0
  }
  convolution_param {
    num_output: 384
    pad: 1
    kernel_size: 3
    stride: 1
    weight_filler {
      type: "xavier"
      std: 0.1
    }
    bias_filler {
      type: "constant"
      value: 0.2
    }
  }
}
layer {
  name: "conv3/relu"
  type: "ReLU"
  bottom: "conv3/3x3_s1"
  top: "conv3/3x3_s1"
}
layer {
  name: "conv4/3x3_s1"
  type: "Convolution"
  bottom: "conv3/3x3_s1"
  top: "conv4/3x3_s1"
  param {
    lr_mult: 1
    decay_mult: 1
  }
  param {
    lr_mult: 2
    decay_mult: 0
  }
  convolution_param {
    num_output: 256
    pad: 1
    kernel_size: 3
    stride: 1
    weight_filler {
      type: "xavier"
      std: 0.1
    }
    bias_filler {
      type: "constant"
      value: 0.2
    }
  }
}
layer {
  name: "conv4/relu"
  type: "ReLU"
  bottom: "conv4/3x3_s1"
  top: "conv4/3x3_s1"
}
layer {
  name: "conv5/3x3_s1"
  type: "Convolution"
  bottom: "conv4/3x3_s1"
  top: "conv5/3x3_s1"
  param {
    lr_mult: 1
    decay_mult: 1
  }
  param {
    lr_mult: 2
    decay_mult: 0
  }
  convolution_param {
    num_output: 256
    pad: 1
    kernel_size: 3
    stride: 1
    weight_filler {
      type: "xavier"
      std: 0.1
    }
    bias_filler {
      type: "constant"
      value: 0.2
    }
  }
}
layer {
  name: "conv5/relu"
  type: "ReLU"
  bottom: "conv5/3x3_s1"
  top: "conv5/3x3_s1"
}
layer {
  name: "pool5/3x3_s2"
  type: "Pooling"
  bottom: "conv5/3x3_s1"
  top: "pool5/3x3_s2"
  pooling_param {
    pool: MAX
    kernel_size: 3
    stride: 2
  }
}
layer {
  name: "fc6-conv"
  type: "Convolution"
  bottom: "pool5/3x3_s2"
  top: "fc6-conv"
  convolution_param {
    num_output: 4096
    kernel_size: 6
  }
}
layer {
  name: "fc7-conv"
  type: "Convolution"
  bottom: "fc6-conv"
  top: "fc7-conv"
  convolution_param {
    num_output: 4096
    kernel_size: 1
  }
}
layer {
  name: "fc8-conv"
  type: "Convolution"
  bottom: "fc7-conv"
  top: "fc8-conv"
  convolution_param {
    num_output: 1000
    kernel_size: 1
  }
}
I0417 00:12:26.145980 28377 net.cpp:340] Input 0 -> data
I0417 00:12:26.146019 28377 layer_factory.hpp:74] Creating layer conv1
I0417 00:12:26.146036 28377 net.cpp:84] Creating Layer conv1
I0417 00:12:26.146041 28377 net.cpp:380] conv1 <- data
I0417 00:12:26.146047 28377 net.cpp:338] conv1 -> conv1/11x11_s4
I0417 00:12:26.146057 28377 net.cpp:113] Setting up conv1
I0417 00:12:26.146553 28377 net.cpp:120] Top shape: 128 64 55 55 (24780800)
I0417 00:12:26.146566 28377 layer_factory.hpp:74] Creating layer conv1/relu
I0417 00:12:26.146574 28377 net.cpp:84] Creating Layer conv1/relu
I0417 00:12:26.146576 28377 net.cpp:380] conv1/relu <- conv1/11x11_s4
I0417 00:12:26.146580 28377 net.cpp:327] conv1/relu -> conv1/11x11_s4 (in-place)
I0417 00:12:26.146585 28377 net.cpp:113] Setting up conv1/relu
I0417 00:12:26.146595 28377 net.cpp:120] Top shape: 128 64 55 55 (24780800)
I0417 00:12:26.146597 28377 layer_factory.hpp:74] Creating layer pool1/3x3_s2
I0417 00:12:26.146602 28377 net.cpp:84] Creating Layer pool1/3x3_s2
I0417 00:12:26.146605 28377 net.cpp:380] pool1/3x3_s2 <- conv1/11x11_s4
I0417 00:12:26.146610 28377 net.cpp:338] pool1/3x3_s2 -> pool1/3x3_s2
I0417 00:12:26.146615 28377 net.cpp:113] Setting up pool1/3x3_s2
I0417 00:12:26.146625 28377 net.cpp:120] Top shape: 128 64 27 27 (5971968)
I0417 00:12:26.146630 28377 layer_factory.hpp:74] Creating layer conv2/5x5_s1
I0417 00:12:26.146633 28377 net.cpp:84] Creating Layer conv2/5x5_s1
I0417 00:12:26.146636 28377 net.cpp:380] conv2/5x5_s1 <- pool1/3x3_s2
I0417 00:12:26.146641 28377 net.cpp:338] conv2/5x5_s1 -> conv2/5x5_s1
I0417 00:12:26.146646 28377 net.cpp:113] Setting up conv2/5x5_s1
I0417 00:12:26.148496 28377 net.cpp:120] Top shape: 128 192 27 27 (17915904)
I0417 00:12:26.148506 28377 layer_factory.hpp:74] Creating layer cpnv2/relu
I0417 00:12:26.148511 28377 net.cpp:84] Creating Layer cpnv2/relu
I0417 00:12:26.148515 28377 net.cpp:380] cpnv2/relu <- conv2/5x5_s1
I0417 00:12:26.148519 28377 net.cpp:327] cpnv2/relu -> conv2/5x5_s1 (in-place)
I0417 00:12:26.148524 28377 net.cpp:113] Setting up cpnv2/relu
I0417 00:12:26.148529 28377 net.cpp:120] Top shape: 128 192 27 27 (17915904)
I0417 00:12:26.148530 28377 layer_factory.hpp:74] Creating layer pool2/3x3_s2
I0417 00:12:26.148535 28377 net.cpp:84] Creating Layer pool2/3x3_s2
I0417 00:12:26.148537 28377 net.cpp:380] pool2/3x3_s2 <- conv2/5x5_s1
I0417 00:12:26.148541 28377 net.cpp:338] pool2/3x3_s2 -> pool2/3x3_s2
I0417 00:12:26.148546 28377 net.cpp:113] Setting up pool2/3x3_s2
I0417 00:12:26.148552 28377 net.cpp:120] Top shape: 128 192 13 13 (4153344)
I0417 00:12:26.148555 28377 layer_factory.hpp:74] Creating layer conv3/3x3_s1
I0417 00:12:26.148560 28377 net.cpp:84] Creating Layer conv3/3x3_s1
I0417 00:12:26.148562 28377 net.cpp:380] conv3/3x3_s1 <- pool2/3x3_s2
I0417 00:12:26.148566 28377 net.cpp:338] conv3/3x3_s1 -> conv3/3x3_s1
I0417 00:12:26.148571 28377 net.cpp:113] Setting up conv3/3x3_s1
I0417 00:12:26.152534 28377 net.cpp:120] Top shape: 128 384 13 13 (8306688)
I0417 00:12:26.152545 28377 layer_factory.hpp:74] Creating layer conv3/relu
I0417 00:12:26.152549 28377 net.cpp:84] Creating Layer conv3/relu
I0417 00:12:26.152552 28377 net.cpp:380] conv3/relu <- conv3/3x3_s1
I0417 00:12:26.152556 28377 net.cpp:327] conv3/relu -> conv3/3x3_s1 (in-place)
I0417 00:12:26.152560 28377 net.cpp:113] Setting up conv3/relu
I0417 00:12:26.152565 28377 net.cpp:120] Top shape: 128 384 13 13 (8306688)
I0417 00:12:26.152567 28377 layer_factory.hpp:74] Creating layer conv4/3x3_s1
I0417 00:12:26.152573 28377 net.cpp:84] Creating Layer conv4/3x3_s1
I0417 00:12:26.152576 28377 net.cpp:380] conv4/3x3_s1 <- conv3/3x3_s1
I0417 00:12:26.152580 28377 net.cpp:338] conv4/3x3_s1 -> conv4/3x3_s1
I0417 00:12:26.152585 28377 net.cpp:113] Setting up conv4/3x3_s1
I0417 00:12:26.157611 28377 net.cpp:120] Top shape: 128 256 13 13 (5537792)
I0417 00:12:26.157620 28377 layer_factory.hpp:74] Creating layer conv4/relu
I0417 00:12:26.157625 28377 net.cpp:84] Creating Layer conv4/relu
I0417 00:12:26.157629 28377 net.cpp:380] conv4/relu <- conv4/3x3_s1
I0417 00:12:26.157632 28377 net.cpp:327] conv4/relu -> conv4/3x3_s1 (in-place)
I0417 00:12:26.157642 28377 net.cpp:113] Setting up conv4/relu
I0417 00:12:26.157646 28377 net.cpp:120] Top shape: 128 256 13 13 (5537792)
I0417 00:12:26.157649 28377 layer_factory.hpp:74] Creating layer conv5/3x3_s1
I0417 00:12:26.157655 28377 net.cpp:84] Creating Layer conv5/3x3_s1
I0417 00:12:26.157656 28377 net.cpp:380] conv5/3x3_s1 <- conv4/3x3_s1
I0417 00:12:26.157662 28377 net.cpp:338] conv5/3x3_s1 -> conv5/3x3_s1
I0417 00:12:26.157667 28377 net.cpp:113] Setting up conv5/3x3_s1
I0417 00:12:26.161183 28377 net.cpp:120] Top shape: 128 256 13 13 (5537792)
I0417 00:12:26.161193 28377 layer_factory.hpp:74] Creating layer conv5/relu
I0417 00:12:26.161200 28377 net.cpp:84] Creating Layer conv5/relu
I0417 00:12:26.161202 28377 net.cpp:380] conv5/relu <- conv5/3x3_s1
I0417 00:12:26.161206 28377 net.cpp:327] conv5/relu -> conv5/3x3_s1 (in-place)
I0417 00:12:26.161211 28377 net.cpp:113] Setting up conv5/relu
I0417 00:12:26.161214 28377 net.cpp:120] Top shape: 128 256 13 13 (5537792)
I0417 00:12:26.161217 28377 layer_factory.hpp:74] Creating layer pool5/3x3_s2
I0417 00:12:26.161221 28377 net.cpp:84] Creating Layer pool5/3x3_s2
I0417 00:12:26.161224 28377 net.cpp:380] pool5/3x3_s2 <- conv5/3x3_s1
I0417 00:12:26.161229 28377 net.cpp:338] pool5/3x3_s2 -> pool5/3x3_s2
I0417 00:12:26.161234 28377 net.cpp:113] Setting up pool5/3x3_s2
I0417 00:12:26.161240 28377 net.cpp:120] Top shape: 128 256 6 6 (1179648)
I0417 00:12:26.161243 28377 layer_factory.hpp:74] Creating layer fc6-conv
I0417 00:12:26.161247 28377 net.cpp:84] Creating Layer fc6-conv
I0417 00:12:26.161250 28377 net.cpp:380] fc6-conv <- pool5/3x3_s2
I0417 00:12:26.161255 28377 net.cpp:338] fc6-conv -> fc6-conv
I0417 00:12:26.161260 28377 net.cpp:113] Setting up fc6-conv
I0417 00:12:26.412976 28377 net.cpp:120] Top shape: 128 4096 1 1 (524288)
I0417 00:12:26.413005 28377 layer_factory.hpp:74] Creating layer fc7-conv
I0417 00:12:26.413017 28377 net.cpp:84] Creating Layer fc7-conv
I0417 00:12:26.413020 28377 net.cpp:380] fc7-conv <- fc6-conv
I0417 00:12:26.413025 28377 net.cpp:338] fc7-conv -> fc7-conv
I0417 00:12:26.413033 28377 net.cpp:113] Setting up fc7-conv
I0417 00:12:26.662575 28377 net.cpp:120] Top shape: 128 4096 1 1 (524288)
I0417 00:12:26.662603 28377 layer_factory.hpp:74] Creating layer fc8-conv
I0417 00:12:26.662616 28377 net.cpp:84] Creating Layer fc8-conv
I0417 00:12:26.662619 28377 net.cpp:380] fc8-conv <- fc7-conv
I0417 00:12:26.662626 28377 net.cpp:338] fc8-conv -> fc8-conv
I0417 00:12:26.662633 28377 net.cpp:113] Setting up fc8-conv
I0417 00:12:26.711983 28377 net.cpp:120] Top shape: 128 1000 1 1 (128000)
I0417 00:12:26.712009 28377 net.cpp:169] fc8-conv does not need backward computation.
I0417 00:12:26.712013 28377 net.cpp:169] fc7-conv does not need backward computation.
I0417 00:12:26.712015 28377 net.cpp:169] fc6-conv does not need backward computation.
I0417 00:12:26.712018 28377 net.cpp:169] pool5/3x3_s2 does not need backward computation.
I0417 00:12:26.712021 28377 net.cpp:169] conv5/relu does not need backward computation.
…
