…
4 11315 caffe.cpp:212] Use GPU with device ID 0
E0408 23:27:55.788975 11315 upgrade_proto.cpp:618] Attempting to upgrade input file specified using deprecated V1LayerParameter: ./imagenet_winners/overfeat.prototxt
I0408 23:27:55.789047 11315 upgrade_proto.cpp:626] Successfully upgraded file specified using deprecated V1LayerParameter
I0408 23:27:55.789196 11315 net.cpp:42] Initializing net from parameters: 
name: "overfeat"
input: "data"
input_dim: 128
input_dim: 3
input_dim: 231
input_dim: 231
force_backward: true
state {
  phase: TRAIN
}
layer {
  name: "conv1/11x11_s4"
  type: "Convolution"
  bottom: "data"
  top: "conv1/11x11_s4"
  param {
    lr_mult: 1
    decay_mult: 1
  }
  param {
    lr_mult: 2
    decay_mult: 0
  }
  convolution_param {
    num_output: 96
    kernel_size: 11
    stride: 4
    weight_filler {
      type: "xavier"
      std: 0.1
    }
    bias_filler {
      type: "constant"
      value: 0.2
    }
  }
}
layer {
  name: "conv1/relu"
  type: "ReLU"
  bottom: "conv1/11x11_s4"
  top: "conv1/11x11_s4"
}
layer {
  name: "pool1/2x2_s2"
  type: "Pooling"
  bottom: "conv1/11x11_s4"
  top: "pool1/2x2_s2"
  pooling_param {
    pool: MAX
    kernel_size: 2
    stride: 2
  }
}
layer {
  name: "conv2/5x5_s1"
  type: "Convolution"
  bottom: "pool1/2x2_s2"
  top: "conv2/5x5_s1"
  param {
    lr_mult: 1
    decay_mult: 1
  }
  param {
    lr_mult: 2
    decay_mult: 0
  }
  convolution_param {
    num_output: 256
    kernel_size: 5
    stride: 1
    weight_filler {
      type: "xavier"
      std: 0.1
    }
    bias_filler {
      type: "constant"
      value: 0.2
    }
  }
}
layer {
  name: "conv2/relu"
  type: "ReLU"
  bottom: "conv2/5x5_s1"
  top: "conv2/5x5_s1"
}
layer {
  name: "pool2/2x2_s2"
  type: "Pooling"
  bottom: "conv2/5x5_s1"
  top: "pool2/2x2_s2"
  pooling_param {
    pool: MAX
    kernel_size: 2
    stride: 2
  }
}
layer {
  name: "conv3/3x3_s1"
  type: "Convolution"
  bottom: "pool2/2x2_s2"
  top: "conv3/3x3_s1"
  param {
    lr_mult: 1
    decay_mult: 1
  }
  param {
    lr_mult: 2
    decay_mult: 0
  }
  convolution_param {
    num_output: 512
    pad: 1
    kernel_size: 3
    stride: 1
    weight_filler {
      type: "xavier"
      std: 0.1
    }
    bias_filler {
      type: "constant"
      value: 0.2
    }
  }
}
layer {
  name: "conv3/relu"
  type: "ReLU"
  bottom: "conv3/3x3_s1"
  top: "conv3/3x3_s1"
}
layer {
  name: "conv4/3x3_s1"
  type: "Convolution"
  bottom: "conv3/3x3_s1"
  top: "conv4/3x3_s1"
  param {
    lr_mult: 1
    decay_mult: 1
  }
  param {
    lr_mult: 2
    decay_mult: 0
  }
  convolution_param {
    num_output: 1024
    pad: 1
    kernel_size: 3
    stride: 1
    weight_filler {
      type: "xavier"
      std: 0.1
    }
    bias_filler {
      type: "constant"
      value: 0.2
    }
  }
}
layer {
  name: "conv4/relu"
  type: "ReLU"
  bottom: "conv4/3x3_s1"
  top: "conv4/3x3_s1"
}
layer {
  name: "conv5/3x3_s1"
  type: "Convolution"
  bottom: "conv4/3x3_s1"
  top: "conv5/3x3_s1"
  param {
    lr_mult: 1
    decay_mult: 1
  }
  param {
    lr_mult: 2
    decay_mult: 0
  }
  convolution_param {
    num_output: 1024
    pad: 1
    kernel_size: 3
    stride: 1
    weight_filler {
      type: "xavier"
      std: 0.1
    }
    bias_filler {
      type: "constant"
      value: 0.2
    }
  }
}
layer {
  name: "conv5/relu"
  type: "ReLU"
  bottom: "conv5/3x3_s1"
  top: "conv5/3x3_s1"
}
layer {
  name: "pool5/2x2_s2"
  type: "Pooling"
  bottom: "conv5/3x3_s1"
  top: "pool5/2x2_s2"
  pooling_param {
    pool: MAX
    kernel_size: 2
    stride: 2
  }
}
layer {
  name: "fc6-conv"
  type: "Convolution"
  bottom: "pool5/2x2_s2"
  top: "fc6-conv"
  convolution_param {
    num_output: 3072
    kernel_size: 6
  }
}
layer {
  name: "fc7-conv"
  type: "Convolution"
  bottom: "fc6-conv"
  top: "fc7-conv"
  convolution_param {
    num_output: 4096
    kernel_size: 1
  }
}
layer {
  name: "fc8-conv"
  type: "Convolution"
  bottom: "fc7-conv"
  top: "fc8-conv"
  convolution_param {
    num_output: 1000
    kernel_size: 1
  }
}
I0408 23:27:55.789253 11315 net.cpp:340] Input 0 -> data
I0408 23:27:55.789296 11315 layer_factory.hpp:74] Creating layer conv1/11x11_s4
I0408 23:27:55.789315 11315 net.cpp:84] Creating Layer conv1/11x11_s4
I0408 23:27:55.789319 11315 net.cpp:380] conv1/11x11_s4 <- data
I0408 23:27:55.789326 11315 net.cpp:338] conv1/11x11_s4 -> conv1/11x11_s4
I0408 23:27:55.789336 11315 net.cpp:113] Setting up conv1/11x11_s4
I0408 23:27:55.789909 11315 net.cpp:120] Top shape: 128 96 56 56 (38535168)
I0408 23:27:55.789924 11315 layer_factory.hpp:74] Creating layer conv1/relu
I0408 23:27:55.789930 11315 net.cpp:84] Creating Layer conv1/relu
I0408 23:27:55.789933 11315 net.cpp:380] conv1/relu <- conv1/11x11_s4
I0408 23:27:55.789938 11315 net.cpp:327] conv1/relu -> conv1/11x11_s4 (in-place)
I0408 23:27:55.789942 11315 net.cpp:113] Setting up conv1/relu
I0408 23:27:55.789952 11315 net.cpp:120] Top shape: 128 96 56 56 (38535168)
I0408 23:27:55.789955 11315 layer_factory.hpp:74] Creating layer pool1/2x2_s2
I0408 23:27:55.789960 11315 net.cpp:84] Creating Layer pool1/2x2_s2
I0408 23:27:55.789963 11315 net.cpp:380] pool1/2x2_s2 <- conv1/11x11_s4
I0408 23:27:55.789968 11315 net.cpp:338] pool1/2x2_s2 -> pool1/2x2_s2
I0408 23:27:55.789973 11315 net.cpp:113] Setting up pool1/2x2_s2
I0408 23:27:55.789985 11315 net.cpp:120] Top shape: 128 96 28 28 (9633792)
I0408 23:27:55.789989 11315 layer_factory.hpp:74] Creating layer conv2/5x5_s1
I0408 23:27:55.789994 11315 net.cpp:84] Creating Layer conv2/5x5_s1
I0408 23:27:55.789998 11315 net.cpp:380] conv2/5x5_s1 <- pool1/2x2_s2
I0408 23:27:55.790001 11315 net.cpp:338] conv2/5x5_s1 -> conv2/5x5_s1
I0408 23:27:55.790009 11315 net.cpp:113] Setting up conv2/5x5_s1
I0408 23:27:55.793822 11315 net.cpp:120] Top shape: 128 256 24 24 (18874368)
I0408 23:27:55.793848 11315 layer_factory.hpp:74] Creating layer conv2/relu
I0408 23:27:55.793856 11315 net.cpp:84] Creating Layer conv2/relu
I0408 23:27:55.793859 11315 net.cpp:380] conv2/relu <- conv2/5x5_s1
I0408 23:27:55.793865 11315 net.cpp:327] conv2/relu -> conv2/5x5_s1 (in-place)
I0408 23:27:55.793871 11315 net.cpp:113] Setting up conv2/relu
I0408 23:27:55.793875 11315 net.cpp:120] Top shape: 128 256 24 24 (18874368)
I0408 23:27:55.793879 11315 layer_factory.hpp:74] Creating layer pool2/2x2_s2
I0408 23:27:55.793884 11315 net.cpp:84] Creating Layer pool2/2x2_s2
I0408 23:27:55.793887 11315 net.cpp:380] pool2/2x2_s2 <- conv2/5x5_s1
I0408 23:27:55.793891 11315 net.cpp:338] pool2/2x2_s2 -> pool2/2x2_s2
I0408 23:27:55.793897 11315 net.cpp:113] Setting up pool2/2x2_s2
I0408 23:27:55.793905 11315 net.cpp:120] Top shape: 128 256 12 12 (4718592)
I0408 23:27:55.793908 11315 layer_factory.hpp:74] Creating layer conv3/3x3_s1
I0408 23:27:55.793915 11315 net.cpp:84] Creating Layer conv3/3x3_s1
I0408 23:27:55.793917 11315 net.cpp:380] conv3/3x3_s1 <- pool2/2x2_s2
I0408 23:27:55.793922 11315 net.cpp:338] conv3/3x3_s1 -> conv3/3x3_s1
I0408 23:27:55.793928 11315 net.cpp:113] Setting up conv3/3x3_s1
I0408 23:27:55.800875 11315 net.cpp:120] Top shape: 128 512 12 12 (9437184)
I0408 23:27:55.800904 11315 layer_factory.hpp:74] Creating layer conv3/relu
I0408 23:27:55.800912 11315 net.cpp:84] Creating Layer conv3/relu
I0408 23:27:55.800916 11315 net.cpp:380] conv3/relu <- conv3/3x3_s1
I0408 23:27:55.800921 11315 net.cpp:327] conv3/relu -> conv3/3x3_s1 (in-place)
I0408 23:27:55.800928 11315 net.cpp:113] Setting up conv3/relu
I0408 23:27:55.800933 11315 net.cpp:120] Top shape: 128 512 12 12 (9437184)
I0408 23:27:55.800936 11315 layer_factory.hpp:74] Creating layer conv4/3x3_s1
I0408 23:27:55.800945 11315 net.cpp:84] Creating Layer conv4/3x3_s1
I0408 23:27:55.800947 11315 net.cpp:380] conv4/3x3_s1 <- conv3/3x3_s1
I0408 23:27:55.800952 11315 net.cpp:338] conv4/3x3_s1 -> conv4/3x3_s1
I0408 23:27:55.800958 11315 net.cpp:113] Setting up conv4/3x3_s1
I0408 23:27:55.827428 11315 net.cpp:120] Top shape: 128 1024 12 12 (18874368)
I0408 23:27:55.827455 11315 layer_factory.hpp:74] Creating layer conv4/relu
I0408 23:27:55.827463 11315 net.cpp:84] Creating Layer conv4/relu
I0408 23:27:55.827467 11315 net.cpp:380] conv4/relu <- conv4/3x3_s1
I0408 23:27:55.827472 11315 net.cpp:327] conv4/relu -> conv4/3x3_s1 (in-place)
I0408 23:27:55.827486 11315 net.cpp:113] Setting up conv4/relu
I0408 23:27:55.827492 11315 net.cpp:120] Top shape: 128 1024 12 12 (18874368)
I0408 23:27:55.827496 11315 layer_factory.hpp:74] Creating layer conv5/3x3_s1
I0408 23:27:55.827503 11315 net.cpp:84] Creating Layer conv5/3x3_s1
I0408 23:27:55.827507 11315 net.cpp:380] conv5/3x3_s1 <- conv4/3x3_s1
I0408 23:27:55.827512 11315 net.cpp:338] conv5/3x3_s1 -> conv5/3x3_s1
I0408 23:27:55.827519 11315 net.cpp:113] Setting up conv5/3x3_s1
I0408 23:27:55.880350 11315 net.cpp:120] Top shape: 128 1024 12 12 (18874368)
I0408 23:27:55.880380 11315 layer_factory.hpp:74] Creating layer conv5/relu
I0408 23:27:55.880390 11315 net.cpp:84] Creating Layer conv5/relu
I0408 23:27:55.880394 11315 net.cpp:380] conv5/relu <- conv5/3x3_s1
I0408 23:27:55.880400 11315 net.cpp:327] conv5/relu -> conv5/3x3_s1 (in-place)
I0408 23:27:55.880406 11315 net.cpp:113] Setting up conv5/relu
I0408 23:27:55.880411 11315 net.cpp:120] Top shape: 128 1024 12 12 (18874368)
I0408 23:27:55.880414 11315 layer_factory.hpp:74] Creating layer pool5/2x2_s2
I0408 23:27:55.880420 11315 net.cpp:84] Creating Layer pool5/2x2_s2
I0408 23:27:55.880422 11315 net.cpp:380] pool5/2x2_s2 <- conv5/3x3_s1
I0408 23:27:55.880429 11315 net.cpp:338] pool5/2x2_s2 -> pool5/2x2_s2
I0408 23:27:55.880435 11315 net.cpp:113] Setting up pool5/2x2_s2
I0408 23:27:55.880444 11315 net.cpp:120] Top shape: 128 1024 6 6 (4718592)
I0408 23:27:55.880446 11315 layer_factory.hpp:74] Creating layer fc6-conv
I0408 23:27:55.880451 11315 net.cpp:84] Creating Layer fc6-conv
I0408 23:27:55.880455 11315 net.cpp:380] fc6-conv <- pool5/2x2_s2
I0408 23:27:55.880460 11315 net.cpp:338] fc6-conv -> fc6-conv
I0408 23:27:55.880465 11315 net.cpp:113] Setting up fc6-conv
I0408 23:27:56.474176 11315 net.cpp:120] Top shape: 128 3072 1 1 (393216)
I0408 23:27:56.474210 11315 layer_factory.hpp:74] Creating layer fc7-conv
I0408 23:27:56.474220 11315 net.cpp:84] Creating Layer fc7-conv
I0408 23:27:56.474223 11315 net.cpp:380] fc7-conv <- fc6-conv
I0408 23:27:56.474231 11315 net.cpp:338] fc7-conv -> fc7-conv
I0408 23:27:56.474238 11315 net.cpp:113] Setting up fc7-conv
I0408 23:27:56.522461 11315 net.cpp:120] Top shape: 128 4096 1 1 (524288)
I0408 23:27:56.522491 11315 layer_factory.hpp:74] Creating layer fc8-conv
I0408 23:27:56.522502 11315 net.cpp:84] Creating Layer fc8-conv
I0408 23:27:56.522506 11315 net.cpp:380] fc8-conv <- fc7-conv
I0408 23:27:56.522513 11315 net.cpp:338] fc8-conv -> fc8-conv
I0408 23:27:56.522522 11315 net.cpp:113] Setting up fc8-conv
I0408 23:27:56.549222 11315 net.cpp:120] Top shape: 128 1000 1 1 (128000)
I0408 23:27:56.549248 11315 net.cpp:169] fc8-conv does not need backward computation.
I0408 23:27:56.549252 11315 net.cpp:169] fc7-conv does not need backward computation.
I0408 23:27:56.549255 11315 net.cpp:169] fc6-conv does not need backward computation.
I0408 23:27:56.549257 11315 net.cpp:169] pool5/2x2_s2 does not need backward computation.
I0408 23:27:56.549260 11315 net.cpp:169] conv5/relu does not need backward computation.
…
