…
2 21:06:59.997961 15992 caffe.cpp:301] Use CPU.
I1012 21:07:00.002519 15992 upgrade_proto.cpp:618] Attempting to upgrade input file specified using deprecated V1LayerParameter: ./imagenet_winners/googlenet.prototxt
I1012 21:07:00.002794 15992 upgrade_proto.cpp:626] Successfully upgraded file specified using deprecated V1LayerParameter
I1012 21:07:00.003644 15992 net.cpp:50] Initializing net from parameters: 
name: "googlenet"
input: "data"
input_dim: 128
input_dim: 3
input_dim: 224
input_dim: 224
force_backward: true
state {
  phase: TRAIN
}
layer {
  name: "conv1/7x7_s2"
  type: "Convolution"
  bottom: "data"
  top: "conv1/7x7_s2"
  param {
    lr_mult: 1
    decay_mult: 1
  }
  param {
    lr_mult: 2
    decay_mult: 0
  }
  convolution_param {
    num_output: 64
    pad: 3
    kernel_size: 7
    stride: 2
    weight_filler {
      type: "xavier"
      std: 0.1
    }
    bias_filler {
      type: "constant"
      value: 0.2
    }
  }
}
layer {
  name: "conv1/relu_7x7"
  type: "ReLU"
  bottom: "conv1/7x7_s2"
  top: "conv1/7x7_s2"
}
layer {
  name: "pool1/3x3_s2"
  type: "Pooling"
  bottom: "conv1/7x7_s2"
  top: "pool1/3x3_s2"
  pooling_param {
    pool: MAX
    kernel_size: 3
    stride: 2
  }
}
layer {
  name: "conv2/3x3_reduce"
  type: "Convolution"
  bottom: "pool1/3x3_s2"
  top: "conv2/3x3_reduce"
  param {
    lr_mult: 1
    decay_mult: 1
  }
  param {
    lr_mult: 2
    decay_mult: 0
  }
  convolution_param {
    num_output: 64
    kernel_size: 1
    weight_filler {
      type: "xavier"
      std: 0.1
    }
    bias_filler {
      type: "constant"
      value: 0.2
    }
  }
}
layer {
  name: "conv2/relu_3x3_reduce"
  type: "ReLU"
  bottom: "conv2/3x3_reduce"
  top: "conv2/3x3_reduce"
}
layer {
  name: "conv2/3x3"
  type: "Convolution"
  bottom: "conv2/3x3_reduce"
  top: "conv2/3x3"
  param {
    lr_mult: 1
    decay_mult: 1
  }
  param {
    lr_mult: 2
    decay_mult: 0
  }
  convolution_param {
    num_output: 192
    pad: 1
    kernel_size: 3
    weight_filler {
      type: "xavier"
      std: 0.03
    }
    bias_filler {
      type: "constant"
      value: 0.2
    }
  }
}
layer {
  name: "conv2/relu_3x3"
  type: "ReLU"
  bottom: "conv2/3x3"
  top: "conv2/3x3"
}
layer {
  name: "pool2/3x3_s2"
  type: "Pooling"
  bottom: "conv2/3x3"
  top: "pool2/3x3_s2"
  pooling_param {
    pool: MAX
    kernel_size: 3
    stride: 2
  }
}
layer {
  name: "inception_3a/1x1"
  type: "Convolution"
  bottom: "pool2/3x3_s2"
  top: "inception_3a/1x1"
  param {
    lr_mult: 1
    decay_mult: 1
  }
  param {
    lr_mult: 2
    decay_mult: 0
  }
  convolution_param {
    num_output: 64
    kernel_size: 1
    weight_filler {
      type: "xavier"
      std: 0.03
    }
    bias_filler {
      type: "constant"
      value: 0.2
    }
  }
}
layer {
  name: "inception_3a/relu_1x1"
  type: "ReLU"
  bottom: "inception_3a/1x1"
  top: "inception_3a/1x1"
}
layer {
  name: "inception_3a/3x3_reduce"
  type: "Convolution"
  bottom: "pool2/3x3_s2"
  top: "inception_3a/3x3_reduce"
  param {
    lr_mult: 1
    decay_mult: 1
  }
  param {
    lr_mult: 2
    decay_mult: 0
  }
  convolution_param {
    num_output: 96
    kernel_size: 1
  }
}
layer {
  name: "inception_3a/relu_3x3_reduce"
  type: "ReLU"
  bottom: "inception_3a/3x3_reduce"
  top: "inception_3a/3x3_reduce"
}
layer {
  name: "inception_3a/3x3"
  type: "Convolution"
  bottom: "inception_3a/3x3_reduce"
  top: "inception_3a/3x3"
  param {
    lr_mult: 1
    decay_mult: 1
  }
  param {
    lr_mult: 2
    decay_mult: 0
  }
  convolution_param {
    num_output: 128
    pad: 1
    kernel_size: 3
    weight_filler {
      type: "xavier"
      std: 0.09
    }
    bias_filler {
      type: "constant"
      value: 0.2
    }
  }
}
layer {
  name: "inception_3a/relu_3x3"
  type: "ReLU"
  bottom: "inception_3a/3x3"
  top: "inception_3a/3x3"
}
layer {
  name: "inception_3a/5x5_reduce"
  type: "Convolution"
  bottom: "pool2/3x3_s2"
  top: "inception_3a/5x5_reduce"
  param {
    lr_mult: 1
    decay_mult: 1
  }
  param {
    lr_mult: 2
    decay_mult: 0
  }
  convolution_param {
    num_output: 16
    kernel_size: 1
    weight_filler {
      type: "xavier"
      std: 0.2
    }
    bias_filler {
      type: "constant"
      value: 0.2
    }
  }
}
layer {
  name: "inception_3a/relu_5x5_reduce"
  type: "ReLU"
  bottom: "inception_3a/5x5_reduce"
  top: "inception_3a/5x5_reduce"
}
layer {
  name: "inception_3a/5x5"
  type: "Convolution"
  bottom: "inception_3a/5x5_reduce"
  top: "inception_3a/5x5"
  param {
    lr_mult: 1
    decay_mult: 1
  }
  param {
    lr_mult: 2
    decay_mult: 0
  }
  convolution_param {
    num_output: 32
    pad: 2
    kernel_size: 5
    weight_filler {
      type: "xavier"
      std: 0.03
    }
    bias_filler {
      type: "constant"
      value: 0.2
    }
  }
}
layer {
  name: "inception_3a/relu_5x5"
  type: "ReLU"
  bottom: "inception_3a/5x5"
  top: "inception_3a/5x5"
}
layer {
  name: "inception_3a/pool"
  type: "Pooling"
  bottom: "pool2/3x3_s2"
  top: "inception_3a/pool"
  pooling_param {
    pool: MAX
    kernel_size: 3
    stride: 1
    pad: 1
  }
}
layer {
  name: "inception_3a/pool_proj"
  type: "Convolution"
  bottom: "inception_3a/pool"
  top: "inception_3a/pool_proj"
  param {
    lr_mult: 1
    decay_mult: 1
  }
  param {
    lr_mult: 2
    decay_mult: 0
  }
  convolution_param {
    num_output: 32
    kernel_size: 1
    weight_filler {
      type: "xavier"
      std: 0.1
    }
    bias_filler {
      type: "constant"
      value: 0.2
    }
  }
}
layer {
  name: "inception_3a/relu_pool_proj"
  type: "ReLU"
  bottom: "inception_3a/pool_proj"
  top: "inception_3a/pool_proj"
}
layer {
  name: "inception_3a/output"
  type: "Concat"
  bottom: "inception_3a/1x1"
  bottom: "inception_3a/3x3"
  bottom: "inception_3a/5x5"
  bottom: "inception_3a/pool_proj"
  top: "inception_3a/output"
}
layer {
  name: "inception_3b/1x1"
  type: "Convolution"
  bottom: "inception_3a/output"
  top: "inception_3b/1x1"
  param {
    lr_mult: 1
    decay_mult: 1
  }
  param {
    lr_mult: 2
    decay_mult: 0
  }
  convolution_param {
    num_output: 128
    kernel_size: 1
    weight_filler {
      type: "xavier"
      std: 0.03
    }
    bias_filler {
      type: "constant"
      value: 0.2
    }
  }
}
layer {
  name: "inception_3b/relu_1x1"
  type: "ReLU"
  bottom: "inception_3b/1x1"
  top: "inception_3b/1x1"
}
layer {
  name: "inception_3b/3x3_reduce"
  type: "Convolution"
  bottom: "inception_3a/output"
  top: "inception_3b/3x3_reduce"
  param {
    lr_mult: 1
    decay_mult: 1
  }
  param {
    lr_mult: 2
    decay_mult: 0
  }
  convolution_param {
    num_output: 128
    kernel_size: 1
    weight_filler {
      type: "xavier"
      std: 0.09
    }
    bias_filler {
      type: "constant"
      value: 0.2
    }
  }
}
layer {
  name: "inception_3b/relu_3x3_reduce"
  type: "ReLU"
  bottom: "inception_3b/3x3_reduce"
  top: "inception_3b/3x3_reduce"
}
layer {
  name: "inception_3b/3x3"
  type: "Convolution"
  bottom: "inception_3b/3x3_reduce"
  top: "inception_3b/3x3"
  param {
    lr_mult: 1
    decay_mult: 1
  }
  param {
    lr_mult: 2
    decay_mult: 0
  }
  convolution_param {
    num_output: 192
    pad: 1
    kernel_size: 3
    weight_filler {
      type: "xavier"
      std: 0.03
    }
    bias_filler {
      type: "constant"
      value: 0.2
    }
  }
}
layer {
  name: "inception_3b/relu_3x3"
  type: "ReLU"
  bottom: "inception_3b/3x3"
  top: "inception_3b/3x3"
}
layer {
  name: "inception_3b/5x5_reduce"
  type: "Convolution"
  bottom: "inception_3a/output"
  top: "inception_3b/5x5_reduce"
  param {
    lr_mult: 1
    decay_mult: 1
  }
  param {
    lr_mult: 2
    decay_mult: 0
  }
  convolution_param {
    num_output: 32
    kernel_size: 1
    weight_filler {
      type: "xavier"
      std: 0.2
    }
    bias_filler {
      type: "constant"
      value: 0.2
    }
  }
}
layer {
  name: "inception_3b/relu_5x5_reduce"
  type: "ReLU"
  bottom: "inception_3b/5x5_reduce"
  top: "inception_3b/5x5_reduce"
}
layer {
  name: "inception_3b/5x5"
  type: "Convolution"
  bottom: "inception_3b/5x5_reduce"
  top: "inception_3b/5x5"
  param {
    lr_mult: 1
    decay_mult: 1
  }
  param {
    lr_mult: 2
    decay_mult: 0
  }
  convolution_param {
    num_output: 96
    pad: 2
    kernel_size: 5
    weight_filler {
      type: "xavier"
      std: 0.03
    }
    bias_filler {
      type: "constant"
      value: 0.2
    }
  }
}
layer {
  name: "inception_3b/relu_5x5"
  type: "ReLU"
  bottom: "inception_3b/5x5"
  top: "inception_3b/5x5"
}
layer {
  name: "inception_3b/pool"
  type: "Pooling"
  bottom: "inception_3a/output"
  top: "inception_3b/pool"
  pooling_param {
    pool: MAX
    kernel_size: 3
    stride: 1
    pad: 1
  }
}
layer {
  name: "inception_3b/pool_proj"
  type: "Convolution"
  bottom: "inception_3b/pool"
  top: "inception_3b/pool_proj"
  param {
    lr_mult: 1
    decay_mult: 1
  }
  param {
    lr_mult: 2
    decay_mult: 0
  }
  convolution_param {
    num_output: 64
    kernel_size: 1
    weight_filler {
      type: "xavier"
      std: 0.1
    }
    bias_filler {
      type: "constant"
      value: 0.2
    }
  }
}
layer {
  name: "inception_3b/relu_pool_proj"
  type: "ReLU"
  bottom: "inception_3b/pool_proj"
  top: "inception_3b/pool_proj"
}
layer {
  name: "inception_3b/output"
  type: "Concat"
  bottom: "inception_3b/1x1"
  bottom: "inception_3b/3x3"
  bottom: "inception_3b/5x5"
  bottom: "inception_3b/pool_proj"
  top: "inception_3b/output"
}
layer {
  name: "pool3/3x3_s2"
  type: "Pooling"
  bottom: "inception_3b/output"
  top: "pool3/3x3_s2"
  pooling_param {
    pool: MAX
    kernel_size: 3
    stride: 2
  }
}
layer {
  name: "inception_4a/1x1"
  type: "Convolution"
  bottom: "pool3/3x3_s2"
  top: "inception_4a/1x1"
  param {
    lr_mult: 1
    decay_mult: 1
  }
  param {
    lr_mult: 2
    decay_mult: 0
  }
  convolution_param {
    num_output: 192
    kernel_size: 1
    weight_filler {
      type: "xavier"
      std: 0.03
    }
    bias_filler {
      type: "constant"
      value: 0.2
    }
  }
}
layer {
  name: "inception_4a/relu_1x1"
  type: "ReLU"
  bottom: "inception_4a/1x1"
  top: "inception_4a/1x1"
}
layer {
  name: "inception_4a/3x3_reduce"
  type: "Convolution"
  bottom: "pool3/3x3_s2"
  top: "inception_4a/3x3_reduce"
  param {
    lr_mult: 1
    decay_mult: 1
  }
  param {
    lr_mult: 2
    decay_mult: 0
  }
  convolution_param {
    num_output: 96
    kernel_size: 1
    weight_filler {
      type: "xavier"
      std: 0.09
    }
    bias_filler {
      type: "constant"
      value: 0.2
    }
  }
}
layer {
  name: "inception_4a/relu_3x3_reduce"
  type: "ReLU"
  bottom: "inception_4a/3x3_reduce"
  top: "inception_4a/3x3_reduce"
}
layer {
  name: "inception_4a/3x3"
  type: "Convolution"
  bottom: "inception_4a/3x3_reduce"
  top: "inception_4a/3x3"
  param {
    lr_mult: 1
    decay_mult: 1
  }
  param {
    lr_mult: 2
    decay_mult: 0
  }
  convolution_param {
    num_output: 208
    pad: 1
    kernel_size: 3
    weight_filler {
      type: "xavier"
      std: 0.03
    }
    bias_filler {
      type: "constant"
      value: 0.2
    }
  }
}
layer {
  name: "inception_4a/relu_3x3"
  type: "ReLU"
  bottom: "inception_4a/3x3"
  top: "inception_4a/3x3"
}
layer {
  name: "inception_4a/5x5_reduce"
  type: "Convolution"
  bottom: "pool3/3x3_s2"
  top: "inception_4a/5x5_reduce"
  param {
    lr_mult: 1
    decay_mult: 1
  }
  param {
    lr_mult: 2
    decay_mult: 0
  }
  convolution_param {
    num_output: 16
    kernel_size: 1
    weight_filler {
      type: "xavier"
      std: 0.2
    }
    bias_filler {
      type: "constant"
      value: 0.2
    }
  }
}
layer {
  name: "inception_4a/relu_5x5_reduce"
  type: "ReLU"
  bottom: "inception_4a/5x5_reduce"
  top: "inception_4a/5x5_reduce"
}
layer {
  name: "inception_4a/5x5"
  type: "Convolution"
  bottom: "inception_4a/5x5_reduce"
  top: "inception_4a/5x5"
  param {
    lr_mult: 1
    decay_mult: 1
  }
  param {
    lr_mult: 2
    decay_mult: 0
  }
  convolution_param {
    num_output: 48
    pad: 2
    kernel_size: 5
    weight_filler {
      type: "xavier"
      std: 0.03
    }
    bias_filler {
      type: "constant"
      value: 0.2
    }
  }
}
layer {
  name: "inception_4a/relu_5x5"
  type: "ReLU"
  bottom: "inception_4a/5x5"
  top: "inception_4a/5x5"
}
layer {
  name: "inception_4a/pool"
  type: "Pooling"
  bottom: "pool3/3x3_s2"
  top: "inception_4a/pool"
  pooling_param {
    pool: MAX
    kernel_size: 3
    stride: 1
    pad: 1
  }
}
layer {
  name: "inception_4a/pool_proj"
  type: "Convolution"
  bottom: "inception_4a/pool"
  top: "inception_4a/pool_proj"
  param {
    lr_mult: 1
    decay_mult: 1
  }
  param {
    lr_mult: 2
    decay_mult: 0
  }
  convolution_param {
    num_output: 64
    kernel_size: 1
    weight_filler {
      type: "xavier"
      std: 0.1
    }
    bias_filler {
      type: "constant"
      value: 0.2
    }
  }
}
layer {
  name: "inception_4a/relu_pool_proj"
  type: "ReLU"
  bottom: "inception_4a/pool_proj"
  top: "inception_4a/pool_proj"
}
layer {
  name: "inception_4a/output"
  type: "Concat"
  bottom: "inception_4a/1x1"
  bottom: "inception_4a/3x3"
  bottom: "inception_4a/5x5"
  bottom: "inception_4a/pool_proj"
  top: "inception_4a/output"
}
layer {
  name: "inception_4b/1x1"
  type: "Convolution"
  bottom: "inception_4a/output"
  top: "inception_4b/1x1"
  param {
    lr_mult: 1
    decay_mult: 1
  }
  param {
    lr_mult: 2
    decay_mult: 0
  }
  convolution_param {
    num_output: 160
    kernel_size: 1
    weight_filler {
      type: "xavier"
      std: 0.03
    }
    bias_filler {
      type: "constant"
      value: 0.2
    }
  }
}
layer {
  name: "inception_4b/relu_1x1"
  type: "ReLU"
  bottom: "inception_4b/1x1"
  top: "inception_4b/1x1"
}
layer {
  name: "inception_4b/3x3_reduce"
  type: "Convolution"
  bottom: "inception_4a/output"
  top: "inception_4b/3x3_reduce"
  param {
    lr_mult: 1
    decay_mult: 1
  }
  param {
    lr_mult: 2
    decay_mult: 0
  }
  convolution_param {
    num_output: 112
    kernel_size: 1
    weight_filler {
      type: "xavier"
      std: 0.09
    }
    bias_filler {
      type: "constant"
      value: 0.2
    }
  }
}
layer {
  name: "inception_4b/relu_3x3_reduce"
  type: "ReLU"
  bottom: "inception_4b/3x3_reduce"
  top: "inception_4b/3x3_reduce"
}
layer {
  name: "inception_4b/3x3"
  type: "Convolution"
  bottom: "inception_4b/3x3_reduce"
  top: "inception_4b/3x3"
  param {
    lr_mult: 1
    decay_mult: 1
  }
  param {
    lr_mult: 2
    decay_mult: 0
  }
  convolution_param {
    num_output: 224
    pad: 1
    kernel_size: 3
    weight_filler {
      type: "xavier"
      std: 0.03
    }
    bias_filler {
      type: "constant"
      value: 0.2
    }
  }
}
layer {
  name: "inception_4b/relu_3x3"
  type: "ReLU"
  bottom: "inception_4b/3x3"
  top: "inception_4b/3x3"
}
layer {
  name: "inception_4b/5x5_reduce"
  type: "Convolution"
  bottom: "inception_4a/output"
  top: "inception_4b/5x5_reduce"
  param {
    lr_mult: 1
    decay_mult: 1
  }
  param {
    lr_mult: 2
    decay_mult: 0
  }
  convolution_param {
    num_output: 24
    kernel_size: 1
    weight_filler {
      type: "xavier"
      std: 0.2
    }
    bias_filler {
      type: "constant"
      value: 0.2
    }
  }
}
layer {
  name: "inception_4b/relu_5x5_reduce"
  type: "ReLU"
  bottom: "inception_4b/5x5_reduce"
  top: "inception_4b/5x5_reduce"
}
layer {
  name: "inception_4b/5x5"
  type: "Convolution"
  bottom: "inception_4b/5x5_reduce"
  top: "inception_4b/5x5"
  param {
    lr_mult: 1
    decay_mult: 1
  }
  param {
    lr_mult: 2
    decay_mult: 0
  }
  convolution_param {
    num_output: 64
    pad: 2
    kernel_size: 5
    weight_filler {
      type: "xavier"
      std: 0.03
    }
    bias_filler {
      type: "constant"
      value: 0.2
    }
  }
}
layer {
  name: "inception_4b/relu_5x5"
  type: "ReLU"
  bottom: "inception_4b/5x5"
  top: "inception_4b/5x5"
}
layer {
  name: "inception_4b/pool"
  type: "Pooling"
  bottom: "inception_4a/output"
  top: "inception_4b/pool"
  pooling_param {
    pool: MAX
    kernel_size: 3
    stride: 1
    pad: 1
  }
}
layer {
  name: "inception_4b/pool_proj"
  type: "Convolution"
  bottom: "inception_4b/pool"
  top: "inception_4b/pool_proj"
  param {
    lr_mult: 1
    decay_mult: 1
  }
  param {
    lr_mult: 2
    decay_mult: 0
  }
  convolution_param {
    num_output: 64
    kernel_size: 1
    weight_filler {
      type: "xavier"
      std: 0.1
    }
    bias_filler {
      type: "constant"
      value: 0.2
    }
  }
}
layer {
  name: "inception_4b/relu_pool_proj"
  type: "ReLU"
  bottom: "inception_4b/pool_proj"
  top: "inception_4b/pool_proj"
}
layer {
  name: "inception_4b/output"
  type: "Concat"
  bottom: "inception_4b/1x1"
  bottom: "inception_4b/3x3"
  bottom: "inception_4b/5x5"
  bottom: "inception_4b/pool_proj"
  top: "inception_4b/output"
}
layer {
  name: "inception_4c/1x1"
  type: "Convolution"
  bottom: "inception_4b/output"
  top: "inception_4c/1x1"
  param {
    lr_mult: 1
    decay_mult: 1
  }
  param {
    lr_mult: 2
    decay_mult: 0
  }
  convolution_param {
    num_output: 128
    kernel_size: 1
    weight_filler {
      type: "xavier"
      std: 0.03
    }
    bias_filler {
      type: "constant"
      value: 0.2
    }
  }
}
layer {
  name: "inception_4c/relu_1x1"
  type: "ReLU"
  bottom: "inception_4c/1x1"
  top: "inception_4c/1x1"
}
layer {
  name: "inception_4c/3x3_reduce"
  type: "Convolution"
  bottom: "inception_4b/output"
  top: "inception_4c/3x3_reduce"
  param {
    lr_mult: 1
    decay_mult: 1
  }
  param {
    lr_mult: 2
    decay_mult: 0
  }
  convolution_param {
    num_output: 128
    kernel_size: 1
    weight_filler {
      type: "xavier"
      std: 0.09
    }
    bias_filler {
      type: "constant"
      value: 0.2
    }
  }
}
layer {
  name: "inception_4c/relu_3x3_reduce"
  type: "ReLU"
  bottom: "inception_4c/3x3_reduce"
  top: "inception_4c/3x3_reduce"
}
layer {
  name: "inception_4c/3x3"
  type: "Convolution"
  bottom: "inception_4c/3x3_reduce"
  top: "inception_4c/3x3"
  param {
    lr_mult: 1
    decay_mult: 1
  }
  param {
    lr_mult: 2
    decay_mult: 0
  }
  convolution_param {
    num_output: 256
    pad: 1
    kernel_size: 3
    weight_filler {
      type: "xavier"
      std: 0.03
    }
    bias_filler {
      type: "constant"
      value: 0.2
    }
  }
}
layer {
  name: "inception_4c/relu_3x3"
  type: "ReLU"
  bottom: "inception_4c/3x3"
  top: "inception_4c/3x3"
}
layer {
  name: "inception_4c/5x5_reduce"
  type: "Convolution"
  bottom: "inception_4b/output"
  top: "inception_4c/5x5_reduce"
  param {
    lr_mult: 1
    decay_mult: 1
  }
  param {
    lr_mult: 2
    decay_mult: 0
  }
  convolution_param {
    num_output: 24
    kernel_size: 1
    weight_filler {
      type: "xavier"
      std: 0.2
    }
    bias_filler {
      type: "constant"
      value: 0.2
    }
  }
}
layer {
  name: "inception_4c/relu_5x5_reduce"
  type: "ReLU"
  bottom: "inception_4c/5x5_reduce"
  top: "inception_4c/5x5_reduce"
}
layer {
  name: "inception_4c/5x5"
  type: "Convolution"
  bottom: "inception_4c/5x5_reduce"
  top: "inception_4c/5x5"
  param {
    lr_mult: 1
    decay_mult: 1
  }
  param {
    lr_mult: 2
    decay_mult: 0
  }
  convolution_param {
    num_output: 64
    pad: 2
    kernel_size: 5
    weight_filler {
      type: "xavier"
      std: 0.03
    }
    bias_filler {
      type: "constant"
      value: 0.2
    }
  }
}
layer {
  name: "inception_4c/relu_5x5"
  type: "ReLU"
  bottom: "inception_4c/5x5"
  top: "inception_4c/5x5"
}
layer {
  name: "inception_4c/pool"
  type: "Pooling"
  bottom: "inception_4b/output"
  top: "inception_4c/pool"
  pooling_param {
    pool: MAX
    kernel_size: 3
    stride: 1
    pad: 1
  }
}
layer {
  name: "inception_4c/pool_proj"
  type: "Convolution"
  bottom: "inception_4c/pool"
  top: "inception_4c/pool_proj"
  param {
    lr_mult: 1
    decay_mult: 1
  }
  param {
    lr_mult: 2
    decay_mult: 0
  }
  convolution_param {
    num_output: 64
    kernel_size: 1
    weight_filler {
      type: "xavier"
      std: 0.1
    }
    bias_filler {
      type: "constant"
      value: 0.2
    }
  }
}
layer {
  name: "inception_4c/relu_pool_proj"
  type: "ReLU"
  bottom: "inception_4c/pool_proj"
  top: "inception_4c/pool_proj"
}
layer {
  name: "inception_4c/output"
  type: "Concat"
  bottom: "inception_4c/1x1"
  bottom: "inception_4c/3x3"
  bottom: "inception_4c/5x5"
  bottom: "inception_4c/pool_proj"
  top: "inception_4c/output"
}
layer {
  name: "inception_4d/1x1"
  type: "Convolution"
  bottom: "inception_4c/output"
  top: "inception_4d/1x1"
  param {
    lr_mult: 1
    decay_mult: 1
  }
  param {
    lr_mult: 2
    decay_mult: 0
  }
  convolution_param {
    num_output: 112
    kernel_size: 1
    weight_filler {
      type: "xavier"
      std: 0.03
    }
    bias_filler {
      type: "constant"
      value: 0.2
    }
  }
}
layer {
  name: "inception_4d/relu_1x1"
  type: "ReLU"
  bottom: "inception_4d/1x1"
  top: "inception_4d/1x1"
}
layer {
  name: "inception_4d/3x3_reduce"
  type: "Convolution"
  bottom: "inception_4c/output"
  top: "inception_4d/3x3_reduce"
  param {
    lr_mult: 1
    decay_mult: 1
  }
  param {
    lr_mult: 2
    decay_mult: 0
  }
  convolution_param {
    num_output: 144
    kernel_size: 1
    weight_filler {
      type: "xavier"
      std: 0.09
    }
    bias_filler {
      type: "constant"
      value: 0.2
    }
  }
}
layer {
  name: "inception_4d/relu_3x3_reduce"
  type: "ReLU"
  bottom: "inception_4d/3x3_reduce"
  top: "inception_4d/3x3_reduce"
}
layer {
  name: "inception_4d/3x3"
  type: "Convolution"
  bottom: "inception_4d/3x3_reduce"
  top: "inception_4d/3x3"
  param {
    lr_mult: 1
    decay_mult: 1
  }
  param {
    lr_mult: 2
    decay_mult: 0
  }
  convolution_param {
    num_output: 288
    pad: 1
    kernel_size: 3
    weight_filler {
      type: "xavier"
      std: 0.03
    }
    bias_filler {
      type: "constant"
      value: 0.2
    }
  }
}
layer {
  name: "inception_4d/relu_3x3"
  type: "ReLU"
  bottom: "inception_4d/3x3"
  top: "inception_4d/3x3"
}
layer {
  name: "inception_4d/5x5_reduce"
  type: "Convolution"
  bottom: "inception_4c/output"
  top: "inception_4d/5x5_reduce"
  param {
    lr_mult: 1
    decay_mult: 1
  }
  param {
    lr_mult: 2
    decay_mult: 0
  }
  convolution_param {
    num_output: 32
    kernel_size: 1
    weight_filler {
      type: "xavier"
      std: 0.2
    }
    bias_filler {
      type: "constant"
      value: 0.2
    }
  }
}
layer {
  name: "inception_4d/relu_5x5_reduce"
  type: "ReLU"
  bottom: "inception_4d/5x5_reduce"
  top: "inception_4d/5x5_reduce"
}
layer {
  name: "inception_4d/5x5"
  type: "Convolution"
  bottom: "inception_4d/5x5_reduce"
  top: "inception_4d/5x5"
  param {
    lr_mult: 1
    decay_mult: 1
  }
  param {
    lr_mult: 2
    decay_mult: 0
  }
  convolution_param {
    num_output: 64
    pad: 2
    kernel_size: 5
    weight_filler {
      type: "xavier"
      std: 0.03
    }
    bias_filler {
      type: "constant"
      value: 0.2
    }
  }
}
layer {
  name: "inception_4d/relu_5x5"
  type: "ReLU"
  bottom: "inception_4d/5x5"
  top: "inception_4d/5x5"
}
layer {
  name: "inception_4d/pool"
  type: "Pooling"
  bottom: "inception_4c/output"
  top: "inception_4d/pool"
  pooling_param {
    pool: MAX
    kernel_size: 3
    stride: 1
    pad: 1
  }
}
layer {
  name: "inception_4d/pool_proj"
  type: "Convolution"
  bottom: "inception_4d/pool"
  top: "inception_4d/pool_proj"
  param {
    lr_mult: 1
    decay_mult: 1
  }
  param {
    lr_mult: 2
    decay_mult: 0
  }
  convolution_param {
    num_output: 64
    kernel_size: 1
    weight_filler {
      type: "xavier"
      std: 0.1
    }
    bias_filler {
      type: "constant"
      value: 0.2
    }
  }
}
layer {
  name: "inception_4d/relu_pool_proj"
  type: "ReLU"
  bottom: "inception_4d/pool_proj"
  top: "inception_4d/pool_proj"
}
layer {
  name: "inception_4d/output"
  type: "Concat"
  bottom: "inception_4d/1x1"
  bottom: "inception_4d/3x3"
  bottom: "inception_4d/5x5"
  bottom: "inception_4d/pool_proj"
  top: "inception_4d/output"
}
layer {
  name: "inception_4e/1x1"
  type: "Convolution"
  bottom: "inception_4d/output"
  top: "inception_4e/1x1"
  param {
    lr_mult: 1
    decay_mult: 1
  }
  param {
    lr_mult: 2
    decay_mult: 0
  }
  convolution_param {
    num_output: 256
    kernel_size: 1
    weight_filler {
      type: "xavier"
      std: 0.03
    }
    bias_filler {
      type: "constant"
      value: 0.2
    }
  }
}
layer {
  name: "inception_4e/relu_1x1"
  type: "ReLU"
  bottom: "inception_4e/1x1"
  top: "inception_4e/1x1"
}
layer {
  name: "inception_4e/3x3_reduce"
  type: "Convolution"
  bottom: "inception_4d/output"
  top: "inception_4e/3x3_reduce"
  param {
    lr_mult: 1
    decay_mult: 1
  }
  param {
    lr_mult: 2
    decay_mult: 0
  }
  convolution_param {
    num_output: 160
    kernel_size: 1
    weight_filler {
      type: "xavier"
      std: 0.09
    }
    bias_filler {
      type: "constant"
      value: 0.2
    }
  }
}
layer {
  name: "inception_4e/relu_3x3_reduce"
  type: "ReLU"
  bottom: "inception_4e/3x3_reduce"
  top: "inception_4e/3x3_reduce"
}
layer {
  name: "inception_4e/3x3"
  type: "Convolution"
  bottom: "inception_4e/3x3_reduce"
  top: "inception_4e/3x3"
  param {
    lr_mult: 1
    decay_mult: 1
  }
  param {
    lr_mult: 2
    decay_mult: 0
  }
  convolution_param {
    num_output: 320
    pad: 1
    kernel_size: 3
    weight_filler {
      type: "xavier"
      std: 0.03
    }
    bias_filler {
      type: "constant"
      value: 0.2
    }
  }
}
layer {
  name: "inception_4e/relu_3x3"
  type: "ReLU"
  bottom: "inception_4e/3x3"
  top: "inception_4e/3x3"
}
layer {
  name: "inception_4e/5x5_reduce"
  type: "Convolution"
  bottom: "inception_4d/output"
  top: "inception_4e/5x5_reduce"
  param {
    lr_mult: 1
    decay_mult: 1
  }
  param {
    lr_mult: 2
    decay_mult: 0
  }
  convolution_param {
    num_output: 32
    kernel_size: 1
    weight_filler {
      type: "xavier"
      std: 0.2
    }
    bias_filler {
      type: "constant"
      value: 0.2
    }
  }
}
layer {
  name: "inception_4e/relu_5x5_reduce"
  type: "ReLU"
  bottom: "inception_4e/5x5_reduce"
  top: "inception_4e/5x5_reduce"
}
layer {
  name: "inception_4e/5x5"
  type: "Convolution"
  bottom: "inception_4e/5x5_reduce"
  top: "inception_4e/5x5"
  param {
    lr_mult: 1
    decay_mult: 1
  }
  param {
    lr_mult: 2
    decay_mult: 0
  }
  convolution_param {
    num_output: 128
    pad: 2
    kernel_size: 5
    weight_filler {
      type: "xavier"
      std: 0.03
    }
    bias_filler {
      type: "constant"
      value: 0.2
    }
  }
}
layer {
  name: "inception_4e/relu_5x5"
  type: "ReLU"
  bottom: "inception_4e/5x5"
  top: "inception_4e/5x5"
}
layer {
  name: "inception_4e/pool"
  type: "Pooling"
  bottom: "inception_4d/output"
  top: "inception_4e/pool"
  pooling_param {
    pool: MAX
    kernel_size: 3
    stride: 1
    pad: 1
  }
}
layer {
  name: "inception_4e/pool_proj"
  type: "Convolution"
  bottom: "inception_4e/pool"
  top: "inception_4e/pool_proj"
  param {
    lr_mult: 1
    decay_mult: 1
  }
  param {
    lr_mult: 2
    decay_mult: 0
  }
  convolution_param {
    num_output: 128
    kernel_size: 1
    weight_filler {
      type: "xavier"
      std: 0.1
    }
    bias_filler {
      type: "constant"
      value: 0.2
    }
  }
}
layer {
  name: "inception_4e/relu_pool_proj"
  type: "ReLU"
  bottom: "inception_4e/pool_proj"
  top: "inception_4e/pool_proj"
}
layer {
  name: "inception_4e/output"
  type: "Concat"
  bottom: "inception_4e/1x1"
  bottom: "inception_4e/3x3"
  bottom: "inception_4e/5x5"
  bottom: "inception_4e/pool_proj"
  top: "inception_4e/output"
}
layer {
  name: "pool4/3x3_s2"
  type: "Pooling"
  bottom: "inception_4e/output"
  top: "pool4/3x3_s2"
  pooling_param {
    pool: MAX
    kernel_size: 3
    stride: 2
  }
}
layer {
  name: "inception_5a/1x1"
  type: "Convolution"
  bottom: "pool4/3x3_s2"
  top: "inception_5a/1x1"
  param {
    lr_mult: 1
    decay_mult: 1
  }
  param {
    lr_mult: 2
    decay_mult: 0
  }
  convolution_param {
    num_output: 256
    kernel_size: 1
    weight_filler {
      type: "xavier"
      std: 0.03
    }
    bias_filler {
      type: "constant"
      value: 0.2
    }
  }
}
layer {
  name: "inception_5a/relu_1x1"
  type: "ReLU"
  bottom: "inception_5a/1x1"
  top: "inception_5a/1x1"
}
layer {
  name: "inception_5a/3x3_reduce"
  type: "Convolution"
  bottom: "pool4/3x3_s2"
  top: "inception_5a/3x3_reduce"
  param {
    lr_mult: 1
    decay_mult: 1
  }
  param {
    lr_mult: 2
    decay_mult: 0
  }
  convolution_param {
    num_output: 160
    kernel_size: 1
    weight_filler {
      type: "xavier"
      std: 0.09
    }
    bias_filler {
      type: "constant"
      value: 0.2
    }
  }
}
layer {
  name: "inception_5a/relu_3x3_reduce"
  type: "ReLU"
  bottom: "inception_5a/3x3_reduce"
  top: "inception_5a/3x3_reduce"
}
layer {
  name: "inception_5a/3x3"
  type: "Convolution"
  bottom: "inception_5a/3x3_reduce"
  top: "inception_5a/3x3"
  param {
    lr_mult: 1
    decay_mult: 1
  }
  param {
    lr_mult: 2
    decay_mult: 0
  }
  convolution_param {
    num_output: 320
    pad: 1
    kernel_size: 3
    weight_filler {
      type: "xavier"
      std: 0.03
    }
    bias_filler {
      type: "constant"
      value: 0.2
    }
  }
}
layer {
  name: "inception_5a/relu_3x3"
  type: "ReLU"
  bottom: "inception_5a/3x3"
  top: "inception_5a/3x3"
}
layer {
  name: "inception_5a/5x5_reduce"
  type: "Convolution"
  bottom: "pool4/3x3_s2"
  top: "inception_5a/5x5_reduce"
  param {
    lr_mult: 1
    decay_mult: 1
  }
  param {
    lr_mult: 2
    decay_mult: 0
  }
  convolution_param {
    num_output: 32
    kernel_size: 1
    weight_filler {
      type: "xavier"
      std: 0.2
    }
    bias_filler {
      type: "constant"
      value: 0.2
    }
  }
}
layer {
  name: "inception_5a/relu_5x5_reduce"
  type: "ReLU"
  bottom: "inception_5a/5x5_reduce"
  top: "inception_5a/5x5_reduce"
}
layer {
  name: "inception_5a/5x5"
  type: "Convolution"
  bottom: "inception_5a/5x5_reduce"
  top: "inception_5a/5x5"
  param {
    lr_mult: 1
    decay_mult: 1
  }
  param {
    lr_mult: 2
    decay_mult: 0
  }
  convolution_param {
    num_output: 128
    pad: 2
    kernel_size: 5
    weight_filler {
      type: "xavier"
      std: 0.03
    }
    bias_filler 
I1012 21:07:00.004073 15992 net.cpp:435] Input 0 -> data
I1012 21:07:00.004307 15992 layer_factory.hpp:76] Creating layer conv1/7x7_s2
I1012 21:07:00.004324 15992 net.cpp:110] Creating Layer conv1/7x7_s2
I1012 21:07:00.004328 15992 net.cpp:477] conv1/7x7_s2 <- data
I1012 21:07:00.004334 15992 net.cpp:433] conv1/7x7_s2 -> conv1/7x7_s2
I1012 21:07:00.005134 15992 net.cpp:155] Setting up conv1/7x7_s2
I1012 21:07:00.005146 15992 net.cpp:163] Top shape: 128 64 112 112 (102760448)
I1012 21:07:00.005157 15992 layer_factory.hpp:76] Creating layer conv1/relu_7x7
I1012 21:07:00.005163 15992 net.cpp:110] Creating Layer conv1/relu_7x7
I1012 21:07:00.005167 15992 net.cpp:477] conv1/relu_7x7 <- conv1/7x7_s2
I1012 21:07:00.005170 15992 net.cpp:419] conv1/relu_7x7 -> conv1/7x7_s2 (in-place)
I1012 21:07:00.005178 15992 net.cpp:155] Setting up conv1/relu_7x7
I1012 21:07:00.005182 15992 net.cpp:163] Top shape: 128 64 112 112 (102760448)
I1012 21:07:00.005185 15992 layer_factory.hpp:76] Creating layer pool1/3x3_s2
I1012 21:07:00.005190 15992 net.cpp:110] Creating Layer pool1/3x3_s2
I1012 21:07:00.005193 15992 net.cpp:477] pool1/3x3_s2 <- conv1/7x7_s2
I1012 21:07:00.005198 15992 net.cpp:433] pool1/3x3_s2 -> pool1/3x3_s2
I1012 21:07:00.005208 15992 net.cpp:155] Setting up pool1/3x3_s2
I1012 21:07:00.005223 15992 net.cpp:163] Top shape: 128 64 56 56 (25690112)
I1012 21:07:00.005239 15992 layer_factory.hpp:76] Creating layer conv2/3x3_reduce
I1012 21:07:00.005244 15992 net.cpp:110] Creating Layer conv2/3x3_reduce
I1012 21:07:00.005249 15992 net.cpp:477] conv2/3x3_reduce <- pool1/3x3_s2
I1012 21:07:00.005252 15992 net.cpp:433] conv2/3x3_reduce -> conv2/3x3_reduce
I1012 21:07:00.005288 15992 net.cpp:155] Setting up conv2/3x3_reduce
I1012 21:07:00.005293 15992 net.cpp:163] Top shape: 128 64 56 56 (25690112)
I1012 21:07:00.005300 15992 layer_factory.hpp:76] Creating layer conv2/relu_3x3_reduce
I1012 21:07:00.005306 15992 net.cpp:110] Creating Layer conv2/relu_3x3_reduce
I1012 21:07:00.005308 15992 net.cpp:477] conv2/relu_3x3_reduce <- conv2/3x3_reduce
I1012 21:07:00.005312 15992 net.cpp:419] conv2/relu_3x3_reduce -> conv2/3x3_reduce (in-place)
I1012 21:07:00.005316 15992 net.cpp:155] Setting up conv2/relu_3x3_reduce
I1012 21:07:00.005321 15992 net.cpp:163] Top shape: 128 64 56 56 (25690112)
I1012 21:07:00.005323 15992 layer_factory.hpp:76] Creating layer conv2/3x3
I1012 21:07:00.005328 15992 net.cpp:110] Creating Layer conv2/3x3
I1012 21:07:00.005336 15992 net.cpp:477] conv2/3x3 <- conv2/3x3_reduce
I1012 21:07:00.005341 15992 net.cpp:433] conv2/3x3 -> conv2/3x3
I1012 21:07:00.005869 15992 net.cpp:155] Setting up conv2/3x3
I1012 21:07:00.005877 15992 net.cpp:163] Top shape: 128 192 56 56 (77070336)
I1012 21:07:00.005882 15992 layer_factory.hpp:76] Creating layer conv2/relu_3x3
I1012 21:07:00.005887 15992 net.cpp:110] Creating Layer conv2/relu_3x3
I1012 21:07:00.005889 15992 net.cpp:477] conv2/relu_3x3 <- conv2/3x3
I1012 21:07:00.005893 15992 net.cpp:419] conv2/relu_3x3 -> conv2/3x3 (in-place)
I1012 21:07:00.005898 15992 net.cpp:155] Setting up conv2/relu_3x3
I1012 21:07:00.005902 15992 net.cpp:163] Top shape: 128 192 56 56 (77070336)
I1012 21:07:00.005904 15992 layer_factory.hpp:76] Creating layer pool2/3x3_s2
I1012 21:07:00.005908 15992 net.cpp:110] Creating Layer pool2/3x3_s2
I1012 21:07:00.005911 15992 net.cpp:477] pool2/3x3_s2 <- conv2/3x3
I1012 21:07:00.005915 15992 net.cpp:433] pool2/3x3_s2 -> pool2/3x3_s2
I1012 21:07:00.005921 15992 net.cpp:155] Setting up pool2/3x3_s2
I1012 21:07:00.005925 15992 net.cpp:163] Top shape: 128 192 28 28 (19267584)
I1012 21:07:00.005928 15992 layer_factory.hpp:76] Creating layer pool2/3x3_s2_pool2/3x3_s2_0_split
I1012 21:07:00.005934 15992 net.cpp:110] Creating Layer pool2/3x3_s2_pool2/3x3_s2_0_split
I1012 21:07:00.005935 15992 net.cpp:477] pool2/3x3_s2_pool2/3x3_s2_0_split <- pool2/3x3_s2
I1012 21:07:00.005939 15992 net.cpp:433] pool2/3x3_s2_pool2/3x3_s2_0_split -> pool2/3x3_s2_pool2/3x3_s2_0_split_0
I1012 21:07:00.005944 15992 net.cpp:433] pool2/3x3_s2_pool2/3x3_s2_0_split -> pool2/3x3_s2_pool2/3x3_s2_0_split_1
I1012 21:07:00.005949 15992 net.cpp:433] pool2/3x3_s2_pool2/3x3_s2_0_split -> pool2/3x3_s2_pool2/3x3_s2_0_split_2
I1012 21:07:00.005954 15992 net.cpp:433] pool2/3x3_s2_pool2/3x3_s2_0_split -> pool2/3x3_s2_pool2/3x3_s2_0_split_3
I1012 21:07:00.005960 15992 net.cpp:155] Setting up pool2/3x3_s2_pool2/3x3_s2_0_split
I1012 21:07:00.005964 15992 net.cpp:163] Top shape: 128 192 28 28 (19267584)
I1012 21:07:00.005967 15992 net.cpp:163] Top shape: 128 192 28 28 (19267584)
I1012 21:07:00.005970 15992 net.cpp:163] Top shape: 128 192 28 28 (19267584)
I1012 21:07:00.005975 15992 net.cpp:163] Top shape: 128 192 28 28 (19267584)
I1012 21:07:00.005977 15992 layer_factory.hpp:76] Creating layer inception_3a/1x1
I1012 21:07:00.005981 15992 net.cpp:110] Creating Layer inception_3a/1x1
I1012 21:07:00.005985 15992 net.cpp:477] inception_3a/1x1 <- pool2/3x3_s2_pool2/3x3_s2_0_split_0
I1012 21:07:00.005991 15992 net.cpp:433] inception_3a/1x1 -> inception_3a/1x1
I1012 21:07:00.006060 15992 net.cpp:155] Setting up inception_3a/1x1
I1012 21:07:00.006064 15992 net.cpp:163] Top shape: 128 64 28 28 (6422528)
I1012 21:07:00.006069 15992 layer_factory.hpp:76] Creating layer inception_3a/relu_1x1
I1012 21:07:00.006073 15992 net.cpp:110] Creating Layer inception_3a/relu_1x1
I1012 21:07:00.006077 15992 net.cpp:477] inception_3a/relu_1x1 <- inception_3a/1x1
I1012 21:07:00.006080 15992 net.cpp:419] inception_3a/relu_1x1 -> inception_3a/1x1 (in-place)
I1012 21:07:00.006084 15992 net.cpp:155] Setting up inception_3a/relu_1x1
I1012 21:07:00.006088 15992 net.cpp:163] Top shape: 128 64 28 28 (6422528)
I1012 21:07:00.006091 15992 layer_factory.hpp:76] Creating layer inception_3a/3x3_reduce
I1012 21:07:00.006095 15992 net.cpp:110] Creating Layer inception_3a/3x3_reduce
I1012 21:07:00.006098 15992 net.cpp:477] inception_3a/3x3_reduce <- pool2/3x3_s2_pool2/3x3_s2_0_split_1
I1012 21:07:00.006103 15992 net.cpp:433] inception_3a/3x3_reduce -> inception_3a/3x3_reduce
I1012 21:07:00.006120 15992 net.cpp:155] Setting up inception_3a/3x3_reduce
I1012 21:07:00.006125 15992 net.cpp:163] Top shape: 128 96 28 28 (9633792)
I1012 21:07:00.006131 15992 layer_factory.hpp:76] Creating layer inception_3a/relu_3x3_reduce
I1012 21:07:00.006135 15992 net.cpp:110] Creating Layer inception_3a/relu_3x3_reduce
I1012 21:07:00.006139 15992 net.cpp:477] inception_3a/relu_3x3_reduce <- inception_3a/3x3_reduce
I1012 21:07:00.006142 15992 net.cpp:419] inception_3a/relu_3x3_reduce -> inception_3a/3x3_reduce (in-place)
I1012 21:07:00.006150 15992 net.cpp:155] Setting up inception_3a/relu_3x3_reduce
I1012 21:07:00.006155 15992 net.cpp:163] Top shape: 128 96 28 28 (9633792)
I1012 21:07:00.006157 15992 layer_factory.hpp:76] Creating layer inception_3a/3x3
I1012 21:07:00.006161 15992 net.cpp:110] Creating Layer inception_3a/3x3
I1012 21:07:00.006165 15992 net.cpp:477] inception_3a/3x3 <- inception_3a/3x3_reduce
I1012 21:07:00.006170 15992 net.cpp:433] inception_3a/3x3 -> inception_3a/3x3
I1012 21:07:00.006753 15992 net.cpp:155] Setting up inception_3a/3x3
I1012 21:07:00.006759 15992 net.cpp:163] Top shape: 128 128 28 28 (12845056)
I1012 21:07:00.006764 15992 layer_factory.hpp:76] Creating layer inception_3a/relu_3x3
I1012 21:07:00.006768 15992 net.cpp:110] Creating Layer inception_3a/relu_3x3
I1012 21:07:00.006772 15992 net.cpp:477] inception_3a/relu_3x3 <- inception_3a/3x3
I1012 21:07:00.006775 15992 net.cpp:419] inception_3a/relu_3x3 -> inception_3a/3x3 (in-place)
I1012 21:07:00.006780 15992 net.cpp:155] Setting up inception_3a/relu_3x3
I1012 21:07:00.006783 15992 net.cpp:163] Top shape: 128 128 28 28 (12845056)
I1012 21:07:00.006786 15992 layer_factory.hpp:76] Creating layer inception_3a/5x5_reduce
I1012 21:07:00.006790 15992 net.cpp:110] Creating Layer inception_3a/5x5_reduce
I1012 21:07:00.006793 15992 net.cpp:477] inception_3a/5x5_reduce <- pool2/3x3_s2_pool2/3x3_s2_0_split_2
I1012 21:07:00.006798 15992 net.cpp:433] inception_3a/5x5_reduce -> inception_3a/5x5_reduce
I1012 21:07:00.006824 15992 net.cpp:155] Setting up inception_3a/5x5_reduce
I1012 21:07:00.006829 15992 net.cpp:163] Top shape: 128 16 28 28 (1605632)
I1012 21:07:00.006834 15992 layer_factory.hpp:76] Creating layer inception_3a/relu_5x5_reduce
I1012 21:07:00.006839 15992 net.cpp:110] Creating Layer inception_3a/relu_5x5_reduce
I1012 21:07:00.006841 15992 net.cpp:477] inception_3a/relu_5x5_reduce <- inception_3a/5x5_reduce
I1012 21:07:00.006845 15992 net.cpp:419] inception_3a/relu_5x5_reduce -> inception_3a/5x5_reduce (in-place)
I1012 21:07:00.006850 15992 net.cpp:155] Setting up inception_3a/relu_5x5_reduce
I1012 21:07:00.006853 15992 net.cpp:163] Top shape: 128 16 28 28 (1605632)
I1012 21:07:00.006855 15992 layer_factory.hpp:76] Creating layer inception_3a/5x5
I1012 21:07:00.006860 15992 net.cpp:110] Creating Layer inception_3a/5x5
I1012 21:07:00.006863 15992 net.cpp:477] inception_3a/5x5 <- inception_3a/5x5_reduce
I1012 21:07:00.006867 15992 net.cpp:433] inception_3a/5x5 -> inception_3a/5x5
I1012 21:07:00.006937 15992 net.cpp:155] Setting up inception_3a/5x5
I1012 21:07:00.006942 15992 net.cpp:163] Top shape: 128 32 28 28 (3211264)
I1012 21:07:00.006945 15992 layer_factory.hpp:76] Creating layer inception_3a/relu_5x5
I1012 21:07:00.006949 15992 net.cpp:110] Creating Layer inception_3a/relu_5x5
I1012 21:07:00.006953 15992 net.cpp:477] inception_3a/relu_5x5 <- inception_3a/5x5
I1012 21:07:00.006956 15992 net.cpp:419] inception_3a/relu_5x5 -> inception_3a/5x5 (in-place)
I1012 21:07:00.006960 15992 net.cpp:155] Setting up inception_3a/relu_5x5
I1012 21:07:00.006964 15992 net.cpp:163] Top shape: 128 32 28 28 (3211264)
I1012 21:07:00.006966 15992 layer_factory.hpp:76] Creating layer inception_3a/pool
I1012 21:07:00.006970 15992 net.cpp:110] Creating Layer inception_3a/pool
I1012 21:07:00.006973 15992 net.cpp:477] inception_3a/pool <- pool2/3x3_s2_pool2/3x3_s2_0_split_3
I1012 21:07:00.006978 15992 net.cpp:433] inception_3a/pool -> inception_3a/pool
I1012 21:07:00.006983 15992 net.cpp:155] Setting up inception_3a/pool
I1012 21:07:00.006988 15992 net.cpp:163] Top shape: 128 192 28 28 (19267584)
I1012 21:07:00.006990 15992 layer_factory.hpp:76] Creating layer inception_3a/pool_proj
I1012 21:07:00.006994 15992 net.cpp:110] Creating Layer inception_3a/pool_proj
I1012 21:07:00.006997 15992 net.cpp:477] inception_3a/pool_proj <- inception_3a/pool
I1012 21:07:00.007002 15992 net.cpp:433] inception_3a/pool_proj -> inception_3a/pool_proj
I1012 21:07:00.007045 15992 net.cpp:155] Setting up inception_3a/pool_proj
I1012 21:07:00.007050 15992 net.cpp:163] Top shape: 128 32 28 28 (3211264)
I1012 21:07:00.007061 15992 layer_factory.hpp:76] Creating layer inception_3a/relu_pool_proj
I1012 21:07:00.007064 15992 net.cpp:110] Creating Layer inception_3a/relu_pool_proj
I1012 21:07:00.007067 15992 net.cpp:477] inception_3a/relu_pool_proj <- inception_3a/pool_proj
I1012 21:07:00.007071 15992 net.cpp:419] inception_3a/relu_pool_proj -> inception_3a/pool_proj (in-place)
I1012 21:07:00.007076 15992 net.cpp:155] Setting up inception_3a/relu_pool_proj
I1012 21:07:00.007079 15992 net.cpp:163] Top shape: 128 32 28 28 (3211264)
I1012 21:07:00.007082 15992 layer_factory.hpp:76] Creating layer inception_3a/output
I1012 21:07:00.007302 15992 net.cpp:110] Creating Layer inception_3a/output
I1012 21:07:00.007309 15992 net.cpp:477] inception_3a/output <- inception_3a/1x1
I1012 21:07:00.007313 15992 net.cpp:477] inception_3a/output <- inception_3a/3x3
I1012 21:07:00.007316 15992 net.cpp:477] inception_3a/output <- inception_3a/5x5
I1012 21:07:00.007319 15992 net.cpp:477] inception_3a/output <- inception_3a/pool_proj
I1012 21:07:00.007323 15992 net.cpp:433] inception_3a/output -> inception_3a/output
I1012 21:07:00.007330 15992 net.cpp:155] Setting up inception_3a/output
I1012 21:07:00.007334 15992 net.cpp:163] Top shape: 128 256 28 28 (25690112)
I1012 21:07:00.007338 15992 layer_factory.hpp:76] Creating layer inception_3a/output_inception_3a/output_0_split
I1012 21:07:00.007341 15992 net.cpp:110] Creating Layer inception_3a/output_inception_3a/output_0_split
I1012 21:07:00.007344 15992 net.cpp:477] inception_3a/output_inception_3a/output_0_split <- inception_3a/output
I1012 21:07:00.007349 15992 net.cpp:433] inception_3a/output_inception_3a/output_0_split -> inception_3a/output_inception_3a/output_0_split_0
I1012 21:07:00.007354 15992 net.cpp:433] inception_3a/output_inception_3a/output_0_split -> inception_3a/output_inception_3a/output_0_split_1
I1012 21:07:00.007359 15992 net.cpp:433] inception_3a/output_inception_3a/output_0_split -> inception_3a/output_inception_3a/output_0_split_2
I1012 21:07:00.007362 15992 net.cpp:433] inception_3a/output_inception_3a/output_0_split -> inception_3a/output_inception_3a/output_0_split_3
I1012 21:07:00.007374 15992 net.cpp:155] Setting up inception_3a/output_inception_3a/output_0_split
I1012 21:07:00.007377 15992 net.cpp:163] Top shape: 128 256 28 28 (25690112)
I1012 21:07:00.007380 15992 net.cpp:163] Top shape: 128 256 28 28 (25690112)
I1012 21:07:00.007385 15992 net.cpp:163] Top shape: 128 256 28 28 (25690112)
I1012 21:07:00.007387 15992 net.cpp:163] Top shape: 128 256 28 28 (25690112)
I1012 21:07:00.007390 15992 layer_factory.hpp:76] Creating layer inception_3b/1x1
I1012 21:07:00.007395 15992 net.cpp:110] Creating Layer inception_3b/1x1
I1012 21:07:00.007398 15992 net.cpp:477] inception_3b/1x1 <- inception_3a/output_inception_3a/output_0_split_0
I1012 21:07:00.007402 15992 net.cpp:433] inception_3b/1x1 -> inception_3b/1x1
I1012 21:07:00.007597 15992 net.cpp:155] Setting up inception_3b/1x1
I1012 21:07:00.007603 15992 net.cpp:163] Top shape: 128 128 28 28 (12845056)
I1012 21:07:00.007608 15992 layer_factory.hpp:76] Creating layer inception_3b/relu_1x1
I1012 21:07:00.007612 15992 net.cpp:110] Creating Layer inception_3b/relu_1x1
I1012 21:07:00.007616 15992 net.cpp:477] inception_3b/relu_1x1 <- inception_3b/1x1
I1012 21:07:00.007619 15992 net.cpp:419] inception_3b/relu_1x1 -> inception_3b/1x1 (in-place)
I1012 21:07:00.007624 15992 net.cpp:155] Setting up inception_3b/relu_1x1
I1012 21:07:00.007628 15992 net.cpp:163] Top shape: 128 128 28 28 (12845056)
I1012 21:07:00.007630 15992 layer_factory.hpp:76] Creating layer inception_3b/3x3_reduce
I1012 21:07:00.007635 15992 net.cpp:110] Creating Layer inception_3b/3x3_reduce
I1012 21:07:00.007638 15992 net.cpp:477] inception_3b/3x3_reduce <- inception_3a/output_inception_3a/output_0_split_1
I1012 21:07:00.007642 15992 net.cpp:433] inception_3b/3x3_reduce -> inception_3b/3x3_reduce
I1012 21:07:00.007851 15992 net.cpp:155] Setting up inception_3b/3x3_reduce
I1012 21:07:00.007858 15992 net.cpp:163] Top shape: 128 128 28 28 (12845056)
I1012 21:07:00.007866 15992 layer_factory.hpp:76] Creating layer inception_3b/relu_3x3_reduce
I1012 21:07:00.007870 15992 net.cpp:110] Creating Layer inception_3b/relu_3x3_reduce
I1012 21:07:00.007874 15992 net.cpp:477] inception_3b/relu_3x3_reduce <- inception_3b/3x3_reduce
I1012 21:07:00.007879 15992 net.cpp:419] inception_3b/relu_3x3_reduce -> inception_3b/3x3_reduce (in-place)
I1012 21:07:00.007884 15992 net.cpp:155] Setting up inception_3b/relu_3x3_reduce
I1012 21:07:00.007886 15992 net.cpp:163] Top shape: 128 128 28 28 (12845056)
I1012 21:07:00.007889 15992 layer_factory.hpp:76] Creating layer inception_3b/3x3
I1012 21:07:00.007895 15992 net.cpp:110] Creating Layer inception_3b/3x3
I1012 21:07:00.007899 15992 net.cpp:477] inception_3b/3x3 <- inception_3b/3x3_reduce
I1012 21:07:00.007904 15992 net.cpp:433] inception_3b/3x3 -> inception_3b/3x3
I1012 21:07:00.009122 15992 net.cpp:155] Setting up inception_3b/3x3
I1012 21:07:00.009130 15992 net.cpp:163] Top shape: 128 192 28 28 (19267584)
I1012 21:07:00.009133 15992 layer_factory.hpp:76] Creating layer inception_3b/relu_3x3
I1012 21:07:00.009137 15992 net.cpp:110] Creating Layer inception_3b/relu_3x3
I1012 21:07:00.009140 15992 net.cpp:477] inception_3b/relu_3x3 <- inception_3b/3x3
I1012 21:07:00.009145 15992 net.cpp:419] inception_3b/relu_3x3 -> inception_3b/3x3 (in-place)
I1012 21:07:00.009150 15992 net.cpp:155] Setting up inception_3b/relu_3x3
I1012 21:07:00.009152 15992 net.cpp:163] Top shape: 128 192 28 28 (19267584)
I1012 21:07:00.009155 15992 layer_factory.hpp:76] Creating layer inception_3b/5x5_reduce
I1012 21:07:00.009160 15992 net.cpp:110] Creating Layer inception_3b/5x5_reduce
I1012 21:07:00.009163 15992 net.cpp:477] inception_3b/5x5_reduce <- inception_3a/output_inception_3a/output_0_split_2
I1012 21:07:00.009169 15992 net.cpp:433] inception_3b/5x5_reduce -> inception_3b/5x5_reduce
I1012 21:07:00.009238 15992 net.cpp:155] Setting up inception_3b/5x5_reduce
I1012 21:07:00.009248 15992 net.cpp:163] Top shape: 128 32 28 28 (3211264)
I1012 21:07:00.009253 15992 layer_factory.hpp:76] Creating layer inception_3b/relu_5x5_reduce
I1012 21:07:00.009256 15992 net.cpp:110] Creating Layer inception_3b/relu_5x5_reduce
I1012 21:07:00.009259 15992 net.cpp:477] inception_3b/relu_5x5_reduce <- inception_3b/5x5_reduce
I1012 21:07:00.009263 15992 net.cpp:419] inception_3b/relu_5x5_reduce -> inception_3b/5x5_reduce (in-place)
I1012 21:07:00.009268 15992 net.cpp:155] Setting up inception_3b/relu_5x5_reduce
I1012 21:07:00.009271 15992 net.cpp:163] Top shape: 128 32 28 28 (3211264)
I1012 21:07:00.009274 15992 layer_factory.hpp:76] Creating layer inception_3b/5x5
I1012 21:07:00.009282 15992 net.cpp:110] Creating Layer inception_3b/5x5
I1012 21:07:00.009285 15992 net.cpp:477] inception_3b/5x5 <- inception_3b/5x5_reduce
I1012 21:07:00.009290 15992 net.cpp:433] inception_3b/5x5 -> inception_3b/5x5
I1012 21:07:00.009721 15992 net.cpp:155] Setting up inception_3b/5x5
I1012 21:07:00.009728 15992 net.cpp:163] Top shape: 128 96 28 28 (9633792)
I1012 21:07:00.009733 15992 layer_factory.hpp:76] Creating layer inception_3b/relu_5x5
I1012 21:07:00.009737 15992 net.cpp:110] Creating Layer inception_3b/relu_5x5
I1012 21:07:00.009740 15992 net.cpp:477] inception_3b/relu_5x5 <- inception_3b/5x5
I1012 21:07:00.009743 15992 net.cpp:419] inception_3b/relu_5x5 -> inception_3b/5x5 (in-place)
I1012 21:07:00.009747 15992 net.cpp:155] Setting up inception_3b/relu_5x5
I1012 21:07:00.009752 15992 net.cpp:163] Top shape: 128 96 28 28 (9633792)
I1012 21:07:00.009754 15992 layer_factory.hpp:76] Creating layer inception_3b/pool
I1012 21:07:00.009758 15992 net.cpp:110] Creating Layer inception_3b/pool
I1012 21:07:00.009762 15992 net.cpp:477] inception_3b/pool <- inception_3a/output_inception_3a/output_0_split_3
I1012 21:07:00.009766 15992 net.cpp:433] inception_3b/pool -> inception_3b/pool
I1012 21:07:00.009773 15992 net.cpp:155] Setting up inception_3b/pool
I1012 21:07:00.009776 15992 net.cpp:163] Top shape: 128 256 28 28 (25690112)
I1012 21:07:00.009779 15992 layer_factory.hpp:76] Creating layer inception_3b/pool_proj
I1012 21:07:00.009788 15992 net.cpp:110] Creating Layer inception_3b/pool_proj
I1012 21:07:00.009791 15992 net.cpp:477] inception_3b/pool_proj <- inception_3b/pool
I1012 21:07:00.009795 15992 net.cpp:433] inception_3b/pool_proj -> inception_3b/pool_proj
I1012 21:07:00.009897 15992 net.cpp:155] Setting up inception_3b/pool_proj
I1012 21:07:00.009902 15992 net.cpp:163] Top shape: 128 64 28 28 (6422528)
I1012 21:07:00.009907 15992 layer_factory.hpp:76] Creating layer inception_3b/relu_pool_proj
I1012 21:07:00.009912 15992 net.cpp:110] Creating Layer inception_3b/relu_pool_proj
I1012 21:07:00.009914 15992 net.cpp:477] inception_3b/relu_pool_proj <- inception_3b/pool_proj
I1012 21:07:00.009917 15992 net.cpp:419] inception_3b/relu_pool_proj -> inception_3b/pool_proj (in-place)
I1012 21:07:00.009922 15992 net.cpp:155] Setting up inception_3b/relu_pool_proj
I1012 21:07:00.009925 15992 net.cpp:163] Top shape: 128 64 28 28 (6422528)
I1012 21:07:00.009928 15992 layer_factory.hpp:76] Creating layer inception_3b/output
I1012 21:07:00.009932 15992 net.cpp:110] Creating Layer inception_3b/output
I1012 21:07:00.009935 15992 net.cpp:477] inception_3b/output <- inception_3b/1x1
I1012 21:07:00.009938 15992 net.cpp:477] inception_3b/output <- inception_3b/3x3
I1012 21:07:00.009941 15992 net.cpp:477] inception_3b/output <- inception_3b/5x5
I1012 21:07:00.009944 15992 net.cpp:477] inception_3b/output <- inception_3b/pool_proj
I1012 21:07:00.009953 15992 net.cpp:433] inception_3b/output -> inception_3b/output
I1012 21:07:00.009958 15992 net.cpp:155] Setting up inception_3b/output
I1012 21:07:00.009961 15992 net.cpp:163] Top shape: 128 480 28 28 (48168960)
I1012 21:07:00.009964 15992 layer_factory.hpp:76] Creating layer pool3/3x3_s2
I1012 21:07:00.009968 15992 net.cpp:110] Creating Layer pool3/3x3_s2
I1012 21:07:00.009971 15992 net.cpp:477] pool3/3x3_s2 <- inception_3b/output
I1012 21:07:00.009976 15992 net.cpp:433] pool3/3x3_s2 -> pool3/3x3_s2
I1012 21:07:00.009982 15992 net.cpp:155] Setting up pool3/3x3_s2
I1012 21:07:00.009985 15992 net.cpp:163] Top shape: 128 480 14 14 (12042240)
I1012 21:07:00.009989 15992 layer_factory.hpp:76] Creating layer pool3/3x3_s2_pool3/3x3_s2_0_split
I1012 21:07:00.009992 15992 net.cpp:110] Creating Layer pool3/3x3_s2_pool3/3x3_s2_0_split
I1012 21:07:00.009994 15992 net.cpp:477] pool3/3x3_s2_pool3/3x3_s2_0_split <- pool3/3x3_s2
I1012 21:07:00.010000 15992 net.cpp:433] pool3/3x3_s2_pool3/3x3_s2_0_split -> pool3/3x3_s2_pool3/3x3_s2_0_split_0
I1012 21:07:00.010005 15992 net.cpp:433] pool3/3x3_s2_pool3/3x3_s2_0_split -> pool3/3x3_s2_pool3/3x3_s2_0_split_1
I1012 21:07:00.010012 15992 net.cpp:433] pool3/3x3_s2_pool3/3x3_s2_0_split -> pool3/3x3_s2_pool3/3x3_s2_0_split_2
I1012 21:07:00.010017 15992 net.cpp:433] pool3/3x3_s2_pool3/3x3_s2_0_split -> pool3/3x3_s2_pool3/3x3_s2_0_split_3
I1012 21:07:00.010022 15992 net.cpp:155] Setting up pool3/3x3_s2_pool3/3x3_s2_0_split
I1012 21:07:00.010026 15992 net.cpp:163] Top shape: 128 480 14 14 (12042240)
I1012 21:07:00.010030 15992 net.cpp:163] Top shape: 128 480 14 14 (12042240)
I1012 21:07:00.010033 15992 net.cpp:163] Top shape: 128 480 14 14 (12042240)
I1012 21:07:00.010036 15992 net.cpp:163] Top shape: 128 480 14 14 (12042240)
I1012 21:07:00.010040 15992 layer_factory.hpp:76] Creating layer inception_4a/1x1
I1012 21:07:00.010046 15992 net.cpp:110] Creating Layer inception_4a/1x1
I1012 21:07:00.010048 15992 net.cpp:477] inception_4a/1x1 <- pool3/3x3_s2_pool3/3x3_s2_0_split_0
I1012 21:07:00.010054 15992 net.cpp:433] inception_4a/1x1 -> inception_4a/1x1
I1012 21:07:00.010560 15992 net.cpp:155] Setting up inception_4a/1x1
I1012 21:07:00.010566 15992 net.cpp:163] Top shape: 128 192 14 14 (4816896)
I1012 21:07:00.010571 15992 layer_factory.hpp:76] Creating layer inception_4a/relu_1x1
I1012 21:07:00.010576 15992 net.cpp:110] Creating Layer inception_4a/relu_1x1
I1012 21:07:00.010578 15992 net.cpp:477] inception_4a/relu_1x1 <- inception_4a/1x1
I1012 21:07:00.010582 15992 net.cpp:419] inception_4a/relu_1x1 -> inception_4a/1x1 (in-place)
I1012 21:07:00.010586 15992 net.cpp:155] Setting up inception_4a/relu_1x1
I1012 21:07:00.010593 15992 net.cpp:163] Top shape: 128 192 14 14 (4816896)
I1012 21:07:00.010596 15992 layer_factory.hpp:76] Creating layer inception_4a/3x3_reduce
I1012 21:07:00.010601 15992 net.cpp:110] Creating Layer inception_4a/3x3_reduce
I1012 21:07:00.010604 15992 net.cpp:477] inception_4a/3x3_reduce <- pool3/3x3_s2_pool3/3x3_s2_0_split_1
I1012 21:07:00.010610 15992 net.cpp:433] inception_4a/3x3_reduce -> inception_4a/3x3_reduce
I1012 21:07:00.010874 15992 net.cpp:155] Setting up inception_4a/3x3_reduce
I1012 21:07:00.010879 15992 net.cpp:163] Top shape: 128 96 14 14 (2408448)
I1012 21:07:00.010889 15992 layer_factory.hpp:76] Creating layer inception_4a/relu_3x3_reduce
I1012 21:07:00.010892 15992 net.cpp:110] Creating Layer inception_4a/relu_3x3_reduce
I1012 21:07:00.010895 15992 net.cpp:477] inception_4a/relu_3x3_reduce <- inception_4a/3x3_reduce
I1012 21:07:00.010900 15992 net.cpp:419] inception_4a/relu_3x3_reduce -> inception_4a/3x3_reduce (in-place)
I1012 21:07:00.010905 15992 net.cpp:155] Setting up inception_4a/relu_3x3_reduce
I1012 21:07:00.010910 15992 net.cpp:163] Top shape: 128 96 14 14 (2408448)
I1012 21:07:00.010912 15992 layer_factory.hpp:76] Creating layer inception_4a/3x3
I1012 21:07:00.010916 15992 net.cpp:110] Creating Layer inception_4a/3x3
I1012 21:07:00.010920 15992 net.cpp:477] inception_4a/3x3 <- inception_4a/3x3_reduce
I1012 21:07:00.010926 15992 net.cpp:433] inception_4a/3x3 -> inception_4a/3x3
I1012 21:07:00.011915 15992 net.cpp:155] Setting up inception_4a/3x3
I1012 21:07:00.011921 15992 net.cpp:163] Top shape: 128 208 14 14 (5218304)
I1012 21:07:00.011926 15992 layer_factory.hpp:76] Creating layer inception_4a/relu_3x3
I1012 21:07:00.011930 15992 net.cpp:110] Creating Layer inception_4a/relu_3x3
I1012 21:07:00.011934 15992 net.cpp:477] inception_4a/relu_3x3 <- inception_4a/3x3
I1012 21:07:00.011937 15992 net.cpp:419] inception_4a/relu_3x3 -> inception_4a/3x3 (in-place)
I1012 21:07:00.011942 15992 net.cpp:155] Setting up inception_4a/relu_3x3
I1012 21:07:00.011946 15992 net.cpp:163] Top shape: 128 208 14 14 (5218304)
I1012 21:07:00.011948 15992 layer_factory.hpp:76] Creating layer inception_4a/5x5_reduce
I1012 21:07:00.011953 15992 net.cpp:110] Creating Layer inception_4a/5x5_reduce
I1012 21:07:00.011956 15992 net.cpp:477] inception_4a/5x5_reduce <- pool3/3x3_s2_pool3/3x3_s2_0_split_2
I1012 21:07:00.011961 15992 net.cpp:433] inception_4a/5x5_reduce -> inception_4a/5x5_reduce
I1012 21:07:00.012014 15992 net.cpp:155] Setting up inception_4a/5x5_reduce
I1012 21:07:00.012019 15992 net.cpp:163] Top shape: 128 16 14 14 (401408)
I1012 21:07:00.012023 15992 layer_factory.hpp:76] Creating layer inception_4a/relu_5x5_reduce
I1012 21:07:00.012027 15992 net.cpp:110] Creating Layer inception_4a/relu_5x5_reduce
I1012 21:07:00.012030 15992 net.cpp:477] inception_4a/relu_5x5_reduce <- inception_4a/5x5_reduce
I1012 21:07:00.012034 15992 net.cpp:419] inception_4a/relu_5x5_reduce -> inception_4a/5x5_reduce (in-place)
I1012 21:07:00.012039 15992 net.cpp:155] Setting up inception_4a/relu_5x5_reduce
I1012 21:07:00.012042 15992 net.cpp:163] Top shape: 128 16 14 14 (401408)
I1012 21:07:00.012045 15992 layer_factory.hpp:76] Creating layer inception_4a/5x5
I1012 21:07:00.012049 15992 net.cpp:110] Creating Layer inception_4a/5x5
I1012 21:07:00.012053 15992 net.cpp:477] inception_4a/5x5 <- inception_4a/5x5_reduce
I1012 21:07:00.012058 15992 net.cpp:433] inception_4a/5x5 -> inception_4a/5x5
I1012 21:07:00.012176 15992 net.cpp:155] Setting up inception_4a/5x5
I1012 21:07:00.012181 15992 net.cpp:163] Top shape: 128 48 14 14 (1204224)
I1012 21:07:00.012184 15992 layer_factory.hpp:76] Creating layer inception_4a/relu_5x5
I1012 21:07:00.012188 15992 net.cpp:110] Creating Layer inception_4a/relu_5x5
I1012 21:07:00.012192 15992 net.cpp:477] inception_4a/relu_5x5 <- inception_4a/5x5
I1012 21:07:00.012195 15992 net.cpp:419] inception_4a/relu_5x5 -> inception_4a/5x5 (in-place)
I1012 21:07:00.012200 15992 net.cpp:155] Setting up inception_4a/relu_5x5
I1012 21:07:00.012203 15992 net.cpp:163] Top shape: 128 48 14 14 (1204224)
I1012 21:07:00.012209 15992 layer_factory.hpp:76] Creating layer inception_4a/pool
I1012 21:07:00.012214 15992 net.cpp:110] Creating Layer inception_4a/pool
I1012 21:07:00.012217 15992 net.cpp:477] inception_4a/pool <- pool3/3x3_s2_pool3/3x3_s2_0_split_3
I1012 21:07:00.012223 15992 net.cpp:433] inception_4a/pool -> inception_4a/pool
I1012 21:07:00.012228 15992 net.cpp:155] Setting up inception_4a/pool
I1012 21:07:00.012233 15992 net.cpp:163] Top shape: 128 480 14 14 (12042240)
I1012 21:07:00.012234 15992 layer_factory.hpp:76] Creating layer inception_4a/pool_proj
I1012 21:07:00.012241 15992 net.cpp:110] Creating Layer inception_4a/pool_proj
I1012 21:07:00.012244 15992 net.cpp:477] inception_4a/pool_proj <- inception_4a/pool
I1012 21:07:00.012249 15992 net.cpp:433] inception_4a/pool_proj -> inception_4a/pool_proj
I1012 21:07:00.012430 15992 net.cpp:155] Setting up inception_4a/pool_proj
I1012 21:07:00.012437 15992 net.cpp:163] Top shape: 128 64 14 14 (1605632)
I1012 21:07:00.012441 15992 layer_factory.hpp:76] Creating layer inception_4a/relu_pool_proj
I1012 21:07:00.012445 15992 net.cpp:110] Creating Layer inception_4a/relu_pool_proj
I1012 21:07:00.012449 15992 net.cpp:477] inception_4a/relu_pool_proj <- inception_4a/pool_proj
I1012 21:07:00.012452 15992 net.cpp:419] inception_4a/relu_pool_proj -> inception_4a/pool_proj (in-place)
I1012 21:07:00.012456 15992 net.cpp:155] Setting up inception_4a/relu_pool_proj
I1012 21:07:00.012460 15992 net.cpp:163] Top shape: 128 64 14 14 (1605632)
I1012 21:07:00.012462 15992 layer_factory.hpp:76] Creating layer inception_4a/output
I1012 21:07:00.012466 15992 net.cpp:110] Creating Layer inception_4a/output
I1012 21:07:00.012470 15992 net.cpp:477] inception_4a/output <- inception_4a/1x1
I1012 21:07:00.012472 15992 net.cpp:477] inception_4a/output <- inception_4a/3x3
I1012 21:07:00.012475 15992 net.cpp:477] inception_4a/output <- inception_4a/5x5
I1012 21:07:00.012480 15992 net.cpp:477] inception_4a/output <- inception_4a/pool_proj
I1012 21:07:00.012483 15992 net.cpp:433] inception_4a/output -> inception_4a/output
I1012 21:07:00.012490 15992 net.cpp:155] Setting up inception_4a/output
I1012 21:07:00.012493 15992 net.cpp:163] Top shape: 128 512 14 14 (12845056)
I1012 21:07:00.012496 15992 layer_factory.hpp:76] Creating layer inception_4a/output_inception_4a/output_0_split
I1012 21:07:00.012501 15992 net.cpp:110] Creating Layer inception_4a/output_inception_4a/output_0_split
I1012 21:07:00.012503 15992 net.cpp:477] inception_4a/output_inception_4a/output_0_split <- inception_4a/output
I1012 21:07:00.012508 15992 net.cpp:433] inception_4a/output_inception_4a/output_0_split -> inception_4a/output_inception_4a/output_0_split_0
I1012 21:07:00.012513 15992 net.cpp:433] inception_4a/output_inception_4a/output_0_split -> inception_4a/output_inception_4a/output_0_split_1
I1012 21:07:00.012517 15992 net.cpp:433] inception_4a/output_inception_4a/output_0_split -> inception_4a/output_inception_4a/output_0_split_2
I1012 21:07:00.012522 15992 net.cpp:433] inception_4a/output_inception_4a/output_0_split -> inception_4a/output_inception_4a/output_0_split_3
I1012 21:07:00.012527 15992 net.cpp:155] Setting up inception_4a/output_inception_4a/output_0_split
I1012 21:07:00.012531 15992 net.cpp:163] Top shape: 128 512 14 14 (12845056)
I1012 21:07:00.012534 15992 net.cpp:163] Top shape: 128 512 14 14 (12845056)
I1012 21:07:00.012537 15992 net.cpp:163] Top shape: 128 512 14 14 (12845056)
I1012 21:07:00.012542 15992 net.cpp:163] Top shape: 128 512 14 14 (12845056)
I1012 21:07:00.012543 15992 layer_factory.hpp:76] Creating layer inception_4b/1x1
I1012 21:07:00.012549 15992 net.cpp:110] Creating Layer inception_4b/1x1
I1012 21:07:00.012552 15992 net.cpp:477] inception_4b/1x1 <- inception_4a/output_inception_4a/output_0_split_0
I1012 21:07:00.012557 15992 net.cpp:433] inception_4b/1x1 -> inception_4b/1x1
I1012 21:07:00.013010 15992 net.cpp:155] Setting up inception_4b/1x1
I1012 21:07:00.013016 15992 net.cpp:163] Top shape: 128 160 14 14 (4014080)
I1012 21:07:00.013020 15992 layer_factory.hpp:76] Creating layer inception_4b/relu_1x1
I1012 21:07:00.013027 15992 net.cpp:110] Creating Layer inception_4b/relu_1x1
I1012 21:07:00.013031 15992 net.cpp:477] inception_4b/relu_1x1 <- inception_4b/1x1
I1012 21:07:00.013036 15992 net.cpp:419] inception_4b/relu_1x1 -> inception_4b/1x1 (in-place)
I1012 21:07:00.013039 15992 net.cpp:155] Setting up inception_4b/relu_1x1
I1012 21:07:00.013043 15992 net.cpp:163] Top shape: 128 160 14 14 (4014080)
I1012 21:07:00.013046 15992 layer_factory.hpp:76] Creating layer inception_4b/3x3_reduce
I1012 21:07:00.013051 15992 net.cpp:110] Creating Layer inception_4b/3x3_reduce
I1012 21:07:00.013053 15992 net.cpp:477] inception_4b/3x3_reduce <- inception_4a/output_inception_4a/output_0_split_1
I1012 21:07:00.013058 15992 net.cpp:433] inception_4b/3x3_reduce -> inception_4b/3x3_reduce
I1012 21:07:00.013391 15992 net.cpp:155] Setting up inception_4b/3x3_reduce
I1012 21:07:00.013399 15992 net.cpp:163] Top shape: 128 112 14 14 (2809856)
I1012 21:07:00.013404 15992 layer_factory.hpp:76] Creating layer inception_4b/relu_3x3_reduce
I1012 21:07:00.013408 15992 net.cpp:110] Creating Layer inception_4b/relu_3x3_reduce
I1012 21:07:00.013411 15992 net.cpp:477] inception_4b/relu_3x3_reduce <- inception_4b/3x3_reduce
I1012 21:07:00.013417 15992 net.cpp:419] inception_4b/relu_3x3_reduce -> inception_4b/3x3_reduce (in-place)
I1012 21:07:00.013422 15992 net.cpp:155] Setting up inception_4b/relu_3x3_reduce
I1012 21:07:00.013425 15992 net.cpp:163] Top shape: 128 112 14 14 (2809856)
I1012 21:07:00.013427 15992 layer_factory.hpp:76] Creating layer inception_4b/3x3
I1012 21:07:00.013433 15992 net.cpp:110] Creating Layer inception_4b/3x3
I1012 21:07:00.013437 15992 net.cpp:477] inception_4b/3x3 <- inception_4b/3x3_reduce
I1012 21:07:00.013440 15992 net.cpp:433] inception_4b/3x3 -> inception_4b/3x3
I1012 21:07:00.014663 15992 net.cpp:155] Setting up inception_4b/3x3
I1012 21:07:00.014672 15992 net.cpp:163] Top shape: 128 224 14 14 (5619712)
I1012 21:07:00.014675 15992 layer_factory.hpp:76] Creating layer inception_4b/relu_3x3
I1012 21:07:00.014679 15992 net.cpp:110] Creating Layer inception_4b/relu_3x3
I1012 21:07:00.014683 15992 net.cpp:477] inception_4b/relu_3x3 <- inception_4b/3x3
I1012 21:07:00.014686 15992 net.cpp:419] inception_4b/relu_3x3 -> inception_4b/3x3 (in-place)
I1012 21:07:00.014690 15992 net.cpp:155] Setting up inception_4b/relu_3x3
I1012 21:07:00.014694 15992 net.cpp:163] Top shape: 128 224 14 14 (5619712)
I1012 21:07:00.014698 15992 layer_factory.hpp:76] Creating layer inception_4b/5x5_reduce
I1012 21:07:00.014703 15992 net.cpp:110] Creating Layer inception_4b/5x5_reduce
I1012 21:07:00.014705 15992 net.cpp:477] inception_4b/5x5_reduce <- inception_4a/output_inception_4a/output_0_split_2
I1012 21:07:00.014709 15992 net.cpp:433] inception_4b/5x5_reduce -> inception_4b/5x5_reduce
I1012 21:07:00.014788 15992 net.cpp:155] Setting up inception_4b/5x5_reduce
I1012 21:07:00.014792 15992 net.cpp:163] Top shape: 128 24 14 14 (602112)
I1012 21:07:00.014797 15992 layer_factory.hpp:76] Creating layer inception_4b/relu_5x5_reduce
I1012 21:07:00.014801 15992 net.cpp:110] Creating Layer inception_4b/relu_5x5_reduce
I1012 21:07:00.014804 15992 net.cpp:477] inception_4b/relu_5x5_reduce <- inception_4b/5x5_reduce
I1012 21:07:00.014808 15992 net.cpp:419] inception_4b/relu_5x5_reduce -> inception_4b/5x5_reduce (in-place)
I1012 21:07:00.014812 15992 net.cpp:155] Setting up inception_4b/relu_5x5_reduce
I1012 21:07:00.014816 15992 net.cpp:163] Top shape: 128 24 14 14 (602112)
I1012 21:07:00.014819 15992 layer_factory.hpp:76] Creating layer inception_4b/5x5
I1012 21:07:00.014824 15992 net.cpp:110] Creating Layer inception_4b/5x5
I1012 21:07:00.014827 15992 net.cpp:477] inception_4b/5x5 <- inception_4b/5x5_reduce
I1012 21:07:00.014832 15992 net.cpp:433] inception_4b/5x5 -> inception_4b/5x5
I1012 21:07:00.015053 15992 net.cpp:155] Setting up inception_4b/5x5
I1012 21:07:00.015058 15992 net.cpp:163] Top shape: 128 64 14 14 (1605632)
I1012 21:07:00.015063 15992 layer_factory.hpp:76] Creating layer inception_4b/relu_5x5
I1012 21:07:00.015074 15992 net.cpp:110] Creating Layer inception_4b/relu_5x5
I1012 21:07:00.015079 15992 net.cpp:477] inception_4b/relu_5x5 <- inception_4b/5x5
I1012 21:07:00.015082 15992 net.cpp:419] inception_4b/relu_5x5 -> inception_4b/5x5 (in-place)
I1012 21:07:00.015086 15992 net.cpp:155] Setting up inception_4b/relu_5x5
I1012 21:07:00.015090 15992 net.cpp:163] Top shape: 128 64 14 14 (1605632)
I1012 21:07:00.015094 15992 layer_factory.hpp:76] Creating layer inception_4b/pool
I1012 21:07:00.015097 15992 net.cpp:110] Creating Layer inception_4b/pool
I1012 21:07:00.015100 15992 net.cpp:477] inception_4b/pool <- inception_4a/output_inception_4a/output_0_split_3
I1012 21:07:00.015105 15992 net.cpp:433] inception_4b/pool -> inception_4b/pool
I1012 21:07:00.015110 15992 net.cpp:155] Setting up inception_4b/pool
I1012 21:07:00.015115 15992 net.cpp:163] Top shape: 128 512 14 14 (12845056)
I1012 21:07:00.015116 15992 layer_factory.hpp:76] Creating layer inception_4b/pool_proj
I1012 21:07:00.015123 15992 net.cpp:110] Creating Layer inception_4b/pool_proj
I1012 21:07:00.015126 15992 net.cpp:477] inception_4b/pool_proj <- inception_4b/pool
I1012 21:07:00.015130 15992 net.cpp:433] inception_4b/pool_proj -> inception_4b/pool_proj
I1012 21:07:00.015319 15992 net.cpp:155] Setting up inception_4b/pool_proj
I1012 21:07:00.015324 15992 net.cpp:163] Top shape: 128 64 14 14 (1605632)
I1012 21:07:00.015328 15992 layer_factory.hpp:76] Creating layer inception_4b/relu_pool_proj
I1012 21:07:00.015332 15992 net.cpp:110] Creating Layer inception_4b/relu_pool_proj
I1012 21:07:00.015336 15992 net.cpp:477] inception_4b/relu_pool_proj <- inception_4b/pool_proj
I1012 21:07:00.015341 15992 net.cpp:419] inception_4b/relu_pool_proj -> inception_4b/pool_proj (in-place)
I1012 21:07:00.015344 15992 net.cpp:155] Setting up inception_4b/relu_pool_proj
I1012 21:07:00.015348 15992 net.cpp:163] Top shape: 128 64 14 14 (1605632)
I1012 21:07:00.015350 15992 layer_factory.hpp:76] Creating layer inception_4b/output
I1012 21:07:00.015354 15992 net.cpp:110] Creating Layer inception_4b/output
I1012 21:07:00.015357 15992 net.cpp:477] inception_4b/output <- inception_4b/1x1
I1012 21:07:00.015360 15992 net.cpp:477] inception_4b/output <- inception_4b/3x3
I1012 21:07:00.015363 15992 net.cpp:477] inception_4b/output <- inception_4b/5x5
I1012 21:07:00.015367 15992 net.cpp:477] inception_4b/output <- inception_4b/pool_proj
I1012 21:07:00.015370 15992 net.cpp:433] inception_4b/output -> inception_4b/output
I1012 21:07:00.015375 15992 net.cpp:155] Setting up inception_4b/output
I1012 21:07:00.015382 15992 net.cpp:163] Top shape: 128 512 14 14 (12845056)
I1012 21:07:00.015384 15992 layer_factory.hpp:76] Creating layer inception_4b/output_inception_4b/output_0_split
I1012 21:07:00.015388 15992 net.cpp:110] Creating Layer inception_4b/output_inception_4b/output_0_split
I1012 21:07:00.015390 15992 net.cpp:477] inception_4b/output_inception_4b/output_0_split <- inception_4b/output
I1012 21:07:00.015394 15992 net.cpp:433] inception_4b/output_inception_4b/output_0_split -> inception_4b/output_inception_4b/output_0_split_0
I1012 21:07:00.015399 15992 net.cpp:433] inception_4b/output_inception_4b/output_0_split -> inception_4b/output_inception_4b/output_0_split_1
I1012 21:07:00.015404 15992 net.cpp:433] inception_4b/output_inception_4b/output_0_split -> inception_4b/output_inception_4b/output_0_split_2
I1012 21:07:00.015408 15992 net.cpp:433] inception_4b/output_inception_4b/output_0_split -> inception_4b/output_inception_4b/output_0_split_3
I1012 21:07:00.015415 15992 net.cpp:155] Setting up inception_4b/output_inception_4b/output_0_split
I1012 21:07:00.015419 15992 net.cpp:163] Top shape: 128 512 14 14 (12845056)
I1012 21:07:00.015422 15992 net.cpp:163] Top shape: 128 512 14 14 (12845056)
I1012 21:07:00.015425 15992 net.cpp:163] Top shape: 128 512 14 14 (12845056)
I1012 21:07:00.015429 15992 net.cpp:163] Top shape: 128 512 14 14 (12845056)
I1012 21:07:00.015431 15992 layer_factory.hpp:76] Creating layer inception_4c/1x1
I1012 21:07:00.015436 15992 net.cpp:110] Creating Layer inception_4c/1x1
I1012 21:07:00.015442 15992 net.cpp:477] inception_4c/1x1 <- inception_4b/output_inception_4b/output_0_split_0
I1012 21:07:00.015447 15992 net.cpp:433] inception_4c/1x1 -> inception_4c/1x1
I1012 21:07:00.015812 15992 net.cpp:155] Setting up inception_4c/1x1
I1012 21:07:00.015818 15992 net.cpp:163] Top shape: 128 128 14 14 (3211264)
I1012 21:07:00.015823 15992 layer_factory.hpp:76] Creating layer inception_4c/relu_1x1
I1012 21:07:00.015828 15992 net.cpp:110] Creating Layer inception_4c/relu_1x1
I1012 21:07:00.015831 15992 net.cpp:477] inception_4c/relu_1x1 <- inception_4c/1x1
I1012 21:07:00.015836 15992 net.cpp:419] inception_4c/relu_1x1 -> inception_4c/1x1 (in-place)
I1012 21:07:00.015841 15992 net.cpp:155] Setting up inception_4c/relu_1x1
I1012 21:07:00.015843 15992 net.cpp:163] Top shape: 128 128 14 14 (3211264)
I1012 21:07:00.015846 15992 layer_factory.hpp:76] Creating layer inception_4c/3x3_reduce
I1012 21:07:00.015851 15992 net.cpp:110] Creating Layer inception_4c/3x3_reduce
I1012 21:07:00.015854 15992 net.cpp:477] inception_4c/3x3_reduce <- inception_4b/output_inception_4b/output_0_split_1
I1012 21:07:00.015861 15992 net.cpp:433] inception_4c/3x3_reduce -> inception_4c/3x3_reduce
I1012 21:07:00.016226 15992 net.cpp:155] Setting up inception_4c/3x3_reduce
I1012 21:07:00.016232 15992 net.cpp:163] Top shape: 128 128 14 14 (3211264)
I1012 21:07:00.016237 15992 layer_factory.hpp:76] Creating layer inception_4c/relu_3x3_reduce
I1012 21:07:00.016239 15992 net.cpp:110] Creating Layer inception_4c/relu_3x3_reduce
I1012 21:07:00.016242 15992 net.cpp:477] inception_4c/relu_3x3_reduce <- inception_4c/3x3_reduce
I1012 21:07:00.016247 15992 net.cpp:419] inception_4c/relu_3x3_reduce -> inception_4c/3x3_reduce (in-place)
I1012 21:07:00.016250 15992 net.cpp:155] Setting up inception_4c/relu_3x3_reduce
I1012 21:07:00.016254 15992 net.cpp:163] Top shape: 128 128 14 14 (3211264)
I1012 21:07:00.016258 15992 layer_factory.hpp:76] Creating layer inception_4c/3x3
I1012 21:07:00.016263 15992 net.cpp:110] Creating Layer inception_4c/3x3
I1012 21:07:00.016265 15992 net.cpp:477] inception_4c/3x3 <- inception_4c/3x3_reduce
I1012 21:07:00.016271 15992 net.cpp:433] inception_4c/3x3 -> inception_4c/3x3
I1012 21:07:00.017864 15992 net.cpp:155] Setting up inception_4c/3x3
I1012 21:07:00.017871 15992 net.cpp:163] Top shape: 128 256 14 14 (6422528)
I1012 21:07:00.017876 15992 layer_factory.hpp:76] Creating layer inception_4c/relu_3x3
I1012 21:07:00.017880 15992 net.cpp:110] Creating Layer inception_4c/relu_3x3
I1012 21:07:00.017884 15992 net.cpp:477] inception_4c/relu_3x3 <- inception_4c/3x3
I1012 21:07:00.017889 15992 net.cpp:419] inception_4c/relu_3x3 -> inception_4c/3x3 (in-place)
I1012 21:07:00.017892 15992 net.cpp:155] Setting up inception_4c/relu_3x3
I1012 21:07:00.017896 15992 net.cpp:163] Top shape: 128 256 14 14 (6422528)
I1012 21:07:00.017899 15992 layer_factory.hpp:76] Creating layer inception_4c/5x5_reduce
I1012 21:07:00.017904 15992 net.cpp:110] Creating Layer inception_4c/5x5_reduce
I1012 21:07:00.017906 15992 net.cpp:477] inception_4c/5x5_reduce <- inception_4b/output_inception_4b/output_0_split_2
I1012 21:07:00.017912 15992 net.cpp:433] inception_4c/5x5_reduce -> inception_4c/5x5_reduce
I1012 21:07:00.017989 15992 net.cpp:155] Setting up inception_4c/5x5_reduce
I1012 21:07:00.017994 15992 net.cpp:163] Top shape: 128 24 14 14 (602112)
I1012 21:07:00.017998 15992 layer_factory.hpp:76] Creating layer inception_4c/relu_5x5_reduce
I1012 21:07:00.018002 15992 net.cpp:110] Creating Layer inception_4c/relu_5x5_reduce
I1012 21:07:00.018005 15992 net.cpp:477] inception_4c/relu_5x5_reduce <- inception_4c/5x5_reduce
I1012 21:07:00.018009 15992 net.cpp:419] inception_4c/relu_5x5_reduce -> inception_4c/5x5_reduce (in-place)
I1012 21:07:00.018013 15992 net.cpp:155] Setting up inception_4c/relu_5x5_reduce
I1012 21:07:00.018018 15992 net.cpp:163] Top shape: 128 24 14 14 (602112)
I1012 21:07:00.018020 15992 layer_factory.hpp:76] Creating layer inception_4c/5x5
I1012 21:07:00.018024 15992 net.cpp:110] Creating Layer inception_4c/5x5
I1012 21:07:00.018030 15992 net.cpp:477] inception_4c/5x5 <- inception_4c/5x5_reduce
I1012 21:07:00.018036 15992 net.cpp:433] inception_4c/5x5 -> inception_4c/5x5
I1012 21:07:00.018256 15992 net.cpp:155] Setting up inception_4c/5x5
I1012 21:07:00.018262 15992 net.cpp:163] Top shape: 128 64 14 14 (1605632)
I1012 21:07:00.018266 15992 layer_factory.hpp:76] Creating layer inception_4c/relu_5x5
I1012 21:07:00.018270 15992 net.cpp:110] Creating Layer inception_4c/relu_5x5
I1012 21:07:00.018273 15992 net.cpp:477] inception_4c/relu_5x5 <- inception_4c/5x5
I1012 21:07:00.018277 15992 net.cpp:419] inception_4c/relu_5x5 -> inception_4c/5x5 (in-place)
I1012 21:07:00.018282 15992 net.cpp:155] Setting up inception_4c/relu_5x5
I1012 21:07:00.018285 15992 net.cpp:163] Top shape: 128 64 14 14 (1605632)
I1012 21:07:00.018288 15992 layer_factory.hpp:76] Creating layer inception_4c/pool
I1012 21:07:00.018292 15992 net.cpp:110] Creating Layer inception_4c/pool
I1012 21:07:00.018296 15992 net.cpp:477] inception_4c/pool <- inception_4b/output_inception_4b/output_0_split_3
I1012 21:07:00.018299 15992 net.cpp:433] inception_4c/pool -> inception_4c/pool
I1012 21:07:00.018311 15992 net.cpp:155] Setting up inception_4c/pool
I1012 21:07:00.018314 15992 net.cpp:163] Top shape: 128 512 14 14 (12845056)
I1012 21:07:00.018317 15992 layer_factory.hpp:76] Creating layer inception_4c/pool_proj
I1012 21:07:00.018323 15992 net.cpp:110] Creating Layer inception_4c/pool_proj
I1012 21:07:00.018326 15992 net.cpp:477] inception_4c/pool_proj <- inception_4c/pool
I1012 21:07:00.018332 15992 net.cpp:433] inception_4c/pool_proj -> inception_4c/pool_proj
I1012 21:07:00.018518 15992 net.cpp:155] Setting up inception_4c/pool_proj
I1012 21:07:00.018524 15992 net.cpp:163] Top shape: 128 64 14 14 (1605632)
I1012 21:07:00.018537 15992 layer_factory.hpp:76] Creating layer inception_4c/relu_pool_proj
I1012 21:07:00.018540 15992 net.cpp:110] Creating Layer inception_4c/relu_pool_proj
I1012 21:07:00.018543 15992 net.cpp:477] inception_4c/relu_pool_proj <- inception_4c/pool_proj
I1012 21:07:00.018548 15992 net.cpp:419] inception_4c/relu_pool_proj -> inception_4c/pool_proj (in-place)
I1012 21:07:00.018553 15992 net.cpp:155] Setting up inception_4c/relu_pool_proj
I1012 21:07:00.018555 15992 net.cpp:163] Top shape: 128 64 14 14 (1605632)
I1012 21:07:00.018558 15992 layer_factory.hpp:76] Creating layer inception_4c/output
I1012 21:07:00.018563 15992 net.cpp:110] Creating Layer inception_4c/output
I1012 21:07:00.018565 15992 net.cpp:477] inception_4c/output <- inception_4c/1x1
I1012 21:07:00.018570 15992 net.cpp:477] inception_4c/output <- inception_4c/3x3
I1012 21:07:00.018573 15992 net.cpp:477] inception_4c/output <- inception_4c/5x5
I1012 21:07:00.018576 15992 net.cpp:477] inception_4c/output <- inception_4c/pool_proj
I1012 21:07:00.018580 15992 net.cpp:433] inception_4c/output -> inception_4c/output
I1012 21:07:00.018586 15992 net.cpp:155] Setting up inception_4c/output
I1012 21:07:00.018589 15992 net.cpp:163] Top shape: 128 512 14 14 (12845056)
I1012 21:07:00.018592 15992 layer_factory.hpp:76] Creating layer inception_4c/output_inception_4c/output_0_split
I1012 21:07:00.018596 15992 net.cpp:110] Creating Layer inception_4c/output_inception_4c/output_0_split
I1012 21:07:00.018599 15992 net.cpp:477] inception_4c/output_inception_4c/output_0_split <- inception_4c/output
I1012 21:07:00.018604 15992 net.cpp:433] inception_4c/output_inception_4c/output_0_split -> inception_4c/output_inception_4c/output_0_split_0
I1012 21:07:00.018610 15992 net.cpp:433] inception_4c/output_inception_4c/output_0_split -> inception_4c/output_inception_4c/output_0_split_1
I1012 21:07:00.018615 15992 net.cpp:433] inception_4c/output_inception_4c/output_0_split -> inception_4c/output_inception_4c/output_0_split_2
I1012 21:07:00.018618 15992 net.cpp:433] inception_4c/output_inception_4c/output_0_split -> inception_4c/output_inception_4c/output_0_split_3
I1012 21:07:00.018625 15992 net.cpp:155] Setting up inception_4c/output_inception_4c/output_0_split
I1012 21:07:00.018627 15992 net.cpp:163] Top shape: 128 512 14 14 (12845056)
I1012 21:07:00.018635 15992 net.cpp:163] Top shape: 128 512 14 14 (12845056)
I1012 21:07:00.018637 15992 net.cpp:163] Top shape: 128 512 14 14 (12845056)
I1012 21:07:00.018640 15992 net.cpp:163] Top shape: 128 512 14 14 (12845056)
I1012 21:07:00.018643 15992 layer_factory.hpp:76] Creating layer inception_4d/1x1
I1012 21:07:00.018651 15992 net.cpp:110] Creating Layer inception_4d/1x1
I1012 21:07:00.018653 15992 net.cpp:477] inception_4d/1x1 <- inception_4c/output_inception_4c/output_0_split_0
I1012 21:07:00.018657 15992 net.cpp:433] inception_4d/1x1 -> inception_4d/1x1
I1012 21:07:00.018980 15992 net.cpp:155] Setting up inception_4d/1x1
I1012 21:07:00.018985 15992 net.cpp:163] Top shape: 128 112 14 14 (2809856)
I1012 21:07:00.018990 15992 layer_factory.hpp:76] Creating layer inception_4d/relu_1x1
I1012 21:07:00.018993 15992 net.cpp:110] Creating Layer inception_4d/relu_1x1
I1012 21:07:00.018996 15992 net.cpp:477] inception_4d/relu_1x1 <- inception_4d/1x1
I1012 21:07:00.019003 15992 net.cpp:419] inception_4d/relu_1x1 -> inception_4d/1x1 (in-place)
I1012 21:07:00.019008 15992 net.cpp:155] Setting up inception_4d/relu_1x1
I1012 21:07:00.019012 15992 net.cpp:163] Top shape: 128 112 14 14 (2809856)
I1012 21:07:00.019014 15992 layer_factory.hpp:76] Creating layer inception_4d/3x3_reduce
I1012 21:07:00.019021 15992 net.cpp:110] Creating Layer inception_4d/3x3_reduce
I1012 21:07:00.019023 15992 net.cpp:477] inception_4d/3x3_reduce <- inception_4c/output_inception_4c/output_0_split_1
I1012 21:07:00.019027 15992 net.cpp:433] inception_4d/3x3_reduce -> inception_4d/3x3_reduce
I1012 21:07:00.019434 15992 net.cpp:155] Setting up inception_4d/3x3_reduce
I1012 21:07:00.019440 15992 net.cpp:163] Top shape: 128 144 14 14 (3612672)
I1012 21:07:00.019444 15992 layer_factory.hpp:76] Creating layer inception_4d/relu_3x3_reduce
I1012 21:07:00.019449 15992 net.cpp:110] Creating Layer inception_4d/relu_3x3_reduce
I1012 21:07:00.019453 15992 net.cpp:477] inception_4d/relu_3x3_reduce <- inception_4d/3x3_reduce
I1012 21:07:00.019456 15992 net.cpp:419] inception_4d/relu_3x3_reduce -> inception_4d/3x3_reduce (in-place)
I1012 21:07:00.019460 15992 net.cpp:155] Setting up inception_4d/relu_3x3_reduce
I1012 21:07:00.019464 15992 net.cpp:163] Top shape: 128 144 14 14 (3612672)
I1012 21:07:00.019467 15992 layer_factory.hpp:76] Creating layer inception_4d/3x3
I1012 21:07:00.019472 15992 net.cpp:110] Creating Layer inception_4d/3x3
I1012 21:07:00.019475 15992 net.cpp:477] inception_4d/3x3 <- inception_4d/3x3_reduce
I1012 21:07:00.019479 15992 net.cpp:433] inception_4d/3x3 -> inception_4d/3x3
I1012 21:07:00.021483 15992 net.cpp:155] Setting up inception_4d/3x3
I1012 21:07:00.021491 15992 net.cpp:163] Top shape: 128 288 14 14 (7225344)
I1012 21:07:00.021495 15992 layer_factory.hpp:76] Creating layer inception_4d/relu_3x3
I1012 21:07:00.021499 15992 net.cpp:110] Creating Layer inception_4d/relu_3x3
I1012 21:07:00.021502 15992 net.cpp:477] inception_4d/relu_3x3 <- inception_4d/3x3
I1012 21:07:00.021507 15992 net.cpp:419] inception_4d/relu_3x3 -> inception_4d/3x3 (in-place)
I1012 21:07:00.021510 15992 net.cpp:155] Setting up inception_4d/relu_3x3
I1012 21:07:00.021514 15992 net.cpp:163] Top shape: 128 288 14 14 (7225344)
I1012 21:07:00.021517 15992 layer_factory.hpp:76] Creating layer inception_4d/5x5_reduce
I1012 21:07:00.021522 15992 net.cpp:110] Creating Layer inception_4d/5x5_reduce
I1012 21:07:00.021525 15992 net.cpp:477] inception_4d/5x5_reduce <- inception_4c/output_inception_4c/output_0_split_2
I1012 21:07:00.021531 15992 net.cpp:433] inception_4d/5x5_reduce -> inception_4d/5x5_reduce
I1012 21:07:00.021631 15992 net.cpp:155] Setting up inception_4d/5x5_reduce
I1012 21:07:00.021634 15992 net.cpp:163] Top shape: 128 32 14 14 (802816)
I1012 21:07:00.021639 15992 layer_factory.hpp:76] Creating layer inception_4d/relu_5x5_reduce
I1012 21:07:00.021643 15992 net.cpp:110] Creating Layer inception_4d/relu_5x5_reduce
I1012 21:07:00.021646 15992 net.cpp:477] inception_4d/relu_5x5_reduce <- inception_4d/5x5_reduce
I1012 21:07:00.021652 15992 net.cpp:419] inception_4d/relu_5x5_reduce -> inception_4d/5x5_reduce (in-place)
I1012 21:07:00.021657 15992 net.cpp:155] Setting up inception_4d/relu_5x5_reduce
I1012 21:07:00.021661 15992 net.cpp:163] Top shape: 128 32 14 14 (802816)
I1012 21:07:00.021663 15992 layer_factory.hpp:76] Creating layer inception_4d/5x5
I1012 21:07:00.021669 15992 net.cpp:110] Creating Layer inception_4d/5x5
I1012 21:07:00.021672 15992 net.cpp:477] inception_4d/5x5 <- inception_4d/5x5_reduce
I1012 21:07:00.021677 15992 net.cpp:433] inception_4d/5x5 -> inception_4d/5x5
I1012 21:07:00.021968 15992 net.cpp:155] Setting up inception_4d/5x5
I1012 21:07:00.021975 15992 net.cpp:163] Top shape: 128 64 14 14 (1605632)
I1012 21:07:00.021978 15992 layer_factory.hpp:76] Creating layer inception_4d/relu_5x5
I1012 21:07:00.021982 15992 net.cpp:110] Creating Layer inception_4d/relu_5x5
I1012 21:07:00.021986 15992 net.cpp:477] inception_4d/relu_5x5 <- inception_4d/5x5
I1012 21:07:00.021989 15992 net.cpp:419] inception_4d/relu_5x5 -> inception_4d/5x5 (in-place)
I1012 21:07:00.021993 15992 net.cpp:155] Setting up inception_4d/relu_5x5
I1012 21:07:00.021997 15992 net.cpp:163] Top shape: 128 64 14 14 (1605632)
I1012 21:07:00.022001 15992 layer_factory.hpp:76] Creating layer inception_4d/pool
I1012 21:07:00.022006 15992 net.cpp:110] Creating Layer inception_4d/pool
I1012 21:07:00.022008 15992 net.cpp:477] inception_4d/pool <- inception_4c/output_inception_4c/output_0_split_3
I1012 21:07:00.022012 15992 net.cpp:433] inception_4d/pool -> inception_4d/pool
I1012 21:07:00.022018 15992 net.cpp:155] Setting up inception_4d/pool
I1012 21:07:00.022022 15992 net.cpp:163] Top shape: 128 512 14 14 (12845056)
I1012 21:07:00.022025 15992 layer_factory.hpp:76] Creating layer inception_4d/pool_proj
I1012 21:07:00.022030 15992 net.cpp:110] Creating Layer inception_4d/pool_proj
I1012 21:07:00.022033 15992 net.cpp:477] inception_4d/pool_proj <- inception_4d/pool
I1012 21:07:00.022038 15992 net.cpp:433] inception_4d/pool_proj -> inception_4d/pool_proj
I1012 21:07:00.022228 15992 net.cpp:155] Setting up inception_4d/pool_proj
I1012 21:07:00.022233 15992 net.cpp:163] Top shape: 128 64 14 14 (1605632)
I1012 21:07:00.022238 15992 layer_factory.hpp:76] Creating layer inception_4d/relu_pool_proj
I1012 21:07:00.022241 15992 net.cpp:110] Creating Layer inception_4d/relu_pool_proj
I1012 21:07:00.022244 15992 net.cpp:477] inception_4d/relu_pool_proj <- inception_4d/pool_proj
I1012 21:07:00.022248 15992 net.cpp:419] inception_4d/relu_pool_proj -> inception_4d/pool_proj (in-place)
I1012 21:07:00.022253 15992 net.cpp:155] Setting up inception_4d/relu_pool_proj
I1012 21:07:00.022256 15992 net.cpp:163] Top shape: 128 64 14 14 (1605632)
I1012 21:07:00.022259 15992 layer_factory.hpp:76] Creating layer inception_4d/output
I1012 21:07:00.022264 15992 net.cpp:110] Creating Layer inception_4d/output
I1012 21:07:00.022266 15992 net.cpp:477] inception_4d/output <- inception_4d/1x1
I1012 21:07:00.022269 15992 net.cpp:477] inception_4d/output <- inception_4d/3x3
I1012 21:07:00.022272 15992 net.cpp:477] inception_4d/output <- inception_4d/5x5
I1012 21:07:00.022275 15992 net.cpp:477] inception_4d/output <- inception_4d/pool_proj
I1012 21:07:00.022279 15992 net.cpp:433] inception_4d/output -> inception_4d/output
I1012 21:07:00.022284 15992 net.cpp:155] Setting up inception_4d/output
I1012 21:07:00.022289 15992 net.cpp:163] Top shape: 128 528 14 14 (13246464)
I1012 21:07:00.022290 15992 layer_factory.hpp:76] Creating layer inception_4d/output_inception_4d/output_0_split
I1012 21:07:00.022294 15992 net.cpp:110] Creating Layer inception_4d/output_inception_4d/output_0_split
I1012 21:07:00.022297 15992 net.cpp:477] inception_4d/output_inception_4d/output_0_split <- inception_4d/output
I1012 21:07:00.022302 15992 net.cpp:433] inception_4d/output_inception_4d/output_0_split -> inception_4d/output_inception_4d/output_0_split_0
I1012 21:07:00.022307 15992 net.cpp:433] inception_4d/output_inception_4d/output_0_split -> inception_4d/output_inception_4d/output_0_split_1
I1012 21:07:00.022312 15992 net.cpp:433] inception_4d/output_inception_4d/output_0_split -> inception_4d/output_inception_4d/output_0_split_2
I1012 21:07:00.022320 15992 net.cpp:433] inception_4d/output_inception_4d/output_0_split -> inception_4d/output_inception_4d/output_0_split_3
I1012 21:07:00.022326 15992 net.cpp:155] Setting up inception_4d/output_inception_4d/output_0_split
I1012 21:07:00.022330 15992 net.cpp:163] Top shape: 128 528 14 14 (13246464)
I1012 21:07:00.022335 15992 net.cpp:163] Top shape: 128 528 14 14 (13246464)
I1012 21:07:00.022337 15992 net.cpp:163] Top shape: 128 528 14 14 (13246464)
I1012 21:07:00.022341 15992 net.cpp:163] Top shape: 128 528 14 14 (13246464)
I1012 21:07:00.022343 15992 layer_factory.hpp:76] Creating layer inception_4e/1x1
I1012 21:07:00.022348 15992 net.cpp:110] Creating Layer inception_4e/1x1
I1012 21:07:00.022351 15992 net.cpp:477] inception_4e/1x1 <- inception_4d/output_inception_4d/output_0_split_0
I1012 21:07:00.022357 15992 net.cpp:433] inception_4e/1x1 -> inception_4e/1x1
I1012 21:07:00.023092 15992 net.cpp:155] Setting up inception_4e/1x1
I1012 21:07:00.023097 15992 net.cpp:163] Top shape: 128 256 14 14 (6422528)
I1012 21:07:00.023102 15992 layer_factory.hpp:76] Creating layer inception_4e/relu_1x1
I1012 21:07:00.023107 15992 net.cpp:110] Creating Layer inception_4e/relu_1x1
I1012 21:07:00.023109 15992 net.cpp:477] inception_4e/relu_1x1 <- inception_4e/1x1
I1012 21:07:00.023113 15992 net.cpp:419] inception_4e/relu_1x1 -> inception_4e/1x1 (in-place)
I1012 21:07:00.023118 15992 net.cpp:155] Setting up inception_4e/relu_1x1
I1012 21:07:00.023121 15992 net.cpp:163] Top shape: 128 256 14 14 (6422528)
I1012 21:07:00.023123 15992 layer_factory.hpp:76] Creating layer inception_4e/3x3_reduce
I1012 21:07:00.023129 15992 net.cpp:110] Creating Layer inception_4e/3x3_reduce
I1012 21:07:00.023133 15992 net.cpp:477] inception_4e/3x3_reduce <- inception_4d/output_inception_4d/output_0_split_1
I1012 21:07:00.023138 15992 net.cpp:433] inception_4e/3x3_reduce -> inception_4e/3x3_reduce
I1012 21:07:00.023602 15992 net.cpp:155] Setting up inception_4e/3x3_reduce
I1012 21:07:00.023608 15992 net.cpp:163] Top shape: 128 160 14 14 (4014080)
I1012 21:07:00.023612 15992 layer_factory.hpp:76] Creating layer inception_4e/relu_3x3_reduce
I1012 21:07:00.023617 15992 net.cpp:110] Creating Layer inception_4e/relu_3x3_reduce
I1012 21:07:00.023619 15992 net.cpp:477] inception_4e/relu_3x3_reduce <- inception_4e/3x3_reduce
I1012 21:07:00.023623 15992 net.cpp:419] inception_4e/relu_3x3_reduce -> inception_4e/3x3_reduce (in-place)
I1012 21:07:00.023627 15992 net.cpp:155] Setting up inception_4e/relu_3x3_reduce
I1012 21:07:00.023632 15992 net.cpp:163] Top shape: 128 160 14 14 (4014080)
I1012 21:07:00.023634 15992 layer_factory.hpp:76] Creating layer inception_4e/3x3
I1012 21:07:00.023639 15992 net.cpp:110] Creating Layer inception_4e/3x3
I1012 21:07:00.023643 15992 net.cpp:477] inception_4e/3x3 <- inception_4e/3x3_reduce
I1012 21:07:00.023650 15992 net.cpp:433] inception_4e/3x3 -> inception_4e/3x3
I1012 21:07:00.026130 15992 net.cpp:155] Setting up inception_4e/3x3
I1012 21:07:00.026139 15992 net.cpp:163] Top shape: 128 320 14 14 (8028160)
I1012 21:07:00.026144 15992 layer_factory.hpp:76] Creating layer inception_4e/relu_3x3
I1012 21:07:00.026149 15992 net.cpp:110] Creating Layer inception_4e/relu_3x3
I1012 21:07:00.026151 15992 net.cpp:477] inception_4e/relu_3x3 <- inception_4e/3x3
I1012 21:07:00.026155 15992 net.cpp:419] inception_4e/relu_3x3 -> inception_4e/3x3 (in-place)
I1012 21:07:00.026160 15992 net.cpp:155] Setting up inception_4e/relu_3x3
I1012 21:07:00.026163 15992 net.cpp:163] Top shape: 128 320 14 14 (8028160)
I1012 21:07:00.026166 15992 layer_factory.hpp:76] Creating layer inception_4e/5x5_reduce
I1012 21:07:00.026171 15992 net.cpp:110] Creating Layer inception_4e/5x5_reduce
I1012 21:07:00.026175 15992 net.cpp:477] inception_4e/5x5_reduce <- inception_4d/output_inception_4d/output_0_split_2
I1012 21:07:00.026180 15992 net.cpp:433] inception_4e/5x5_reduce -> inception_4e/5x5_reduce
I1012 21:07:00.026286 15992 net.cpp:155] Setting up inception_4e/5x5_reduce
I1012 21:07:00.026294 15992 net.cpp:163] Top shape: 128 32 14 14 (802816)
I1012 21:07:00.026299 15992 layer_factory.hpp:76] Creating layer inception_4e/relu_5x5_reduce
I1012 21:07:00.026303 15992 net.cpp:110] Creating Layer inception_4e/relu_5x5_reduce
I1012 21:07:00.026305 15992 net.cpp:477] inception_4e/relu_5x5_reduce <- inception_4e/5x5_reduce
I1012 21:07:00.026310 15992 net.cpp:419] inception_4e/relu_5x5_reduce -> inception_4e/5x5_reduce (in-place)
I1012 21:07:00.026315 15992 net.cpp:155] Setting up inception_4e/relu_5x5_reduce
I1012 21:07:00.026319 15992 net.cpp:163] Top shape: 128 32 14 14 (802816)
I1012 21:07:00.026321 15992 layer_factory.hpp:76] Creating layer inception_4e/5x5
I1012 21:07:00.026327 15992 net.cpp:110] Creating Layer inception_4e/5x5
I1012 21:07:00.026330 15992 net.cpp:477] inception_4e/5x5 <- inception_4e/5x5_reduce
I1012 21:07:00.026335 15992 net.cpp:433] inception_4e/5x5 -> inception_4e/5x5
I1012 21:07:00.026898 15992 net.cpp:155] Setting up inception_4e/5x5
I1012 21:07:00.026904 15992 net.cpp:163] Top shape: 128 128 14 14 (3211264)
I1012 21:07:00.026909 15992 layer_factory.hpp:76] Creating layer inception_4e/relu_5x5
I1012 21:07:00.026913 15992 net.cpp:110] Creating Layer inception_4e/relu_5x5
I1012 21:07:00.026916 15992 net.cpp:477] inception_4e/relu_5x5 <- inception_4e/5x5
I1012 21:07:00.026921 15992 net.cpp:419] inception_4e/relu_5x5 -> inception_4e/5x5 (in-place)
I1012 21:07:00.026926 15992 net.cpp:155] Setting up inception_4e/relu_5x5
I1012 21:07:00.026928 15992 net.cpp:163] Top shape: 128 128 14 14 (3211264)
I1012 21:07:00.026932 15992 layer_factory.hpp:76] Creating layer inception_4e/pool
I1012 21:07:00.026935 15992 net.cpp:110] Creating Layer inception_4e/pool
I1012 21:07:00.026938 15992 net.cpp:477] inception_4e/pool <- inception_4d/output_inception_4d/output_0_split_3
I1012 21:07:00.026944 15992 net.cpp:433] inception_4e/pool -> inception_4e/pool
I1012 21:07:00.026950 15992 net.cpp:155] Setting up inception_4e/pool
I1012 21:07:00.026953 15992 net.cpp:163] Top shape: 128 528 14 14 (13246464)
I1012 21:07:00.026957 15992 layer_factory.hpp:76] Creating layer inception_4e/pool_proj
I1012 21:07:00.026963 15992 net.cpp:110] Creating Layer inception_4e/pool_proj
I1012 21:07:00.026978 15992 net.cpp:477] inception_4e/pool_proj <- inception_4e/pool
I1012 21:07:00.026983 15992 net.cpp:433] inception_4e/pool_proj -> inception_4e/pool_proj
I1012 21:07:00.027382 15992 net.cpp:155] Setting up inception_4e/pool_proj
I1012 21:07:00.027390 15992 net.cpp:163] Top shape: 128 128 14 14 (3211264)
I1012 21:07:00.027393 15992 layer_factory.hpp:76] Creating layer inception_4e/relu_pool_proj
I1012 21:07:00.027397 15992 net.cpp:110] Creating Layer inception_4e/relu_pool_proj
I1012 21:07:00.027400 15992 net.cpp:477] inception_4e/relu_pool_proj <- inception_4e/pool_proj
I1012 21:07:00.027405 15992 net.cpp:419] inception_4e/relu_pool_proj -> inception_4e/pool_proj (in-place)
I1012 21:07:00.027410 15992 net.cpp:155] Setting up inception_4e/relu_pool_proj
I1012 21:07:00.027412 15992 net.cpp:163] Top shape: 128 128 14 14 (3211264)
I1012 21:07:00.027415 15992 layer_factory.hpp:76] Creating layer inception_4e/output
I1012 21:07:00.027420 15992 net.cpp:110] Creating Layer inception_4e/output
I1012 21:07:00.027422 15992 net.cpp:477] inception_4e/output <- inception_4e/1x1
I1012 21:07:00.027426 15992 net.cpp:477] inception_4e/output <- inception_4e/3x3
I1012 21:07:00.027429 15992 net.cpp:477] inception_4e/output <- inception_4e/5x5
I1012 21:07:00.027432 15992 net.cpp:477] inception_4e/output <- inception_4e/pool_proj
I1012 21:07:00.027437 15992 net.cpp:433] inception_4e/output -> inception_4e/output
I1012 21:07:00.027442 15992 net.cpp:155] Setting up inception_4e/output
I1012 21:07:00.027446 15992 net.cpp:163] Top shape: 128 832 14 14 (20873216)
I1012 21:07:00.027449 15992 layer_factory.hpp:76] Creating layer pool4/3x3_s2
I1012 21:07:00.027453 15992 net.cpp:110] Creating Layer pool4/3x3_s2
I1012 21:07:00.027456 15992 net.cpp:477] pool4/3x3_s2 <- inception_4e/output
I1012 21:07:00.027462 15992 net.cpp:433] pool4/3x3_s2 -> pool4/3x3_s2
I1012 21:07:00.027472 15992 net.cpp:155] Setting up pool4/3x3_s2
I1012 21:07:00.027475 15992 net.cpp:163] Top shape: 128 832 7 7 (5218304)
I1012 21:07:00.027478 15992 layer_factory.hpp:76] Creating layer pool4/3x3_s2_pool4/3x3_s2_0_split
I1012 21:07:00.027483 15992 net.cpp:110] Creating Layer pool4/3x3_s2_pool4/3x3_s2_0_split
I1012 21:07:00.027487 15992 net.cpp:477] pool4/3x3_s2_pool4/3x3_s2_0_split <- pool4/3x3_s2
I1012 21:07:00.027489 15992 net.cpp:433] pool4/3x3_s2_pool4/3x3_s2_0_split -> pool4/3x3_s2_pool4/3x3_s2_0_split_0
I1012 21:07:00.027495 15992 net.cpp:433] pool4/3x3_s2_pool4/3x3_s2_0_split -> pool4/3x3_s2_pool4/3x3_s2_0_split_1
I1012 21:07:00.027500 15992 net.cpp:433] pool4/3x3_s2_pool4/3x3_s2_0_split -> pool4/3x3_s2_pool4/3x3_s2_0_split_2
I1012 21:07:00.027505 15992 net.cpp:433] pool4/3x3_s2_pool4/3x3_s2_0_split -> pool4/3x3_s2_pool4/3x3_s2_0_split_3
I1012 21:07:00.027510 15992 net.cpp:155] Setting up pool4/3x3_s2_pool4/3x3_s2_0_split
I1012 21:07:00.027515 15992 net.cpp:163] Top shape: 128 832 7 7 (5218304)
I1012 21:07:00.027519 15992 net.cpp:163] Top shape: 128 832 7 7 (5218304)
I1012 21:07:00.027523 15992 net.cpp:163] Top shape: 128 832 7 7 (5218304)
I1012 21:07:00.027525 15992 net.cpp:163] Top shape: 128 832 7 7 (5218304)
I1012 21:07:00.027529 15992 layer_factory.hpp:76] Creating layer inception_5a/1x1
I1012 21:07:00.027534 15992 net.cpp:110] Creating Layer inception_5a/1x1
I1012 21:07:00.027536 15992 net.cpp:477] inception_5a/1x1 <- pool4/3x3_s2_pool4/3x3_s2_0_split_0
I1012 21:07:00.027544 15992 net.cpp:433] inception_5a/1x1 -> inception_5a/1x1
I1012 21:07:00.028697 15992 net.cpp:155] Setting up inception_5a/1x1
I1012 21:07:00.028704 15992 net.cpp:163] Top shape: 128 256 7 7 (1605632)
I1012 21:07:00.028709 15992 layer_factory.hpp:76] Creating layer inception_5a/relu_1x1
I1012 21:07:00.028713 15992 net.cpp:110] Creating Layer inception_5a/relu_1x1
I1012 21:07:00.028717 15992 net.cpp:477] inception_5a/relu_1x1 <- inception_5a/1x1
I1012 21:07:00.028722 15992 net.cpp:419] inception_5a/relu_1x1 -> inception_5a/1x1 (in-place)
I1012 21:07:00.028725 15992 net.cpp:155] Setting up inception_5a/relu_1x1
I1012 21:07:00.028729 15992 net.cpp:163] Top shape: 128 256 7 7 (1605632)
I1012 21:07:00.028733 15992 layer_factory.hpp:76] Creating layer inception_5a/3x3_reduce
I1012 21:07:00.028738 15992 net.cpp:110] Creating Layer inception_5a/3x3_reduce
I1012 21:07:00.028740 15992 net.cpp:477] inception_5a/3x3_reduce <- pool4/3x3_s2_pool4/3x3_s2_0_split_1
I1012 21:07:00.028745 15992 net.cpp:433] inception_5a/3x3_reduce -> inception_5a/3x3_reduce
I1012 21:07:00.029474 15992 net.cpp:155] Setting up inception_5a/3x3_reduce
I1012 21:07:00.029481 15992 net.cpp:163] Top shape: 128 160 7 7 (1003520)
I1012 21:07:00.029486 15992 layer_factory.hpp:76] Creating layer inception_5a/relu_3x3_reduce
I1012 21:07:00.029490 15992 net.cpp:110] Creating Layer inception_5a/relu_3x3_reduce
I1012 21:07:00.029494 15992 net.cpp:477] inception_5a/relu_3x3_reduce <- inception_5a/3x3_reduce
I1012 21:07:00.029500 15992 net.cpp:419] inception_5a/relu_3x3_reduce -> inception_5a/3x3_reduce (in-place)
I1012 21:07:00.029505 15992 net.cpp:155] Setting up inception_5a/relu_3x3_reduce
I1012 21:07:00.029508 15992 net.cpp:163] Top shape: 128 160 7 7 (1003520)
I1012 21:07:00.029511 15992 layer_factory.hpp:76] Creating layer inception_5a/3x3
I1012 21:07:00.029517 15992 net.cpp:110] Creating Layer inception_5a/3x3
I1012 21:07:00.029520 15992 net.cpp:477] inception_5a/3x3 <- inception_5a/3x3_reduce
I1012 21:07:00.029525 15992 net.cpp:433] inception_5a/3x3 -> inception_5a/3x3
I1012 21:07:00.031991 15992 net.cpp:155] Setting up inception_5a/3x3
I1012 21:07:00.031996 15992 net.cpp:163] Top shape: 128 320 7 7 (2007040)
I1012 21:07:00.032001 15992 layer_factory.hpp:76] Creating layer inception_5a/relu_3x3
I1012 21:07:00.032006 15992 net.cpp:110] Creating Layer inception_5a/relu_3x3
I1012 21:07:00.032008 15992 net.cpp:477] inception_5a/relu_3x3 <- inception_5a/3x3
I1012 21:07:00.032013 15992 net.cpp:419] inception_5a/relu_3x3 -> inception_5a/3x3 (in-place)
I1012 21:07:00.032021 15992 net.cpp:155] Setting up inception_5a/relu_3x3
I1012 21:07:00.032026 15992 net.cpp:163] Top shape: 128 320 7 7 (2007040)
I1012 21:07:00.032028 15992 layer_factory.hpp:76] Creating layer inception_5a/5x5_reduce
I1012 21:07:00.032033 15992 net.cpp:110] Creating Layer inception_5a/5x5_reduce
I1012 21:07:00.032037 15992 net.cpp:477] inception_5a/5x5_reduce <- pool4/3x3_s2_pool4/3x3_s2_0_split_2
I1012 21:07:00.032042 15992 net.cpp:433] inception_5a/5x5_reduce -> inception_5a/5x5_reduce
I1012 21:07:00.032199 15992 net.cpp:155] Setting up inception_5a/5x5_reduce
I1012 21:07:00.032204 15992 net.cpp:163] Top shape: 128 32 7 7 (200704)
I1012 21:07:00.032209 15992 layer_factory.hpp:76] Creating layer inception_5a/relu_5x5_reduce
I1012 21:07:00.032213 15992 net.cpp:110] Creating Layer inception_5a/relu_5x5_reduce
I1012 21:07:00.032217 15992 net.cpp:477] inception_5a/relu_5x5_reduce <- inception_5a/5x5_reduce
I1012 21:07:00.032219 15992 net.cpp:419] inception_5a/relu_5x5_reduce -> inception_5a/5x5_reduce (in-place)
I1012 21:07:00.032224 15992 net.cpp:155] Setting up inception_5a/relu_5x5_reduce
I1012 21:07:00.032227 15992 net.cpp:163] Top shape: 128 32 7 7 (200704)
I1012 21:07:00.032230 15992 layer_factory.hpp:76] Creating layer inception_5a/5x5
I1012 21:07:00.032237 15992 net.cpp:110] Creating Layer inception_5a/5x5
I1012 21:07:00.032239 15992 net.cpp:477] inception_5a/5x5 <- inception_5a/5x5_reduce
I1012 21:07:00.032244 15992 net.cpp:433] inception_5a/5x5 -> inception_5a/5x5
I1012 21:07:00.032804 15992 net.cpp:155] Setting up inception_5a/5x5
I1012 21:07:00.032809 15992 net.cpp:163] Top shape: 128 128 7 7 (802816)
I1012 21:07:00.032814 15992 layer_factory.hpp:76] Creating layer inception_5a/relu_5x5
I1012 21:07:00.032819 15992 net.cpp:110] Creating Layer inception_5a/relu_5x5
I1012 21:07:00.032822 15992 net.cpp:477] inception_5a/relu_5x5 <- inception_5a/5x5
I1012 21:07:00.032825 15992 net.cpp:419] inception_5a/relu_5x5 -> inception_5a/5x5 (in-place)
I1012 21:07:00.032829 15992 net.cpp:155] Setting up inception_5a/relu_5x5
I1012 21:07:00.032834 15992 net.cpp:163] Top shape: 128 128 7 7 (802816)
I1012 21:07:00.032836 15992 layer_factory.hpp:76] Creating layer inception_5a/pool
I1012 21:07:00.032845 15992 net.cpp:110] Creating Layer inception_5a/pool
I1012 21:07:00.032847 15992 net.cpp:477] inception_5a/pool <- pool4/3x3_s2_pool4/3x3_s2_0_split_3
I1012 21:07:00.032851 15992 net.cpp:433] inception_5a/pool -> inception_5a/pool
I1012 21:07:00.032857 15992 net.cpp:155] Setting up inception_5a/pool
I1012 21:07:00.032861 15992 net.cpp:163] Top shape: 128 832 7 7 (5218304)
I1012 21:07:00.032865 15992 layer_factory.hpp:76] Creating layer inception_5a/pool_proj
I1012 21:07:00.032871 15992 net.cpp:110] Creating Layer inception_5a/pool_proj
I1012 21:07:00.032873 15992 net.cpp:477] inception_5a/pool_proj <- inception_5a/pool
I1012 21:07:00.032878 15992 net.cpp:433] inception_5a/pool_proj -> inception_5a/pool_proj
I1012 21:07:00.033463 15992 net.cpp:155] Setting up inception_5a/pool_proj
I1012 21:07:00.033470 15992 net.cpp:163] Top shape: 128 128 7 7 (802816)
I1012 21:07:00.033475 15992 layer_factory.hpp:76] Creating layer inception_5a/relu_pool_proj
I1012 21:07:00.033489 15992 net.cpp:110] Creating Layer inception_5a/relu_pool_proj
I1012 21:07:00.033493 15992 net.cpp:477] inception_5a/relu_pool_proj <- inception_5a/pool_proj
I1012 21:07:00.033498 15992 net.cpp:419] inception_5a/relu_pool_proj -> inception_5a/pool_proj (in-place)
I1012 21:07:00.033502 15992 net.cpp:155] Setting up inception_5a/relu_pool_proj
I1012 21:07:00.033505 15992 net.cpp:163] Top shape: 128 128 7 7 (802816)
I1012 21:07:00.033509 15992 layer_factory.hpp:76] Creating layer inception_5a/output
I1012 21:07:00.033514 15992 net.cpp:110] Creating Layer inception_5a/output
I1012 21:07:00.033516 15992 net.cpp:477] inception_5a/output <- inception_5a/1x1
I1012 21:07:00.033519 15992 net.cpp:477] inception_5a/output <- inception_5a/3x3
I1012 21:07:00.033524 15992 net.cpp:477] inception_5a/output <- inception_5a/5x5
I1012 21:07:00.033526 15992 net.cpp:477] inception_5a/output <- inception_5a/pool_proj
I1012 21:07:00.033534 15992 net.cpp:433] inception_5a/output -> inception_5a/output
I1012 21:07:00.033540 15992 net.cpp:155] Setting up inception_5a/output
I1012 21:07:00.033543 15992 net.cpp:163] Top shape: 128 832 7 7 (5218304)
I1012 21:07:00.033545 15992 layer_factory.hpp:76] Creating layer inception_5a/output_inception_5a/output_0_split
I1012 21:07:00.033551 15992 net.cpp:110] Creating Layer inception_5a/output_inception_5a/output_0_split
I1012 21:07:00.033555 15992 net.cpp:477] inception_5a/output_inception_5a/output_0_split <- inception_5a/output
I1012 21:07:00.033558 15992 net.cpp:433] inception_5a/output_inception_5a/output_0_split -> inception_5a/output_inception_5a/output_0_split_0
I1012 21:07:00.033563 15992 net.cpp:433] inception_5a/output_inception_5a/output_0_split -> inception_5a/output_inception_5a/output_0_split_1
I1012 21:07:00.033568 15992 net.cpp:433] inception_5a/output_inception_5a/output_0_split -> inception_5a/output_inception_5a/output_0_split_2
I1012 21:07:00.033573 15992 net.cpp:433] inception_5a/output_inception_5a/output_0_split -> inception_5a/output_inception_5a/output_0_split_3
I1012 21:07:00.033579 15992 net.cpp:155] Setting up inception_5a/output_inception_5a/output_0_split
I1012 21:07:00.033583 15992 net.cpp:163] Top shape: 128 832 7 7 (5218304)
I1012 21:07:00.033586 15992 net.cpp:163] Top shape: 128 832 7 7 (5218304)
I1012 21:07:00.033589 15992 net.cpp:163] Top shape: 128 832 7 7 (5218304)
I1012 21:07:00.033592 15992 net.cpp:163] Top shape: 128 832 7 7 (5218304)
I1012 21:07:00.033596 15992 layer_factory.hpp:76] Creating layer inception_5b/1x1
I1012 21:07:00.033601 15992 net.cpp:110] Creating Layer inception_5b/1x1
I1012 21:07:00.033604 15992 net.cpp:477] inception_5b/1x1 <- inception_5a/output_inception_5a/output_0_split_0
I1012 21:07:00.033610 15992 net.cpp:433] inception_5b/1x1 -> inception_5b/1x1
I1012 21:07:00.035327 15992 net.cpp:155] Setting up inception_5b/1x1
I1012 21:07:00.035333 15992 net.cpp:163] Top shape: 128 384 7 7 (2408448)
I1012 21:07:00.035338 15992 layer_factory.hpp:76] Creating layer inception_5b/relu_1x1
I1012 21:07:00.035342 15992 net.cpp:110] Creating Layer inception_5b/relu_1x1
I1012 21:07:00.035346 15992 net.cpp:477] inception_5b/relu_1x1 <- inception_5b/1x1
I1012 21:07:00.035349 15992 net.cpp:419] inception_5b/relu_1x1 -> inception_5b/1x1 (in-place)
I1012 21:07:00.035354 15992 net.cpp:155] Setting up inception_5b/relu_1x1
I1012 21:07:00.035357 15992 net.cpp:163] Top shape: 128 384 7 7 (2408448)
I1012 21:07:00.035361 15992 layer_factory.hpp:76] Creating layer inception_5b/3x3_reduce
I1012 21:07:00.035367 15992 net.cpp:110] Creating Layer inception_5b/3x3_reduce
I1012 21:07:00.035370 15992 net.cpp:477] inception_5b/3x3_reduce <- inception_5a/output_inception_5a/output_0_split_1
I1012 21:07:00.035375 15992 net.cpp:433] inception_5b/3x3_reduce -> inception_5b/3x3_reduce
I1012 21:07:00.036240 15992 net.cpp:155] Setting up inception_5b/3x3_reduce
I1012 21:07:00.036247 15992 net.cpp:163] Top shape: 128 192 7 7 (1204224)
I1012 21:07:00.036252 15992 layer_factory.hpp:76] Creating layer inception_5b/relu_3x3_reduce
I1012 21:07:00.036255 15992 net.cpp:110] Creating Layer inception_5b/relu_3x3_reduce
I1012 21:07:00.036258 15992 net.cpp:477] inception_5b/relu_3x3_reduce <- inception_5b/3x3_reduce
I1012 21:07:00.036262 15992 net.cpp:419] inception_5b/relu_3x3_reduce -> inception_5b/3x3_reduce (in-place)
I1012 21:07:00.036267 15992 net.cpp:155] Setting up inception_5b/relu_3x3_reduce
I1012 21:07:00.036270 15992 net.cpp:163] Top shape: 128 192 7 7 (1204224)
I1012 21:07:00.036273 15992 layer_factory.hpp:76] Creating layer inception_5b/3x3
I1012 21:07:00.036279 15992 net.cpp:110] Creating Layer inception_5b/3x3
I1012 21:07:00.036283 15992 net.cpp:477] inception_5b/3x3 <- inception_5b/3x3_reduce
I1012 21:07:00.036288 15992 net.cpp:433] inception_5b/3x3 -> inception_5b/3x3
I1012 21:07:00.039890 15992 net.cpp:155] Setting up inception_5b/3x3
I1012 21:07:00.039897 15992 net.cpp:163] Top shape: 128 384 7 7 (2408448)
I1012 21:07:00.039906 15992 layer_factory.hpp:76] Creating layer inception_5b/relu_3x3
I1012 21:07:00.039909 15992 net.cpp:110] Creating Layer inception_5b/relu_3x3
I1012 21:07:00.039912 15992 net.cpp:477] inception_5b/relu_3x3 <- inception_5b/3x3
I1012 21:07:00.039917 15992 net.cpp:419] inception_5b/relu_3x3 -> inception_5b/3x3 (in-place)
I1012 21:07:00.039922 15992 net.cpp:155] Setting up inception_5b/relu_3x3
I1012 21:07:00.039927 15992 net.cpp:163] Top shape: 128 384 7 7 (2408448)
I1012 21:07:00.039928 15992 layer_factory.hpp:76] Creating layer inception_5b/5x5_reduce
I1012 21:07:00.039934 15992 net.cpp:110] Creating Layer inception_5b/5x5_reduce
I1012 21:07:00.039937 15992 net.cpp:477] inception_5b/5x5_reduce <- inception_5a/output_inception_5a/output_0_split_2
I1012 21:07:00.039942 15992 net.cpp:433] inception_5b/5x5_reduce -> inception_5b/5x5_reduce
I1012 21:07:00.040171 15992 net.cpp:155] Setting up inception_5b/5x5_reduce
I1012 21:07:00.040177 15992 net.cpp:163] Top shape: 128 48 7 7 (301056)
I1012 21:07:00.040181 15992 layer_factory.hpp:76] Creating layer inception_5b/relu_5x5_reduce
I1012 21:07:00.040185 15992 net.cpp:110] Creating Layer inception_5b/relu_5x5_reduce
I1012 21:07:00.040189 15992 net.cpp:477] inception_5b/relu_5x5_reduce <- inception_5b/5x5_reduce
I1012 21:07:00.040192 15992 net.cpp:419] inception_5b/relu_5x5_reduce -> inception_5b/5x5_reduce (in-place)
I1012 21:07:00.040196 15992 net.cpp:155] Setting up inception_5b/relu_5x5_reduce
I1012 21:07:00.040200 15992 net.cpp:163] Top shape: 128 48 7 7 (301056)
I1012 21:07:00.040204 15992 layer_factory.hpp:76] Creating layer inception_5b/5x5
I1012 21:07:00.040210 15992 net.cpp:110] Creating Layer inception_5b/5x5
I1012 21:07:00.040212 15992 net.cpp:477] inception_5b/5x5 <- inception_5b/5x5_reduce
I1012 21:07:00.040217 15992 net.cpp:433] inception_5b/5x5 -> inception_5b/5x5
I1012 21:07:00.041055 15992 net.cpp:155] Setting up inception_5b/5x5
I1012 21:07:00.041062 15992 net.cpp:163] Top shape: 128 128 7 7 (802816)
I1012 21:07:00.041067 15992 layer_factory.hpp:76] Creating layer inception_5b/relu_5x5
I1012 21:07:00.041071 15992 net.cpp:110] Creating Layer inception_5b/relu_5x5
I1012 21:07:00.041074 15992 net.cpp:477] inception_5b/relu_5x5 <- inception_5b/5x5
I1012 21:07:00.041079 15992 net.cpp:419] inception_5b/relu_5x5 -> inception_5b/5x5 (in-place)
I1012 21:07:00.041082 15992 net.cpp:155] Setting up inception_5b/relu_5x5
I1012 21:07:00.041086 15992 net.cpp:163] Top shape: 128 128 7 7 (802816)
I1012 21:07:00.041088 15992 layer_factory.hpp:76] Creating layer inception_5b/pool
I1012 21:07:00.041093 15992 net.cpp:110] Creating Layer inception_5b/pool
I1012 21:07:00.041096 15992 net.cpp:477] inception_5b/pool <- inception_5a/output_inception_5a/output_0_split_3
I1012 21:07:00.041101 15992 net.cpp:433] inception_5b/pool -> inception_5b/pool
I1012 21:07:00.041108 15992 net.cpp:155] Setting up inception_5b/pool
I1012 21:07:00.041111 15992 net.cpp:163] Top shape: 128 832 7 7 (5218304)
I1012 21:07:00.041115 15992 layer_factory.hpp:76] Creating layer inception_5b/pool_proj
I1012 21:07:00.041121 15992 net.cpp:110] Creating Layer inception_5b/pool_proj
I1012 21:07:00.041124 15992 net.cpp:477] inception_5b/pool_proj <- inception_5b/pool
I1012 21:07:00.041129 15992 net.cpp:433] inception_5b/pool_proj -> inception_5b/pool_proj
I1012 21:07:00.041718 15992 net.cpp:155] Setting up inception_5b/pool_proj
I1012 21:07:00.041724 15992 net.cpp:163] Top shape: 128 128 7 7 (802816)
I1012 21:07:00.041728 15992 layer_factory.hpp:76] Creating layer inception_5b/relu_pool_proj
I1012 21:07:00.041734 15992 net.cpp:110] Creating Layer inception_5b/relu_pool_proj
I1012 21:07:00.041738 15992 net.cpp:477] inception_5b/relu_pool_proj <- inception_5b/pool_proj
I1012 21:07:00.041741 15992 net.cpp:419] inception_5b/relu_pool_proj -> inception_5b/pool_proj (in-place)
I1012 21:07:00.041746 15992 net.cpp:155] Setting up inception_5b/relu_pool_proj
I1012 21:07:00.041749 15992 net.cpp:163] Top shape: 128 128 7 7 (802816)
I1012 21:07:00.041753 15992 layer_factory.hpp:76] Creating layer inception_5b/output
I1012 21:07:00.041759 15992 net.cpp:110] Creating Layer inception_5b/output
I1012 21:07:00.041764 15992 net.cpp:477] inception_5b/output <- inception_5b/1x1
I1012 21:07:00.041766 15992 net.cpp:477] inception_5b/output <- inception_5b/3x3
I1012 21:07:00.041769 15992 net.cpp:477] inception_5b/output <- inception_5b/5x5
I1012 21:07:00.041772 15992 net.cpp:477] inception_5b/output <- inception_5b/pool_proj
I1012 21:07:00.041777 15992 net.cpp:433] inception_5b/output -> inception_5b/output
I1012 21:07:00.041784 15992 net.cpp:155] Setting up inception_5b/output
I1012 21:07:00.041787 15992 net.cpp:163] Top shape: 128 1024 7 7 (6422528)
I1012 21:07:00.041790 15992 layer_factory.hpp:76] Creating layer pool5/7x7_s1
I1012 21:07:00.041795 15992 net.cpp:110] Creating Layer pool5/7x7_s1
I1012 21:07:00.041797 15992 net.cpp:477] pool5/7x7_s1 <- inception_5b/output
I1012 21:07:00.041801 15992 net.cpp:433] pool5/7x7_s1 -> pool5/7x7_s1
I1012 21:07:00.041806 15992 net.cpp:155] Setting up pool5/7x7_s1
I1012 21:07:00.041810 15992 net.cpp:163] Top shape: 128 1024 1 1 (131072)
I1012 21:07:00.041812 15992 layer_factory.hpp:76] Creating layer fc6
I1012 21:07:00.041820 15992 net.cpp:110] Creating Layer fc6
I1012 21:07:00.041822 15992 net.cpp:477] fc6 <- pool5/7x7_s1
I1012 21:07:00.041826 15992 net.cpp:433] fc6 -> fc6
I1012 21:07:00.042810 15992 net.cpp:155] Setting up fc6
I1012 21:07:00.042817 15992 net.cpp:163] Top shape: 128 1000 (128000)
I1012 21:07:00.042824 15992 layer_factory.hpp:76] Creating layer fc6/relu
I1012 21:07:00.042829 15992 net.cpp:110] Creating Layer fc6/relu
I1012 21:07:00.042832 15992 net.cpp:477] fc6/relu <- fc6
I1012 21:07:00.042835 15992 net.cpp:419] fc6/relu -> fc6 (in-place)
I1012 21:07:00.042840 15992 net.cpp:155] Setting up fc6/relu
I1012 21:07:00.042843 15992 net.cpp:163] Top shape: 128 1000 (128000)
I1012 21:07:00.042846 15992 net.cpp:240] fc6/relu does not need backward computation.
I1012 21:07:00.042850 15992 net.cpp:240] fc6 does not need backward computation.
I1012 21:07:00.042852 15992 net.cpp:240] pool5/7x7_s1 does not need backward computation.
I1012 21:07:00.042855 15992 net.cpp:240] inception_5b/output does not need backward computation.
I1012 21:07:00.042860 15992 net.cpp:240] inception_5b/relu_pool_proj does not need backward computation.
…
