…
I0228 23:02:01.243541 24534 upgrade_proto.cpp:65] Attempting to upgrade input file specified using deprecated input fields: ./imagenet_winners/overfeat.prototxt
I0228 23:02:01.243548 24534 upgrade_proto.cpp:68] Successfully upgraded file specified using deprecated input fields.
W0228 23:02:01.243551 24534 upgrade_proto.cpp:70] Note that future Caffe releases will only support input layers and not input fields.
I0228 23:02:01.243683 24534 net.cpp:49] Initializing net from parameters: 
name: "overfeat"
force_backward: true
state {
  phase: TRAIN
}
layer {
  name: "input"
  type: "Input"
  top: "data"
  input_param {
    shape {
      dim: 128
      dim: 3
      dim: 231
      dim: 231
    }
  }
}
layer {
  name: "conv1/11x11_s4"
  type: "Convolution"
  bottom: "data"
  top: "conv1/11x11_s4"
  param {
    lr_mult: 1
    decay_mult: 1
  }
  param {
    lr_mult: 2
    decay_mult: 0
  }
  convolution_param {
    num_output: 96
    kernel_size: 11
    stride: 4
    weight_filler {
      type: "xavier"
      std: 0.1
    }
    bias_filler {
      type: "constant"
      value: 0.2
    }
  }
}
layer {
  name: "conv1/relu"
  type: "ReLU"
  bottom: "conv1/11x11_s4"
  top: "conv1/11x11_s4"
}
layer {
  name: "pool1/2x2_s2"
  type: "Pooling"
  bottom: "conv1/11x11_s4"
  top: "pool1/2x2_s2"
  pooling_param {
    pool: MAX
    kernel_size: 2
    stride: 2
  }
}
layer {
  name: "conv2/5x5_s1"
  type: "Convolution"
  bottom: "pool1/2x2_s2"
  top: "conv2/5x5_s1"
  param {
    lr_mult: 1
    decay_mult: 1
  }
  param {
    lr_mult: 2
    decay_mult: 0
  }
  convolution_param {
    num_output: 256
    kernel_size: 5
    stride: 1
    weight_filler {
      type: "xavier"
      std: 0.1
    }
    bias_filler {
      type: "constant"
      value: 0.2
    }
  }
}
layer {
  name: "conv2/relu"
  type: "ReLU"
  bottom: "conv2/5x5_s1"
  top: "conv2/5x5_s1"
}
layer {
  name: "pool2/2x2_s2"
  type: "Pooling"
  bottom: "conv2/5x5_s1"
  top: "pool2/2x2_s2"
  pooling_param {
    pool: MAX
    kernel_size: 2
    stride: 2
  }
}
layer {
  name: "conv3/3x3_s1"
  type: "Convolution"
  bottom: "pool2/2x2_s2"
  top: "conv3/3x3_s1"
  param {
    lr_mult: 1
    decay_mult: 1
  }
  param {
    lr_mult: 2
    decay_mult: 0
  }
  convolution_param {
    num_output: 512
    pad: 1
    kernel_size: 3
    stride: 1
    weight_filler {
      type: "xavier"
      std: 0.1
    }
    bias_filler {
      type: "constant"
      value: 0.2
    }
  }
}
layer {
  name: "conv3/relu"
  type: "ReLU"
  bottom: "conv3/3x3_s1"
  top: "conv3/3x3_s1"
}
layer {
  name: "conv4/3x3_s1"
  type: "Convolution"
  bottom: "conv3/3x3_s1"
  top: "conv4/3x3_s1"
  param {
    lr_mult: 1
    decay_mult: 1
  }
  param {
    lr_mult: 2
    decay_mult: 0
  }
  convolution_param {
    num_output: 1024
    pad: 1
    kernel_size: 3
    stride: 1
    weight_filler {
      type: "xavier"
      std: 0.1
    }
    bias_filler {
      type: "constant"
      value: 0.2
    }
  }
}
layer {
  name: "conv4/relu"
  type: "ReLU"
  bottom: "conv4/3x3_s1"
  top: "conv4/3x3_s1"
}
layer {
  name: "conv5/3x3_s1"
  type: "Convolution"
  bottom: "conv4/3x3_s1"
  top: "conv5/3x3_s1"
  param {
    lr_mult: 1
    decay_mult: 1
  }
  param {
    lr_mult: 2
    decay_mult: 0
  }
  convolution_param {
    num_output: 1024
    pad: 1
    kernel_size: 3
    stride: 1
    weight_filler {
      type: "xavier"
      std: 0.1
    }
    bias_filler {
      type: "constant"
      value: 0.2
    }
  }
}
layer {
  name: "conv5/relu"
  type: "ReLU"
  bottom: "conv5/3x3_s1"
  top: "conv5/3x3_s1"
}
layer {
  name: "pool5/2x2_s2"
  type: "Pooling"
  bottom: "conv5/3x3_s1"
  top: "pool5/2x2_s2"
  pooling_param {
    pool: MAX
    kernel_size: 2
    stride: 2
  }
}
layer {
  name: "fc6"
  type: "InnerProduct"
  bottom: "pool5/2x2_s2"
  top: "fc6"
  inner_product_param {
    num_output: 3072
  }
}
layer {
  name: "fc7"
  type: "InnerProduct"
  bottom: "fc6"
  top: "fc7"
  inner_product_param {
    num_output: 4096
  }
}
layer {
  name: "fc8"
  type: "InnerProduct"
  bottom: "fc7"
  top: "fc8"
  inner_product_param {
    num_output: 1000
  }
}
I0228 23:02:01.243755 24534 layer_factory.hpp:77] Creating layer input
I0228 23:02:01.243775 24534 net.cpp:91] Creating Layer input
I0228 23:02:01.243779 24534 net.cpp:399] input -> data
I0228 23:02:01.249866 24534 net.cpp:141] Setting up input
I0228 23:02:01.249888 24534 net.cpp:148] Top shape: 128 3 231 231 (20490624)
I0228 23:02:01.249892 24534 net.cpp:156] Memory required for data: 81962496
I0228 23:02:01.249898 24534 layer_factory.hpp:77] Creating layer conv1/11x11_s4
I0228 23:02:01.249915 24534 net.cpp:91] Creating Layer conv1/11x11_s4
I0228 23:02:01.249920 24534 net.cpp:425] conv1/11x11_s4 <- data
I0228 23:02:01.249927 24534 net.cpp:399] conv1/11x11_s4 -> conv1/11x11_s4
I0228 23:02:01.386718 24534 net.cpp:141] Setting up conv1/11x11_s4
I0228 23:02:01.386745 24534 net.cpp:148] Top shape: 128 96 56 56 (38535168)
I0228 23:02:01.386749 24534 net.cpp:156] Memory required for data: 236103168
I0228 23:02:01.386765 24534 layer_factory.hpp:77] Creating layer conv1/relu
I0228 23:02:01.386775 24534 net.cpp:91] Creating Layer conv1/relu
I0228 23:02:01.386780 24534 net.cpp:425] conv1/relu <- conv1/11x11_s4
I0228 23:02:01.386783 24534 net.cpp:386] conv1/relu -> conv1/11x11_s4 (in-place)
I0228 23:02:01.387037 24534 net.cpp:141] Setting up conv1/relu
I0228 23:02:01.387048 24534 net.cpp:148] Top shape: 128 96 56 56 (38535168)
I0228 23:02:01.387050 24534 net.cpp:156] Memory required for data: 390243840
I0228 23:02:01.387053 24534 layer_factory.hpp:77] Creating layer pool1/2x2_s2
I0228 23:02:01.387060 24534 net.cpp:91] Creating Layer pool1/2x2_s2
I0228 23:02:01.387063 24534 net.cpp:425] pool1/2x2_s2 <- conv1/11x11_s4
I0228 23:02:01.387068 24534 net.cpp:399] pool1/2x2_s2 -> pool1/2x2_s2
I0228 23:02:01.387104 24534 net.cpp:141] Setting up pool1/2x2_s2
I0228 23:02:01.387110 24534 net.cpp:148] Top shape: 128 96 28 28 (9633792)
I0228 23:02:01.387114 24534 net.cpp:156] Memory required for data: 428779008
I0228 23:02:01.387115 24534 layer_factory.hpp:77] Creating layer conv2/5x5_s1
I0228 23:02:01.387125 24534 net.cpp:91] Creating Layer conv2/5x5_s1
I0228 23:02:01.387128 24534 net.cpp:425] conv2/5x5_s1 <- pool1/2x2_s2
I0228 23:02:01.387132 24534 net.cpp:399] conv2/5x5_s1 -> conv2/5x5_s1
I0228 23:02:01.391953 24534 net.cpp:141] Setting up conv2/5x5_s1
I0228 23:02:01.391965 24534 net.cpp:148] Top shape: 128 256 24 24 (18874368)
I0228 23:02:01.391968 24534 net.cpp:156] Memory required for data: 504276480
I0228 23:02:01.391975 24534 layer_factory.hpp:77] Creating layer conv2/relu
I0228 23:02:01.391983 24534 net.cpp:91] Creating Layer conv2/relu
I0228 23:02:01.391985 24534 net.cpp:425] conv2/relu <- conv2/5x5_s1
I0228 23:02:01.391989 24534 net.cpp:386] conv2/relu -> conv2/5x5_s1 (in-place)
I0228 23:02:01.392232 24534 net.cpp:141] Setting up conv2/relu
I0228 23:02:01.392242 24534 net.cpp:148] Top shape: 128 256 24 24 (18874368)
I0228 23:02:01.392246 24534 net.cpp:156] Memory required for data: 579773952
I0228 23:02:01.392248 24534 layer_factory.hpp:77] Creating layer pool2/2x2_s2
I0228 23:02:01.392254 24534 net.cpp:91] Creating Layer pool2/2x2_s2
I0228 23:02:01.392257 24534 net.cpp:425] pool2/2x2_s2 <- conv2/5x5_s1
I0228 23:02:01.392262 24534 net.cpp:399] pool2/2x2_s2 -> pool2/2x2_s2
I0228 23:02:01.392293 24534 net.cpp:141] Setting up pool2/2x2_s2
I0228 23:02:01.392298 24534 net.cpp:148] Top shape: 128 256 12 12 (4718592)
I0228 23:02:01.392302 24534 net.cpp:156] Memory required for data: 598648320
I0228 23:02:01.392305 24534 layer_factory.hpp:77] Creating layer conv3/3x3_s1
I0228 23:02:01.392312 24534 net.cpp:91] Creating Layer conv3/3x3_s1
I0228 23:02:01.392314 24534 net.cpp:425] conv3/3x3_s1 <- pool2/2x2_s2
I0228 23:02:01.392319 24534 net.cpp:399] conv3/3x3_s1 -> conv3/3x3_s1
I0228 23:02:01.400120 24534 net.cpp:141] Setting up conv3/3x3_s1
I0228 23:02:01.400141 24534 net.cpp:148] Top shape: 128 512 12 12 (9437184)
I0228 23:02:01.400144 24534 net.cpp:156] Memory required for data: 636397056
I0228 23:02:01.400151 24534 layer_factory.hpp:77] Creating layer conv3/relu
I0228 23:02:01.400157 24534 net.cpp:91] Creating Layer conv3/relu
I0228 23:02:01.400161 24534 net.cpp:425] conv3/relu <- conv3/3x3_s1
I0228 23:02:01.400167 24534 net.cpp:386] conv3/relu -> conv3/3x3_s1 (in-place)
I0228 23:02:01.400307 24534 net.cpp:141] Setting up conv3/relu
I0228 23:02:01.400315 24534 net.cpp:148] Top shape: 128 512 12 12 (9437184)
I0228 23:02:01.400317 24534 net.cpp:156] Memory required for data: 674145792
I0228 23:02:01.400321 24534 layer_factory.hpp:77] Creating layer conv4/3x3_s1
I0228 23:02:01.400328 24534 net.cpp:91] Creating Layer conv4/3x3_s1
I0228 23:02:01.400331 24534 net.cpp:425] conv4/3x3_s1 <- conv3/3x3_s1
I0228 23:02:01.400336 24534 net.cpp:399] conv4/3x3_s1 -> conv4/3x3_s1
I0228 23:02:01.429241 24534 net.cpp:141] Setting up conv4/3x3_s1
I0228 23:02:01.429275 24534 net.cpp:148] Top shape: 128 1024 12 12 (18874368)
I0228 23:02:01.429282 24534 net.cpp:156] Memory required for data: 749643264
I0228 23:02:01.429292 24534 layer_factory.hpp:77] Creating layer conv4/relu
I0228 23:02:01.429306 24534 net.cpp:91] Creating Layer conv4/relu
I0228 23:02:01.429312 24534 net.cpp:425] conv4/relu <- conv4/3x3_s1
I0228 23:02:01.429321 24534 net.cpp:386] conv4/relu -> conv4/3x3_s1 (in-place)
I0228 23:02:01.429625 24534 net.cpp:141] Setting up conv4/relu
I0228 23:02:01.429636 24534 net.cpp:148] Top shape: 128 1024 12 12 (18874368)
I0228 23:02:01.429639 24534 net.cpp:156] Memory required for data: 825140736
I0228 23:02:01.429642 24534 layer_factory.hpp:77] Creating layer conv5/3x3_s1
I0228 23:02:01.429652 24534 net.cpp:91] Creating Layer conv5/3x3_s1
I0228 23:02:01.429656 24534 net.cpp:425] conv5/3x3_s1 <- conv4/3x3_s1
I0228 23:02:01.429661 24534 net.cpp:399] conv5/3x3_s1 -> conv5/3x3_s1
I0228 23:02:01.486037 24534 net.cpp:141] Setting up conv5/3x3_s1
I0228 23:02:01.486064 24534 net.cpp:148] Top shape: 128 1024 12 12 (18874368)
I0228 23:02:01.486068 24534 net.cpp:156] Memory required for data: 900638208
I0228 23:02:01.486081 24534 layer_factory.hpp:77] Creating layer conv5/relu
I0228 23:02:01.486090 24534 net.cpp:91] Creating Layer conv5/relu
I0228 23:02:01.486094 24534 net.cpp:425] conv5/relu <- conv5/3x3_s1
I0228 23:02:01.486099 24534 net.cpp:386] conv5/relu -> conv5/3x3_s1 (in-place)
I0228 23:02:01.486372 24534 net.cpp:141] Setting up conv5/relu
I0228 23:02:01.486383 24534 net.cpp:148] Top shape: 128 1024 12 12 (18874368)
I0228 23:02:01.486387 24534 net.cpp:156] Memory required for data: 976135680
I0228 23:02:01.486390 24534 layer_factory.hpp:77] Creating layer pool5/2x2_s2
I0228 23:02:01.486397 24534 net.cpp:91] Creating Layer pool5/2x2_s2
I0228 23:02:01.486399 24534 net.cpp:425] pool5/2x2_s2 <- conv5/3x3_s1
I0228 23:02:01.486403 24534 net.cpp:399] pool5/2x2_s2 -> pool5/2x2_s2
I0228 23:02:01.486441 24534 net.cpp:141] Setting up pool5/2x2_s2
I0228 23:02:01.486446 24534 net.cpp:148] Top shape: 128 1024 6 6 (4718592)
I0228 23:02:01.486449 24534 net.cpp:156] Memory required for data: 995010048
I0228 23:02:01.486451 24534 layer_factory.hpp:77] Creating layer fc6
I0228 23:02:01.486457 24534 net.cpp:91] Creating Layer fc6
I0228 23:02:01.486459 24534 net.cpp:425] fc6 <- pool5/2x2_s2
I0228 23:02:01.486464 24534 net.cpp:399] fc6 -> fc6
I0228 23:02:01.685596 24534 net.cpp:141] Setting up fc6
I0228 23:02:01.685626 24534 net.cpp:148] Top shape: 128 3072 (393216)
I0228 23:02:01.685629 24534 net.cpp:156] Memory required for data: 996582912
I0228 23:02:01.685638 24534 layer_factory.hpp:77] Creating layer fc7
I0228 23:02:01.685647 24534 net.cpp:91] Creating Layer fc7
I0228 23:02:01.685652 24534 net.cpp:425] fc7 <- fc6
I0228 23:02:01.685657 24534 net.cpp:399] fc7 -> fc7
I0228 23:02:01.707695 24534 net.cpp:141] Setting up fc7
I0228 23:02:01.707725 24534 net.cpp:148] Top shape: 128 4096 (524288)
I0228 23:02:01.707727 24534 net.cpp:156] Memory required for data: 998680064
I0228 23:02:01.707744 24534 layer_factory.hpp:77] Creating layer fc8
I0228 23:02:01.707757 24534 net.cpp:91] Creating Layer fc8
I0228 23:02:01.707762 24534 net.cpp:425] fc8 <- fc7
I0228 23:02:01.707767 24534 net.cpp:399] fc8 -> fc8
I0228 23:02:01.714983 24534 net.cpp:141] Setting up fc8
I0228 23:02:01.715009 24534 net.cpp:148] Top shape: 128 1000 (128000)
I0228 23:02:01.715013 24534 net.cpp:156] Memory required for data: 999192064
I0228 23:02:01.715021 24534 net.cpp:219] fc8 does not need backward computation.
I0228 23:02:01.715025 24534 net.cpp:219] fc7 does not need backward computation.
I0228 23:02:01.715029 24534 net.cpp:219] fc6 does not need backward computation.
I0228 23:02:01.715031 24534 net.cpp:219] pool5/2x2_s2 does not need backward computation.
…
