…
E0417 00:33:49.196488 28783 upgrade_proto.cpp:618] Attempting to upgrade input file specified using deprecated V1LayerParameter: ./imagenet_winners/vgg_a.prototxt
E0417 00:33:49.196538 28783 upgrade_proto.cpp:636] Input NetParameter to be upgraded already specifies 'layer' fields; these will be ignored for the upgrade.
E0417 00:33:49.196580 28783 upgrade_proto.cpp:623] Warning: had one or more problems upgrading V1LayerParameter (see above); continuing anyway.
I0417 00:33:49.196755 28783 net.cpp:42] Initializing net from parameters: 
name: "vgg_a"
input: "data"
input_dim: 64
input_dim: 3
input_dim: 224
input_dim: 224
force_backward: true
state {
  phase: TRAIN
}
layer {
  name: "conv1/3x3_s1"
  type: "Convolution"
  bottom: "data"
  top: "conv1/3x3_s1"
  param {
    lr_mult: 1
    decay_mult: 1
  }
  param {
    lr_mult: 2
    decay_mult: 0
  }
  convolution_param {
    num_output: 64
    kernel_size: 3
    stride: 1
    weight_filler {
      type: "xavier"
      std: 0.1
    }
    bias_filler {
      type: "constant"
      value: 0.2
    }
  }
}
layer {
  name: "conv1/relu"
  type: "ReLU"
  bottom: "conv1/3x3_s1"
  top: "conv1/3x3_s1"
}
layer {
  name: "pool1/2x2_s2"
  type: "Pooling"
  bottom: "conv1/3x3_s1"
  top: "pool1/2x2_s2"
  pooling_param {
    pool: MAX
    kernel_size: 2
    stride: 2
  }
}
layer {
  name: "conv2/3x3_s1"
  type: "Convolution"
  bottom: "pool1/2x2_s2"
  top: "conv2/3x3_s1"
  param {
    lr_mult: 1
    decay_mult: 1
  }
  param {
    lr_mult: 2
    decay_mult: 0
  }
  convolution_param {
    num_output: 128
    pad: 1
    kernel_size: 3
    stride: 1
    weight_filler {
      type: "xavier"
      std: 0.1
    }
    bias_filler {
      type: "constant"
      value: 0.2
    }
  }
}
layer {
  name: "conv2/relu"
  type: "ReLU"
  bottom: "conv2/3x3_s1"
  top: "conv2/3x3_s1"
}
layer {
  name: "pool2/2x2_s2"
  type: "Pooling"
  bottom: "conv2/3x3_s1"
  top: "pool2/2x2_s2"
  pooling_param {
    pool: MAX
    kernel_size: 2
    stride: 2
  }
}
layer {
  name: "conv3/3x3_s1"
  type: "Convolution"
  bottom: "pool2/2x2_s2"
  top: "conv3/3x3_s1"
  param {
    lr_mult: 1
    decay_mult: 1
  }
  param {
    lr_mult: 2
    decay_mult: 0
  }
  convolution_param {
    num_output: 256
    pad: 1
    kernel_size: 3
    stride: 1
    weight_filler {
      type: "xavier"
      std: 0.1
    }
    bias_filler {
      type: "constant"
      value: 0.2
    }
  }
}
layer {
  name: "conv3/relu"
  type: "ReLU"
  bottom: "conv3/3x3_s1"
  top: "conv3/3x3_s1"
}
layer {
  name: "conv4/3x3_s1"
  type: "Convolution"
  bottom: "conv3/3x3_s1"
  top: "conv4/3x3_s1"
  param {
    lr_mult: 1
    decay_mult: 1
  }
  param {
    lr_mult: 2
    decay_mult: 0
  }
  convolution_param {
    num_output: 256
    pad: 1
    kernel_size: 3
    stride: 1
    weight_filler {
      type: "xavier"
      std: 0.1
    }
    bias_filler {
      type: "constant"
      value: 0.2
    }
  }
}
layer {
  name: "conv4/relu"
  type: "ReLU"
  bottom: "conv4/3x3_s1"
  top: "conv4/3x3_s1"
}
layer {
  name: "pool3/2x2_s2"
  type: "Pooling"
  bottom: "conv4/3x3_s1"
  top: "pool3/2x2_s2"
  pooling_param {
    pool: MAX
    kernel_size: 2
    stride: 2
  }
}
layer {
  name: "conv5/3x3_s1"
  type: "Convolution"
  bottom: "pool3/2x2_s2"
  top: "conv5/3x3_s1"
  param {
    lr_mult: 1
    decay_mult: 1
  }
  param {
    lr_mult: 2
    decay_mult: 0
  }
  convolution_param {
    num_output: 512
    pad: 1
    kernel_size: 3
    stride: 1
    weight_filler {
      type: "xavier"
      std: 0.1
    }
    bias_filler {
      type: "constant"
      value: 0.2
    }
  }
}
layer {
  name: "conv5/relu"
  type: "ReLU"
  bottom: "conv5/3x3_s1"
  top: "conv5/3x3_s1"
}
layer {
  name: "conv6/3x3_s1"
  type: "Convolution"
  bottom: "conv5/3x3_s1"
  top: "conv6/3x3_s1"
  param {
    lr_mult: 1
    decay_mult: 1
  }
  param {
    lr_mult: 2
    decay_mult: 0
  }
  convolution_param {
    num_output: 512
    pad: 1
    kernel_size: 3
    stride: 1
    weight_filler {
      type: "xavier"
      std: 0.1
    }
    bias_filler {
      type: "constant"
      value: 0.2
    }
  }
}
layer {
  name: "conv6/relu"
  type: "ReLU"
  bottom: "conv6/3x3_s1"
  top: "conv6/3x3_s1"
}
layer {
  name: "pool4/2x2_s2"
  type: "Pooling"
  bottom: "conv6/3x3_s1"
  top: "pool4/2x2_s2"
  pooling_param {
    pool: MAX
    kernel_size: 2
    stride: 2
  }
}
layer {
  name: "conv7/3x3_s1"
  type: "Convolution"
  bottom: "pool4/2x2_s2"
  top: "conv7/3x3_s1"
  param {
    lr_mult: 1
    decay_mult: 1
  }
  param {
    lr_mult: 2
    decay_mult: 0
  }
  convolution_param {
    num_output: 512
    pad: 1
    kernel_size: 3
    stride: 1
    weight_filler {
      type: "xavier"
      std: 0.1
    }
    bias_filler {
      type: "constant"
      value: 0.2
    }
  }
}
layer {
  name: "conv7/relu"
  type: "ReLU"
  bottom: "conv7/3x3_s1"
  top: "conv7/3x3_s1"
}
layer {
  name: "conv8/3x3_s1"
  type: "Convolution"
  bottom: "conv7/3x3_s1"
  top: "conv8/3x3_s1"
  param {
    lr_mult: 1
    decay_mult: 1
  }
  param {
    lr_mult: 2
    decay_mult: 0
  }
  convolution_param {
    num_output: 512
    pad: 1
    kernel_size: 3
    stride: 1
    weight_filler {
      type: "xavier"
      std: 0.1
    }
    bias_filler {
      type: "constant"
      value: 0.2
    }
  }
}
layer {
  name: "conv8/relu"
  type: "ReLU"
  bottom: "conv8/3x3_s1"
  top: "conv8/3x3_s1"
}
layer {
  name: "pool5/2x2_s2"
  type: "Pooling"
  bottom: "conv8/3x3_s1"
  top: "pool5/2x2_s2"
  pooling_param {
    pool: MAX
    kernel_size: 2
    stride: 2
  }
}
I0417 00:33:49.196830 28783 net.cpp:340] Input 0 -> data
I0417 00:33:49.196857 28783 layer_factory.hpp:74] Creating layer conv1/3x3_s1
I0417 00:33:49.196873 28783 net.cpp:84] Creating Layer conv1/3x3_s1
I0417 00:33:49.196878 28783 net.cpp:380] conv1/3x3_s1 <- data
I0417 00:33:49.196884 28783 net.cpp:338] conv1/3x3_s1 -> conv1/3x3_s1
I0417 00:33:49.196892 28783 net.cpp:113] Setting up conv1/3x3_s1
I0417 00:33:49.197418 28783 net.cpp:120] Top shape: 64 64 222 222 (201867264)
I0417 00:33:49.197433 28783 layer_factory.hpp:74] Creating layer conv1/relu
I0417 00:33:49.197440 28783 net.cpp:84] Creating Layer conv1/relu
I0417 00:33:49.197443 28783 net.cpp:380] conv1/relu <- conv1/3x3_s1
I0417 00:33:49.197448 28783 net.cpp:327] conv1/relu -> conv1/3x3_s1 (in-place)
I0417 00:33:49.197453 28783 net.cpp:113] Setting up conv1/relu
I0417 00:33:49.197461 28783 net.cpp:120] Top shape: 64 64 222 222 (201867264)
I0417 00:33:49.197464 28783 layer_factory.hpp:74] Creating layer pool1/2x2_s2
I0417 00:33:49.197469 28783 net.cpp:84] Creating Layer pool1/2x2_s2
I0417 00:33:49.197471 28783 net.cpp:380] pool1/2x2_s2 <- conv1/3x3_s1
I0417 00:33:49.197475 28783 net.cpp:338] pool1/2x2_s2 -> pool1/2x2_s2
I0417 00:33:49.197480 28783 net.cpp:113] Setting up pool1/2x2_s2
I0417 00:33:49.197491 28783 net.cpp:120] Top shape: 64 64 111 111 (50466816)
I0417 00:33:49.197495 28783 layer_factory.hpp:74] Creating layer conv2/3x3_s1
I0417 00:33:49.197500 28783 net.cpp:84] Creating Layer conv2/3x3_s1
I0417 00:33:49.197502 28783 net.cpp:380] conv2/3x3_s1 <- pool1/2x2_s2
I0417 00:33:49.197506 28783 net.cpp:338] conv2/3x3_s1 -> conv2/3x3_s1
I0417 00:33:49.197512 28783 net.cpp:113] Setting up conv2/3x3_s1
I0417 00:33:49.198077 28783 net.cpp:120] Top shape: 64 128 111 111 (100933632)
I0417 00:33:49.198087 28783 layer_factory.hpp:74] Creating layer conv2/relu
I0417 00:33:49.198093 28783 net.cpp:84] Creating Layer conv2/relu
I0417 00:33:49.198096 28783 net.cpp:380] conv2/relu <- conv2/3x3_s1
I0417 00:33:49.198101 28783 net.cpp:327] conv2/relu -> conv2/3x3_s1 (in-place)
I0417 00:33:49.198106 28783 net.cpp:113] Setting up conv2/relu
I0417 00:33:49.198109 28783 net.cpp:120] Top shape: 64 128 111 111 (100933632)
I0417 00:33:49.198112 28783 layer_factory.hpp:74] Creating layer pool2/2x2_s2
I0417 00:33:49.198117 28783 net.cpp:84] Creating Layer pool2/2x2_s2
I0417 00:33:49.198120 28783 net.cpp:380] pool2/2x2_s2 <- conv2/3x3_s1
I0417 00:33:49.198124 28783 net.cpp:338] pool2/2x2_s2 -> pool2/2x2_s2
I0417 00:33:49.198129 28783 net.cpp:113] Setting up pool2/2x2_s2
I0417 00:33:49.198137 28783 net.cpp:120] Top shape: 64 128 56 56 (25690112)
I0417 00:33:49.198145 28783 layer_factory.hpp:74] Creating layer conv3/3x3_s1
I0417 00:33:49.198151 28783 net.cpp:84] Creating Layer conv3/3x3_s1
I0417 00:33:49.198153 28783 net.cpp:380] conv3/3x3_s1 <- pool2/2x2_s2
I0417 00:33:49.198158 28783 net.cpp:338] conv3/3x3_s1 -> conv3/3x3_s1
I0417 00:33:49.198163 28783 net.cpp:113] Setting up conv3/3x3_s1
I0417 00:33:49.200078 28783 net.cpp:120] Top shape: 64 256 56 56 (51380224)
I0417 00:33:49.200090 28783 layer_factory.hpp:74] Creating layer conv3/relu
I0417 00:33:49.200095 28783 net.cpp:84] Creating Layer conv3/relu
I0417 00:33:49.200098 28783 net.cpp:380] conv3/relu <- conv3/3x3_s1
I0417 00:33:49.200103 28783 net.cpp:327] conv3/relu -> conv3/3x3_s1 (in-place)
I0417 00:33:49.200106 28783 net.cpp:113] Setting up conv3/relu
I0417 00:33:49.200110 28783 net.cpp:120] Top shape: 64 256 56 56 (51380224)
I0417 00:33:49.200114 28783 layer_factory.hpp:74] Creating layer conv4/3x3_s1
I0417 00:33:49.200120 28783 net.cpp:84] Creating Layer conv4/3x3_s1
I0417 00:33:49.200124 28783 net.cpp:380] conv4/3x3_s1 <- conv3/3x3_s1
I0417 00:33:49.200127 28783 net.cpp:338] conv4/3x3_s1 -> conv4/3x3_s1
I0417 00:33:49.200132 28783 net.cpp:113] Setting up conv4/3x3_s1
I0417 00:33:49.203821 28783 net.cpp:120] Top shape: 64 256 56 56 (51380224)
I0417 00:33:49.203832 28783 layer_factory.hpp:74] Creating layer conv4/relu
I0417 00:33:49.203837 28783 net.cpp:84] Creating Layer conv4/relu
I0417 00:33:49.203840 28783 net.cpp:380] conv4/relu <- conv4/3x3_s1
I0417 00:33:49.203845 28783 net.cpp:327] conv4/relu -> conv4/3x3_s1 (in-place)
I0417 00:33:49.203850 28783 net.cpp:113] Setting up conv4/relu
I0417 00:33:49.203853 28783 net.cpp:120] Top shape: 64 256 56 56 (51380224)
I0417 00:33:49.203856 28783 layer_factory.hpp:74] Creating layer pool3/2x2_s2
I0417 00:33:49.203860 28783 net.cpp:84] Creating Layer pool3/2x2_s2
I0417 00:33:49.203862 28783 net.cpp:380] pool3/2x2_s2 <- conv4/3x3_s1
I0417 00:33:49.203867 28783 net.cpp:338] pool3/2x2_s2 -> pool3/2x2_s2
I0417 00:33:49.203871 28783 net.cpp:113] Setting up pool3/2x2_s2
I0417 00:33:49.203877 28783 net.cpp:120] Top shape: 64 256 28 28 (12845056)
I0417 00:33:49.203881 28783 layer_factory.hpp:74] Creating layer conv5/3x3_s1
I0417 00:33:49.203884 28783 net.cpp:84] Creating Layer conv5/3x3_s1
I0417 00:33:49.203887 28783 net.cpp:380] conv5/3x3_s1 <- pool3/2x2_s2
I0417 00:33:49.203892 28783 net.cpp:338] conv5/3x3_s1 -> conv5/3x3_s1
I0417 00:33:49.203898 28783 net.cpp:113] Setting up conv5/3x3_s1
I0417 00:33:49.210546 28783 net.cpp:120] Top shape: 64 512 28 28 (25690112)
I0417 00:33:49.210558 28783 layer_factory.hpp:74] Creating layer conv5/relu
I0417 00:33:49.210564 28783 net.cpp:84] Creating Layer conv5/relu
I0417 00:33:49.210567 28783 net.cpp:380] conv5/relu <- conv5/3x3_s1
I0417 00:33:49.210573 28783 net.cpp:327] conv5/relu -> conv5/3x3_s1 (in-place)
I0417 00:33:49.210577 28783 net.cpp:113] Setting up conv5/relu
I0417 00:33:49.210582 28783 net.cpp:120] Top shape: 64 512 28 28 (25690112)
I0417 00:33:49.210584 28783 layer_factory.hpp:74] Creating layer conv6/3x3_s1
I0417 00:33:49.210589 28783 net.cpp:84] Creating Layer conv6/3x3_s1
I0417 00:33:49.210592 28783 net.cpp:380] conv6/3x3_s1 <- conv5/3x3_s1
I0417 00:33:49.210597 28783 net.cpp:338] conv6/3x3_s1 -> conv6/3x3_s1
I0417 00:33:49.210602 28783 net.cpp:113] Setting up conv6/3x3_s1
I0417 00:33:49.224231 28783 net.cpp:120] Top shape: 64 512 28 28 (25690112)
I0417 00:33:49.224252 28783 layer_factory.hpp:74] Creating layer conv6/relu
I0417 00:33:49.224259 28783 net.cpp:84] Creating Layer conv6/relu
I0417 00:33:49.224263 28783 net.cpp:380] conv6/relu <- conv6/3x3_s1
I0417 00:33:49.224267 28783 net.cpp:327] conv6/relu -> conv6/3x3_s1 (in-place)
I0417 00:33:49.224273 28783 net.cpp:113] Setting up conv6/relu
I0417 00:33:49.224277 28783 net.cpp:120] Top shape: 64 512 28 28 (25690112)
I0417 00:33:49.224280 28783 layer_factory.hpp:74] Creating layer pool4/2x2_s2
I0417 00:33:49.224287 28783 net.cpp:84] Creating Layer pool4/2x2_s2
I0417 00:33:49.224289 28783 net.cpp:380] pool4/2x2_s2 <- conv6/3x3_s1
I0417 00:33:49.224293 28783 net.cpp:338] pool4/2x2_s2 -> pool4/2x2_s2
I0417 00:33:49.224304 28783 net.cpp:113] Setting up pool4/2x2_s2
I0417 00:33:49.224311 28783 net.cpp:120] Top shape: 64 512 14 14 (6422528)
I0417 00:33:49.224314 28783 layer_factory.hpp:74] Creating layer conv7/3x3_s1
I0417 00:33:49.224325 28783 net.cpp:84] Creating Layer conv7/3x3_s1
I0417 00:33:49.224328 28783 net.cpp:380] conv7/3x3_s1 <- pool4/2x2_s2
I0417 00:33:49.224333 28783 net.cpp:338] conv7/3x3_s1 -> conv7/3x3_s1
I0417 00:33:49.224337 28783 net.cpp:113] Setting up conv7/3x3_s1
I0417 00:33:49.237679 28783 net.cpp:120] Top shape: 64 512 14 14 (6422528)
I0417 00:33:49.237699 28783 layer_factory.hpp:74] Creating layer conv7/relu
I0417 00:33:49.237704 28783 net.cpp:84] Creating Layer conv7/relu
I0417 00:33:49.237707 28783 net.cpp:380] conv7/relu <- conv7/3x3_s1
I0417 00:33:49.237711 28783 net.cpp:327] conv7/relu -> conv7/3x3_s1 (in-place)
I0417 00:33:49.237716 28783 net.cpp:113] Setting up conv7/relu
I0417 00:33:49.237721 28783 net.cpp:120] Top shape: 64 512 14 14 (6422528)
I0417 00:33:49.237725 28783 layer_factory.hpp:74] Creating layer conv8/3x3_s1
I0417 00:33:49.237730 28783 net.cpp:84] Creating Layer conv8/3x3_s1
I0417 00:33:49.237732 28783 net.cpp:380] conv8/3x3_s1 <- conv7/3x3_s1
I0417 00:33:49.237738 28783 net.cpp:338] conv8/3x3_s1 -> conv8/3x3_s1
I0417 00:33:49.237743 28783 net.cpp:113] Setting up conv8/3x3_s1
I0417 00:33:49.251382 28783 net.cpp:120] Top shape: 64 512 14 14 (6422528)
I0417 00:33:49.251401 28783 layer_factory.hpp:74] Creating layer conv8/relu
I0417 00:33:49.251409 28783 net.cpp:84] Creating Layer conv8/relu
I0417 00:33:49.251411 28783 net.cpp:380] conv8/relu <- conv8/3x3_s1
I0417 00:33:49.251416 28783 net.cpp:327] conv8/relu -> conv8/3x3_s1 (in-place)
I0417 00:33:49.251421 28783 net.cpp:113] Setting up conv8/relu
I0417 00:33:49.251425 28783 net.cpp:120] Top shape: 64 512 14 14 (6422528)
I0417 00:33:49.251428 28783 layer_factory.hpp:74] Creating layer pool5/2x2_s2
I0417 00:33:49.251433 28783 net.cpp:84] Creating Layer pool5/2x2_s2
I0417 00:33:49.251436 28783 net.cpp:380] pool5/2x2_s2 <- conv8/3x3_s1
I0417 00:33:49.251441 28783 net.cpp:338] pool5/2x2_s2 -> pool5/2x2_s2
I0417 00:33:49.251446 28783 net.cpp:113] Setting up pool5/2x2_s2
I0417 00:33:49.251451 28783 net.cpp:120] Top shape: 64 512 7 7 (1605632)
I0417 00:33:49.251454 28783 net.cpp:169] pool5/2x2_s2 does not need backward computation.
I0417 00:33:49.251457 28783 net.cpp:169] conv8/relu does not need backward computation.
I0417 00:33:49.251459 28783 net.cpp:169] conv8/3x3_s1 does not need backward computation.
I0417 00:33:49.251462 28783 net.cpp:169] conv7/relu does not need backward computation.
I0417 00:33:49.251464 28783 net.cpp:169] conv7/3x3_s1 does not need backward computation.
…
