I1012 21:01:54.207479 15978 caffe.cpp:301] Use CPU.
I1012 21:01:54.208884 15978 upgrade_proto.cpp:618] Attempting to upgrade input file specified using deprecated V1LayerParameter: ./imagenet_winners/vgg_a.prototxt
I1012 21:01:54.208956 15978 upgrade_proto.cpp:626] Successfully upgraded file specified using deprecated V1LayerParameter
I1012 21:01:54.209143 15978 net.cpp:50] Initializing net from parameters: 
name: "vgg_a"
input: "data"
input_dim: 64
input_dim: 3
input_dim: 224
input_dim: 224
force_backward: true
state {
  phase: TRAIN
}
layer {
  name: "conv1/3x3_s1"
  type: "Convolution"
  bottom: "data"
  top: "conv1/3x3_s1"
  param {
    lr_mult: 1
    decay_mult: 1
  }
  param {
    lr_mult: 2
    decay_mult: 0
  }
  convolution_param {
    num_output: 64
    kernel_size: 3
    stride: 1
    weight_filler {
      type: "xavier"
      std: 0.1
    }
    bias_filler {
      type: "constant"
      value: 0.2
    }
  }
}
layer {
  name: "conv1/relu"
  type: "ReLU"
  bottom: "conv1/3x3_s1"
  top: "conv1/3x3_s1"
}
layer {
  name: "pool1/2x2_s2"
  type: "Pooling"
  bottom: "conv1/3x3_s1"
  top: "pool1/2x2_s2"
  pooling_param {
    pool: MAX
    kernel_size: 2
    stride: 2
  }
}
layer {
  name: "conv2/3x3_s1"
  type: "Convolution"
  bottom: "pool1/2x2_s2"
  top: "conv2/3x3_s1"
  param {
    lr_mult: 1
    decay_mult: 1
  }
  param {
    lr_mult: 2
    decay_mult: 0
  }
  convolution_param {
    num_output: 128
    pad: 1
    kernel_size: 3
    stride: 1
    weight_filler {
      type: "xavier"
      std: 0.1
    }
    bias_filler {
      type: "constant"
      value: 0.2
    }
  }
}
layer {
  name: "conv2/relu"
  type: "ReLU"
  bottom: "conv2/3x3_s1"
  top: "conv2/3x3_s1"
}
layer {
  name: "pool2/2x2_s2"
  type: "Pooling"
  bottom: "conv2/3x3_s1"
  top: "pool2/2x2_s2"
  pooling_param {
    pool: MAX
    kernel_size: 2
    stride: 2
  }
}
layer {
  name: "conv3/3x3_s1"
  type: "Convolution"
  bottom: "pool2/2x2_s2"
  top: "conv3/3x3_s1"
  param {
    lr_mult: 1
    decay_mult: 1
  }
  param {
    lr_mult: 2
    decay_mult: 0
  }
  convolution_param {
    num_output: 256
    pad: 1
    kernel_size: 3
    stride: 1
    weight_filler {
      type: "xavier"
      std: 0.1
    }
    bias_filler {
      type: "constant"
      value: 0.2
    }
  }
}
layer {
  name: "conv3/relu"
  type: "ReLU"
  bottom: "conv3/3x3_s1"
  top: "conv3/3x3_s1"
}
layer {
  name: "conv4/3x3_s1"
  type: "Convolution"
  bottom: "conv3/3x3_s1"
  top: "conv4/3x3_s1"
  param {
    lr_mult: 1
    decay_mult: 1
  }
  param {
    lr_mult: 2
    decay_mult: 0
  }
  convolution_param {
    num_output: 256
    pad: 1
    kernel_size: 3
    stride: 1
    weight_filler {
      type: "xavier"
      std: 0.1
    }
    bias_filler {
      type: "constant"
      value: 0.2
    }
  }
}
layer {
  name: "conv4/relu"
  type: "ReLU"
  bottom: "conv4/3x3_s1"
  top: "conv4/3x3_s1"
}
layer {
  name: "pool3/2x2_s2"
  type: "Pooling"
  bottom: "conv4/3x3_s1"
  top: "pool3/2x2_s2"
  pooling_param {
    pool: MAX
    kernel_size: 2
    stride: 2
  }
}
layer {
  name: "conv5/3x3_s1"
  type: "Convolution"
  bottom: "pool3/2x2_s2"
  top: "conv5/3x3_s1"
  param {
    lr_mult: 1
    decay_mult: 1
  }
  param {
    lr_mult: 2
    decay_mult: 0
  }
  convolution_param {
    num_output: 512
    pad: 1
    kernel_size: 3
    stride: 1
    weight_filler {
      type: "xavier"
      std: 0.1
    }
    bias_filler {
      type: "constant"
      value: 0.2
    }
  }
}
layer {
  name: "conv5/relu"
  type: "ReLU"
  bottom: "conv5/3x3_s1"
  top: "conv5/3x3_s1"
}
layer {
  name: "conv6/3x3_s1"
  type: "Convolution"
  bottom: "conv5/3x3_s1"
  top: "conv6/3x3_s1"
  param {
    lr_mult: 1
    decay_mult: 1
  }
  param {
    lr_mult: 2
    decay_mult: 0
  }
  convolution_param {
    num_output: 512
    pad: 1
    kernel_size: 3
    stride: 1
    weight_filler {
      type: "xavier"
      std: 0.1
    }
    bias_filler {
      type: "constant"
      value: 0.2
    }
  }
}
layer {
  name: "conv6/relu"
  type: "ReLU"
  bottom: "conv6/3x3_s1"
  top: "conv6/3x3_s1"
}
layer {
  name: "pool4/2x2_s2"
  type: "Pooling"
  bottom: "conv6/3x3_s1"
  top: "pool4/2x2_s2"
  pooling_param {
    pool: MAX
    kernel_size: 2
    stride: 2
  }
}
layer {
  name: "conv7/3x3_s1"
  type: "Convolution"
  bottom: "pool4/2x2_s2"
  top: "conv7/3x3_s1"
  param {
    lr_mult: 1
    decay_mult: 1
  }
  param {
    lr_mult: 2
    decay_mult: 0
  }
  convolution_param {
    num_output: 512
    pad: 1
    kernel_size: 3
    stride: 1
    weight_filler {
      type: "xavier"
      std: 0.1
    }
    bias_filler {
      type: "constant"
      value: 0.2
    }
  }
}
layer {
  name: "conv7/relu"
  type: "ReLU"
  bottom: "conv7/3x3_s1"
  top: "conv7/3x3_s1"
}
layer {
  name: "conv8/3x3_s1"
  type: "Convolution"
  bottom: "conv7/3x3_s1"
  top: "conv8/3x3_s1"
  param {
    lr_mult: 1
    decay_mult: 1
  }
  param {
    lr_mult: 2
    decay_mult: 0
  }
  convolution_param {
    num_output: 512
    pad: 1
    kernel_size: 3
    stride: 1
    weight_filler {
      type: "xavier"
      std: 0.1
    }
    bias_filler {
      type: "constant"
      value: 0.2
    }
  }
}
layer {
  name: "conv8/relu"
  type: "ReLU"
  bottom: "conv8/3x3_s1"
  top: "conv8/3x3_s1"
}
layer {
  name: "pool5/2x2_s2"
  type: "Pooling"
  bottom: "conv8/3x3_s1"
  top: "pool5/2x2_s2"
  pooling_param {
    pool: MAX
    kernel_size: 2
    stride: 2
  }
}
layer {
  name: "fc6"
  type: "InnerProduct"
  bottom: "pool5/2x2_s2"
  top: "fc6"
  inner_product_param {
    num_output: 4096
  }
}
layer {
  name: "fc7"
  type: "InnerProduct"
  bottom: "fc6"
  top: "fc7"
  inner_product_param {
    num_output: 4096
  }
}
layer {
  name: "fc8"
  type: "InnerProduct"
  bottom: "fc7"
  top: "fc8"
  inner_product_param {
    num_output: 1000
  }
}
I1012 21:01:54.209228 15978 net.cpp:435] Input 0 -> data
I1012 21:01:54.209259 15978 layer_factory.hpp:76] Creating layer conv1/3x3_s1
I1012 21:01:54.209269 15978 net.cpp:110] Creating Layer conv1/3x3_s1
I1012 21:01:54.209274 15978 net.cpp:477] conv1/3x3_s1 <- data
I1012 21:01:54.209280 15978 net.cpp:433] conv1/3x3_s1 -> conv1/3x3_s1
I1012 21:01:54.209657 15978 net.cpp:155] Setting up conv1/3x3_s1
I1012 21:01:54.209671 15978 net.cpp:163] Top shape: 64 64 222 222 (201867264)
I1012 21:01:54.209683 15978 layer_factory.hpp:76] Creating layer conv1/relu
I1012 21:01:54.209689 15978 net.cpp:110] Creating Layer conv1/relu
I1012 21:01:54.209692 15978 net.cpp:477] conv1/relu <- conv1/3x3_s1
I1012 21:01:54.209697 15978 net.cpp:419] conv1/relu -> conv1/3x3_s1 (in-place)
I1012 21:01:54.209705 15978 net.cpp:155] Setting up conv1/relu
I1012 21:01:54.209709 15978 net.cpp:163] Top shape: 64 64 222 222 (201867264)
I1012 21:01:54.209712 15978 layer_factory.hpp:76] Creating layer pool1/2x2_s2
I1012 21:01:54.209717 15978 net.cpp:110] Creating Layer pool1/2x2_s2
I1012 21:01:54.209720 15978 net.cpp:477] pool1/2x2_s2 <- conv1/3x3_s1
I1012 21:01:54.209724 15978 net.cpp:433] pool1/2x2_s2 -> pool1/2x2_s2
I1012 21:01:54.209734 15978 net.cpp:155] Setting up pool1/2x2_s2
I1012 21:01:54.209738 15978 net.cpp:163] Top shape: 64 64 111 111 (50466816)
I1012 21:01:54.209741 15978 layer_factory.hpp:76] Creating layer conv2/3x3_s1
I1012 21:01:54.209748 15978 net.cpp:110] Creating Layer conv2/3x3_s1
I1012 21:01:54.209750 15978 net.cpp:477] conv2/3x3_s1 <- pool1/2x2_s2
I1012 21:01:54.209754 15978 net.cpp:433] conv2/3x3_s1 -> conv2/3x3_s1
I1012 21:01:54.210103 15978 net.cpp:155] Setting up conv2/3x3_s1
I1012 21:01:54.210109 15978 net.cpp:163] Top shape: 64 128 111 111 (100933632)
I1012 21:01:54.210115 15978 layer_factory.hpp:76] Creating layer conv2/relu
I1012 21:01:54.210120 15978 net.cpp:110] Creating Layer conv2/relu
I1012 21:01:54.210124 15978 net.cpp:477] conv2/relu <- conv2/3x3_s1
I1012 21:01:54.210127 15978 net.cpp:419] conv2/relu -> conv2/3x3_s1 (in-place)
I1012 21:01:54.210132 15978 net.cpp:155] Setting up conv2/relu
I1012 21:01:54.210135 15978 net.cpp:163] Top shape: 64 128 111 111 (100933632)
I1012 21:01:54.210139 15978 layer_factory.hpp:76] Creating layer pool2/2x2_s2
I1012 21:01:54.210142 15978 net.cpp:110] Creating Layer pool2/2x2_s2
I1012 21:01:54.210145 15978 net.cpp:477] pool2/2x2_s2 <- conv2/3x3_s1
I1012 21:01:54.210153 15978 net.cpp:433] pool2/2x2_s2 -> pool2/2x2_s2
I1012 21:01:54.210160 15978 net.cpp:155] Setting up pool2/2x2_s2
I1012 21:01:54.210165 15978 net.cpp:163] Top shape: 64 128 56 56 (25690112)
I1012 21:01:54.210167 15978 layer_factory.hpp:76] Creating layer conv3/3x3_s1
I1012 21:01:54.210172 15978 net.cpp:110] Creating Layer conv3/3x3_s1
I1012 21:01:54.210175 15978 net.cpp:477] conv3/3x3_s1 <- pool2/2x2_s2
I1012 21:01:54.210180 15978 net.cpp:433] conv3/3x3_s1 -> conv3/3x3_s1
I1012 21:01:54.211704 15978 net.cpp:155] Setting up conv3/3x3_s1
I1012 21:01:54.211711 15978 net.cpp:163] Top shape: 64 256 56 56 (51380224)
I1012 21:01:54.211719 15978 layer_factory.hpp:76] Creating layer conv3/relu
I1012 21:01:54.211722 15978 net.cpp:110] Creating Layer conv3/relu
I1012 21:01:54.211725 15978 net.cpp:477] conv3/relu <- conv3/3x3_s1
I1012 21:01:54.211730 15978 net.cpp:419] conv3/relu -> conv3/3x3_s1 (in-place)
I1012 21:01:54.211735 15978 net.cpp:155] Setting up conv3/relu
I1012 21:01:54.211737 15978 net.cpp:163] Top shape: 64 256 56 56 (51380224)
I1012 21:01:54.211740 15978 layer_factory.hpp:76] Creating layer conv4/3x3_s1
I1012 21:01:54.211746 15978 net.cpp:110] Creating Layer conv4/3x3_s1
I1012 21:01:54.211750 15978 net.cpp:477] conv4/3x3_s1 <- conv3/3x3_s1
I1012 21:01:54.211753 15978 net.cpp:433] conv4/3x3_s1 -> conv4/3x3_s1
I1012 21:01:54.214908 15978 net.cpp:155] Setting up conv4/3x3_s1
I1012 21:01:54.214917 15978 net.cpp:163] Top shape: 64 256 56 56 (51380224)
I1012 21:01:54.214922 15978 layer_factory.hpp:76] Creating layer conv4/relu
I1012 21:01:54.214927 15978 net.cpp:110] Creating Layer conv4/relu
I1012 21:01:54.214931 15978 net.cpp:477] conv4/relu <- conv4/3x3_s1
I1012 21:01:54.214934 15978 net.cpp:419] conv4/relu -> conv4/3x3_s1 (in-place)
I1012 21:01:54.214939 15978 net.cpp:155] Setting up conv4/relu
I1012 21:01:54.214942 15978 net.cpp:163] Top shape: 64 256 56 56 (51380224)
I1012 21:01:54.214946 15978 layer_factory.hpp:76] Creating layer pool3/2x2_s2
I1012 21:01:54.214949 15978 net.cpp:110] Creating Layer pool3/2x2_s2
I1012 21:01:54.214952 15978 net.cpp:477] pool3/2x2_s2 <- conv4/3x3_s1
I1012 21:01:54.214956 15978 net.cpp:433] pool3/2x2_s2 -> pool3/2x2_s2
I1012 21:01:54.214962 15978 net.cpp:155] Setting up pool3/2x2_s2
I1012 21:01:54.214967 15978 net.cpp:163] Top shape: 64 256 28 28 (12845056)
I1012 21:01:54.214969 15978 layer_factory.hpp:76] Creating layer conv5/3x3_s1
I1012 21:01:54.214973 15978 net.cpp:110] Creating Layer conv5/3x3_s1
I1012 21:01:54.214977 15978 net.cpp:477] conv5/3x3_s1 <- pool3/2x2_s2
I1012 21:01:54.214980 15978 net.cpp:433] conv5/3x3_s1 -> conv5/3x3_s1
I1012 21:01:54.221331 15978 net.cpp:155] Setting up conv5/3x3_s1
I1012 21:01:54.221341 15978 net.cpp:163] Top shape: 64 512 28 28 (25690112)
I1012 21:01:54.221349 15978 layer_factory.hpp:76] Creating layer conv5/relu
I1012 21:01:54.221354 15978 net.cpp:110] Creating Layer conv5/relu
I1012 21:01:54.221357 15978 net.cpp:477] conv5/relu <- conv5/3x3_s1
I1012 21:01:54.221361 15978 net.cpp:419] conv5/relu -> conv5/3x3_s1 (in-place)
I1012 21:01:54.221366 15978 net.cpp:155] Setting up conv5/relu
I1012 21:01:54.221369 15978 net.cpp:163] Top shape: 64 512 28 28 (25690112)
I1012 21:01:54.221372 15978 layer_factory.hpp:76] Creating layer conv6/3x3_s1
I1012 21:01:54.221379 15978 net.cpp:110] Creating Layer conv6/3x3_s1
I1012 21:01:54.221381 15978 net.cpp:477] conv6/3x3_s1 <- conv5/3x3_s1
I1012 21:01:54.221385 15978 net.cpp:433] conv6/3x3_s1 -> conv6/3x3_s1
I1012 21:01:54.234014 15978 net.cpp:155] Setting up conv6/3x3_s1
I1012 21:01:54.234028 15978 net.cpp:163] Top shape: 64 512 28 28 (25690112)
I1012 21:01:54.234035 15978 layer_factory.hpp:76] Creating layer conv6/relu
I1012 21:01:54.234040 15978 net.cpp:110] Creating Layer conv6/relu
I1012 21:01:54.234043 15978 net.cpp:477] conv6/relu <- conv6/3x3_s1
I1012 21:01:54.234047 15978 net.cpp:419] conv6/relu -> conv6/3x3_s1 (in-place)
I1012 21:01:54.234052 15978 net.cpp:155] Setting up conv6/relu
I1012 21:01:54.234056 15978 net.cpp:163] Top shape: 64 512 28 28 (25690112)
I1012 21:01:54.234060 15978 layer_factory.hpp:76] Creating layer pool4/2x2_s2
I1012 21:01:54.234073 15978 net.cpp:110] Creating Layer pool4/2x2_s2
I1012 21:01:54.234076 15978 net.cpp:477] pool4/2x2_s2 <- conv6/3x3_s1
I1012 21:01:54.234081 15978 net.cpp:433] pool4/2x2_s2 -> pool4/2x2_s2
I1012 21:01:54.234087 15978 net.cpp:155] Setting up pool4/2x2_s2
I1012 21:01:54.234091 15978 net.cpp:163] Top shape: 64 512 14 14 (6422528)
I1012 21:01:54.234094 15978 layer_factory.hpp:76] Creating layer conv7/3x3_s1
I1012 21:01:54.234102 15978 net.cpp:110] Creating Layer conv7/3x3_s1
I1012 21:01:54.234105 15978 net.cpp:477] conv7/3x3_s1 <- pool4/2x2_s2
I1012 21:01:54.234110 15978 net.cpp:433] conv7/3x3_s1 -> conv7/3x3_s1
I1012 21:01:54.246682 15978 net.cpp:155] Setting up conv7/3x3_s1
I1012 21:01:54.246697 15978 net.cpp:163] Top shape: 64 512 14 14 (6422528)
I1012 21:01:54.246703 15978 layer_factory.hpp:76] Creating layer conv7/relu
I1012 21:01:54.246708 15978 net.cpp:110] Creating Layer conv7/relu
I1012 21:01:54.246711 15978 net.cpp:477] conv7/relu <- conv7/3x3_s1
I1012 21:01:54.246716 15978 net.cpp:419] conv7/relu -> conv7/3x3_s1 (in-place)
I1012 21:01:54.246721 15978 net.cpp:155] Setting up conv7/relu
I1012 21:01:54.246724 15978 net.cpp:163] Top shape: 64 512 14 14 (6422528)
I1012 21:01:54.246727 15978 layer_factory.hpp:76] Creating layer conv8/3x3_s1
I1012 21:01:54.246733 15978 net.cpp:110] Creating Layer conv8/3x3_s1
I1012 21:01:54.246737 15978 net.cpp:477] conv8/3x3_s1 <- conv7/3x3_s1
I1012 21:01:54.246740 15978 net.cpp:433] conv8/3x3_s1 -> conv8/3x3_s1
I1012 21:01:54.259326 15978 net.cpp:155] Setting up conv8/3x3_s1
I1012 21:01:54.259340 15978 net.cpp:163] Top shape: 64 512 14 14 (6422528)
I1012 21:01:54.259344 15978 layer_factory.hpp:76] Creating layer conv8/relu
I1012 21:01:54.259351 15978 net.cpp:110] Creating Layer conv8/relu
I1012 21:01:54.259353 15978 net.cpp:477] conv8/relu <- conv8/3x3_s1
I1012 21:01:54.259357 15978 net.cpp:419] conv8/relu -> conv8/3x3_s1 (in-place)
I1012 21:01:54.259362 15978 net.cpp:155] Setting up conv8/relu
I1012 21:01:54.259366 15978 net.cpp:163] Top shape: 64 512 14 14 (6422528)
I1012 21:01:54.259369 15978 layer_factory.hpp:76] Creating layer pool5/2x2_s2
I1012 21:01:54.259374 15978 net.cpp:110] Creating Layer pool5/2x2_s2
I1012 21:01:54.259377 15978 net.cpp:477] pool5/2x2_s2 <- conv8/3x3_s1
I1012 21:01:54.259382 15978 net.cpp:433] pool5/2x2_s2 -> pool5/2x2_s2
I1012 21:01:54.259387 15978 net.cpp:155] Setting up pool5/2x2_s2
I1012 21:01:54.259392 15978 net.cpp:163] Top shape: 64 512 7 7 (1605632)
I1012 21:01:54.259394 15978 layer_factory.hpp:76] Creating layer fc6
I1012 21:01:54.259399 15978 net.cpp:110] Creating Layer fc6
I1012 21:01:54.259402 15978 net.cpp:477] fc6 <- pool5/2x2_s2
I1012 21:01:54.259407 15978 net.cpp:433] fc6 -> fc6
I1012 21:02:01.440260 15978 net.cpp:155] Setting up fc6
I1012 21:02:01.440297 15978 net.cpp:163] Top shape: 64 4096 (262144)
I1012 21:02:01.440316 15978 layer_factory.hpp:76] Creating layer fc7
I1012 21:02:01.440326 15978 net.cpp:110] Creating Layer fc7
I1012 21:02:01.440331 15978 net.cpp:477] fc7 <- fc6
I1012 21:02:01.440337 15978 net.cpp:433] fc7 -> fc7
I1012 21:02:04.730396 15978 net.cpp:155] Setting up fc7
I1012 21:02:04.730427 15978 net.cpp:163] Top shape: 64 4096 (262144)
I1012 21:02:04.730435 15978 layer_factory.hpp:76] Creating layer fc8
I1012 21:02:04.730443 15978 net.cpp:110] Creating Layer fc8
I1012 21:02:04.730448 15978 net.cpp:477] fc8 <- fc7
I1012 21:02:04.730454 15978 net.cpp:433] fc8 -> fc8
I1012 21:02:05.392215 15978 net.cpp:155] Setting up fc8
I1012 21:02:05.392246 15978 net.cpp:163] Top shape: 64 1000 (64000)
I1012 21:02:05.392256 15978 net.cpp:240] fc8 does not need backward computation.
I1012 21:02:05.392261 15978 net.cpp:240] fc7 does not need backward computation.
I1012 21:02:05.392263 15978 net.cpp:240] fc6 does not need backward computation.
I1012 21:02:05.392266 15978 net.cpp:240] pool5/2x2_s2 does not need backward computation.
I1012 21:02:05.392271 15978 net.cpp:240] conv8/relu does not need backward computation.
…
