…
8 28390 caffe.cpp:212] Use GPU with device ID 0
E0417 00:13:32.545879 28390 upgrade_proto.cpp:618] Attempting to upgrade input file specified using deprecated V1LayerParameter: ./imagenet_winners/googlenet.prototxt
I0417 00:13:32.546241 28390 upgrade_proto.cpp:626] Successfully upgraded file specified using deprecated V1LayerParameter
I0417 00:13:32.547127 28390 net.cpp:42] Initializing net from parameters: 
name: "googlenet"
input: "data"
input_dim: 128
input_dim: 3
input_dim: 224
input_dim: 224
force_backward: true
state {
  phase: TRAIN
}
layer {
  name: "conv1/7x7_s2"
  type: "Convolution"
  bottom: "data"
  top: "conv1/7x7_s2"
  param {
    lr_mult: 1
    decay_mult: 1
  }
  param {
    lr_mult: 2
    decay_mult: 0
  }
  convolution_param {
    num_output: 64
    pad: 3
    kernel_size: 7
    stride: 2
    weight_filler {
      type: "xavier"
      std: 0.1
    }
    bias_filler {
      type: "constant"
      value: 0.2
    }
  }
}
layer {
  name: "conv1/relu_7x7"
  type: "ReLU"
  bottom: "conv1/7x7_s2"
  top: "conv1/7x7_s2"
}
layer {
  name: "pool1/3x3_s2"
  type: "Pooling"
  bottom: "conv1/7x7_s2"
  top: "pool1/3x3_s2"
  pooling_param {
    pool: MAX
    kernel_size: 3
    stride: 2
  }
}
layer {
  name: "conv2/3x3_reduce"
  type: "Convolution"
  bottom: "pool1/3x3_s2"
  top: "conv2/3x3_reduce"
  param {
    lr_mult: 1
    decay_mult: 1
  }
  param {
    lr_mult: 2
    decay_mult: 0
  }
  convolution_param {
    num_output: 64
    kernel_size: 1
    weight_filler {
      type: "xavier"
      std: 0.1
    }
    bias_filler {
      type: "constant"
      value: 0.2
    }
  }
}
layer {
  name: "conv2/relu_3x3_reduce"
  type: "ReLU"
  bottom: "conv2/3x3_reduce"
  top: "conv2/3x3_reduce"
}
layer {
  name: "conv2/3x3"
  type: "Convolution"
  bottom: "conv2/3x3_reduce"
  top: "conv2/3x3"
  param {
    lr_mult: 1
    decay_mult: 1
  }
  param {
    lr_mult: 2
    decay_mult: 0
  }
  convolution_param {
    num_output: 192
    pad: 1
    kernel_size: 3
    weight_filler {
      type: "xavier"
      std: 0.03
    }
    bias_filler {
      type: "constant"
      value: 0.2
    }
  }
}
layer {
  name: "conv2/relu_3x3"
  type: "ReLU"
  bottom: "conv2/3x3"
  top: "conv2/3x3"
}
layer {
  name: "pool2/3x3_s2"
  type: "Pooling"
  bottom: "conv2/3x3"
  top: "pool2/3x3_s2"
  pooling_param {
    pool: MAX
    kernel_size: 3
    stride: 2
  }
}
layer {
  name: "inception_3a/1x1"
  type: "Convolution"
  bottom: "pool2/3x3_s2"
  top: "inception_3a/1x1"
  param {
    lr_mult: 1
    decay_mult: 1
  }
  param {
    lr_mult: 2
    decay_mult: 0
  }
  convolution_param {
    num_output: 64
    kernel_size: 1
    weight_filler {
      type: "xavier"
      std: 0.03
    }
    bias_filler {
      type: "constant"
      value: 0.2
    }
  }
}
layer {
  name: "inception_3a/relu_1x1"
  type: "ReLU"
  bottom: "inception_3a/1x1"
  top: "inception_3a/1x1"
}
layer {
  name: "inception_3a/3x3_reduce"
  type: "Convolution"
  bottom: "pool2/3x3_s2"
  top: "inception_3a/3x3_reduce"
  param {
    lr_mult: 1
    decay_mult: 1
  }
  param {
    lr_mult: 2
    decay_mult: 0
  }
  convolution_param {
    num_output: 96
    kernel_size: 1
  }
}
layer {
  name: "inception_3a/relu_3x3_reduce"
  type: "ReLU"
  bottom: "inception_3a/3x3_reduce"
  top: "inception_3a/3x3_reduce"
}
layer {
  name: "inception_3a/3x3"
  type: "Convolution"
  bottom: "inception_3a/3x3_reduce"
  top: "inception_3a/3x3"
  param {
    lr_mult: 1
    decay_mult: 1
  }
  param {
    lr_mult: 2
    decay_mult: 0
  }
  convolution_param {
    num_output: 128
    pad: 1
    kernel_size: 3
    weight_filler {
      type: "xavier"
      std: 0.09
    }
    bias_filler {
      type: "constant"
      value: 0.2
    }
  }
}
layer {
  name: "inception_3a/relu_3x3"
  type: "ReLU"
  bottom: "inception_3a/3x3"
  top: "inception_3a/3x3"
}
layer {
  name: "inception_3a/5x5_reduce"
  type: "Convolution"
  bottom: "pool2/3x3_s2"
  top: "inception_3a/5x5_reduce"
  param {
    lr_mult: 1
    decay_mult: 1
  }
  param {
    lr_mult: 2
    decay_mult: 0
  }
  convolution_param {
    num_output: 16
    kernel_size: 1
    weight_filler {
      type: "xavier"
      std: 0.2
    }
    bias_filler {
      type: "constant"
      value: 0.2
    }
  }
}
layer {
  name: "inception_3a/relu_5x5_reduce"
  type: "ReLU"
  bottom: "inception_3a/5x5_reduce"
  top: "inception_3a/5x5_reduce"
}
layer {
  name: "inception_3a/5x5"
  type: "Convolution"
  bottom: "inception_3a/5x5_reduce"
  top: "inception_3a/5x5"
  param {
    lr_mult: 1
    decay_mult: 1
  }
  param {
    lr_mult: 2
    decay_mult: 0
  }
  convolution_param {
    num_output: 32
    pad: 2
    kernel_size: 5
    weight_filler {
      type: "xavier"
      std: 0.03
    }
    bias_filler {
      type: "constant"
      value: 0.2
    }
  }
}
layer {
  name: "inception_3a/relu_5x5"
  type: "ReLU"
  bottom: "inception_3a/5x5"
  top: "inception_3a/5x5"
}
layer {
  name: "inception_3a/pool"
  type: "Pooling"
  bottom: "pool2/3x3_s2"
  top: "inception_3a/pool"
  pooling_param {
    pool: MAX
    kernel_size: 3
    stride: 1
    pad: 1
  }
}
layer {
  name: "inception_3a/pool_proj"
  type: "Convolution"
  bottom: "inception_3a/pool"
  top: "inception_3a/pool_proj"
  param {
    lr_mult: 1
    decay_mult: 1
  }
  param {
    lr_mult: 2
    decay_mult: 0
  }
  convolution_param {
    num_output: 32
    kernel_size: 1
    weight_filler {
      type: "xavier"
      std: 0.1
    }
    bias_filler {
      type: "constant"
      value: 0.2
    }
  }
}
layer {
  name: "inception_3a/relu_pool_proj"
  type: "ReLU"
  bottom: "inception_3a/pool_proj"
  top: "inception_3a/pool_proj"
}
layer {
  name: "inception_3a/output"
  type: "Concat"
  bottom: "inception_3a/1x1"
  bottom: "inception_3a/3x3"
  bottom: "inception_3a/5x5"
  bottom: "inception_3a/pool_proj"
  top: "inception_3a/output"
}
layer {
  name: "inception_3b/1x1"
  type: "Convolution"
  bottom: "inception_3a/output"
  top: "inception_3b/1x1"
  param {
    lr_mult: 1
    decay_mult: 1
  }
  param {
    lr_mult: 2
    decay_mult: 0
  }
  convolution_param {
    num_output: 128
    kernel_size: 1
    weight_filler {
      type: "xavier"
      std: 0.03
    }
    bias_filler {
      type: "constant"
      value: 0.2
    }
  }
}
layer {
  name: "inception_3b/relu_1x1"
  type: "ReLU"
  bottom: "inception_3b/1x1"
  top: "inception_3b/1x1"
}
layer {
  name: "inception_3b/3x3_reduce"
  type: "Convolution"
  bottom: "inception_3a/output"
  top: "inception_3b/3x3_reduce"
  param {
    lr_mult: 1
    decay_mult: 1
  }
  param {
    lr_mult: 2
    decay_mult: 0
  }
  convolution_param {
    num_output: 128
    kernel_size: 1
    weight_filler {
      type: "xavier"
      std: 0.09
    }
    bias_filler {
      type: "constant"
      value: 0.2
    }
  }
}
layer {
  name: "inception_3b/relu_3x3_reduce"
  type: "ReLU"
  bottom: "inception_3b/3x3_reduce"
  top: "inception_3b/3x3_reduce"
}
layer {
  name: "inception_3b/3x3"
  type: "Convolution"
  bottom: "inception_3b/3x3_reduce"
  top: "inception_3b/3x3"
  param {
    lr_mult: 1
    decay_mult: 1
  }
  param {
    lr_mult: 2
    decay_mult: 0
  }
  convolution_param {
    num_output: 192
    pad: 1
    kernel_size: 3
    weight_filler {
      type: "xavier"
      std: 0.03
    }
    bias_filler {
      type: "constant"
      value: 0.2
    }
  }
}
layer {
  name: "inception_3b/relu_3x3"
  type: "ReLU"
  bottom: "inception_3b/3x3"
  top: "inception_3b/3x3"
}
layer {
  name: "inception_3b/5x5_reduce"
  type: "Convolution"
  bottom: "inception_3a/output"
  top: "inception_3b/5x5_reduce"
  param {
    lr_mult: 1
    decay_mult: 1
  }
  param {
    lr_mult: 2
    decay_mult: 0
  }
  convolution_param {
    num_output: 32
    kernel_size: 1
    weight_filler {
      type: "xavier"
      std: 0.2
    }
    bias_filler {
      type: "constant"
      value: 0.2
    }
  }
}
layer {
  name: "inception_3b/relu_5x5_reduce"
  type: "ReLU"
  bottom: "inception_3b/5x5_reduce"
  top: "inception_3b/5x5_reduce"
}
layer {
  name: "inception_3b/5x5"
  type: "Convolution"
  bottom: "inception_3b/5x5_reduce"
  top: "inception_3b/5x5"
  param {
    lr_mult: 1
    decay_mult: 1
  }
  param {
    lr_mult: 2
    decay_mult: 0
  }
  convolution_param {
    num_output: 96
    pad: 2
    kernel_size: 5
    weight_filler {
      type: "xavier"
      std: 0.03
    }
    bias_filler {
      type: "constant"
      value: 0.2
    }
  }
}
layer {
  name: "inception_3b/relu_5x5"
  type: "ReLU"
  bottom: "inception_3b/5x5"
  top: "inception_3b/5x5"
}
layer {
  name: "inception_3b/pool"
  type: "Pooling"
  bottom: "inception_3a/output"
  top: "inception_3b/pool"
  pooling_param {
    pool: MAX
    kernel_size: 3
    stride: 1
    pad: 1
  }
}
layer {
  name: "inception_3b/pool_proj"
  type: "Convolution"
  bottom: "inception_3b/pool"
  top: "inception_3b/pool_proj"
  param {
    lr_mult: 1
    decay_mult: 1
  }
  param {
    lr_mult: 2
    decay_mult: 0
  }
  convolution_param {
    num_output: 64
    kernel_size: 1
    weight_filler {
      type: "xavier"
      std: 0.1
    }
    bias_filler {
      type: "constant"
      value: 0.2
    }
  }
}
layer {
  name: "inception_3b/relu_pool_proj"
  type: "ReLU"
  bottom: "inception_3b/pool_proj"
  top: "inception_3b/pool_proj"
}
layer {
  name: "inception_3b/output"
  type: "Concat"
  bottom: "inception_3b/1x1"
  bottom: "inception_3b/3x3"
  bottom: "inception_3b/5x5"
  bottom: "inception_3b/pool_proj"
  top: "inception_3b/output"
}
layer {
  name: "pool3/3x3_s2"
  type: "Pooling"
  bottom: "inception_3b/output"
  top: "pool3/3x3_s2"
  pooling_param {
    pool: MAX
    kernel_size: 3
    stride: 2
  }
}
layer {
  name: "inception_4a/1x1"
  type: "Convolution"
  bottom: "pool3/3x3_s2"
  top: "inception_4a/1x1"
  param {
    lr_mult: 1
    decay_mult: 1
  }
  param {
    lr_mult: 2
    decay_mult: 0
  }
  convolution_param {
    num_output: 192
    kernel_size: 1
    weight_filler {
      type: "xavier"
      std: 0.03
    }
    bias_filler {
      type: "constant"
      value: 0.2
    }
  }
}
layer {
  name: "inception_4a/relu_1x1"
  type: "ReLU"
  bottom: "inception_4a/1x1"
  top: "inception_4a/1x1"
}
layer {
  name: "inception_4a/3x3_reduce"
  type: "Convolution"
  bottom: "pool3/3x3_s2"
  top: "inception_4a/3x3_reduce"
  param {
    lr_mult: 1
    decay_mult: 1
  }
  param {
    lr_mult: 2
    decay_mult: 0
  }
  convolution_param {
    num_output: 96
    kernel_size: 1
    weight_filler {
      type: "xavier"
      std: 0.09
    }
    bias_filler {
      type: "constant"
      value: 0.2
    }
  }
}
layer {
  name: "inception_4a/relu_3x3_reduce"
  type: "ReLU"
  bottom: "inception_4a/3x3_reduce"
  top: "inception_4a/3x3_reduce"
}
layer {
  name: "inception_4a/3x3"
  type: "Convolution"
  bottom: "inception_4a/3x3_reduce"
  top: "inception_4a/3x3"
  param {
    lr_mult: 1
    decay_mult: 1
  }
  param {
    lr_mult: 2
    decay_mult: 0
  }
  convolution_param {
    num_output: 208
    pad: 1
    kernel_size: 3
    weight_filler {
      type: "xavier"
      std: 0.03
    }
    bias_filler {
      type: "constant"
      value: 0.2
    }
  }
}
layer {
  name: "inception_4a/relu_3x3"
  type: "ReLU"
  bottom: "inception_4a/3x3"
  top: "inception_4a/3x3"
}
layer {
  name: "inception_4a/5x5_reduce"
  type: "Convolution"
  bottom: "pool3/3x3_s2"
  top: "inception_4a/5x5_reduce"
  param {
    lr_mult: 1
    decay_mult: 1
  }
  param {
    lr_mult: 2
    decay_mult: 0
  }
  convolution_param {
    num_output: 16
    kernel_size: 1
    weight_filler {
      type: "xavier"
      std: 0.2
    }
    bias_filler {
      type: "constant"
      value: 0.2
    }
  }
}
layer {
  name: "inception_4a/relu_5x5_reduce"
  type: "ReLU"
  bottom: "inception_4a/5x5_reduce"
  top: "inception_4a/5x5_reduce"
}
layer {
  name: "inception_4a/5x5"
  type: "Convolution"
  bottom: "inception_4a/5x5_reduce"
  top: "inception_4a/5x5"
  param {
    lr_mult: 1
    decay_mult: 1
  }
  param {
    lr_mult: 2
    decay_mult: 0
  }
  convolution_param {
    num_output: 48
    pad: 2
    kernel_size: 5
    weight_filler {
      type: "xavier"
      std: 0.03
    }
    bias_filler {
      type: "constant"
      value: 0.2
    }
  }
}
layer {
  name: "inception_4a/relu_5x5"
  type: "ReLU"
  bottom: "inception_4a/5x5"
  top: "inception_4a/5x5"
}
layer {
  name: "inception_4a/pool"
  type: "Pooling"
  bottom: "pool3/3x3_s2"
  top: "inception_4a/pool"
  pooling_param {
    pool: MAX
    kernel_size: 3
    stride: 1
    pad: 1
  }
}
layer {
  name: "inception_4a/pool_proj"
  type: "Convolution"
  bottom: "inception_4a/pool"
  top: "inception_4a/pool_proj"
  param {
    lr_mult: 1
    decay_mult: 1
  }
  param {
    lr_mult: 2
    decay_mult: 0
  }
  convolution_param {
    num_output: 64
    kernel_size: 1
    weight_filler {
      type: "xavier"
      std: 0.1
    }
    bias_filler {
      type: "constant"
      value: 0.2
    }
  }
}
layer {
  name: "inception_4a/relu_pool_proj"
  type: "ReLU"
  bottom: "inception_4a/pool_proj"
  top: "inception_4a/pool_proj"
}
layer {
  name: "inception_4a/output"
  type: "Concat"
  bottom: "inception_4a/1x1"
  bottom: "inception_4a/3x3"
  bottom: "inception_4a/5x5"
  bottom: "inception_4a/pool_proj"
  top: "inception_4a/output"
}
layer {
  name: "inception_4b/1x1"
  type: "Convolution"
  bottom: "inception_4a/output"
  top: "inception_4b/1x1"
  param {
    lr_mult: 1
    decay_mult: 1
  }
  param {
    lr_mult: 2
    decay_mult: 0
  }
  convolution_param {
    num_output: 160
    kernel_size: 1
    weight_filler {
      type: "xavier"
      std: 0.03
    }
    bias_filler {
      type: "constant"
      value: 0.2
    }
  }
}
layer {
  name: "inception_4b/relu_1x1"
  type: "ReLU"
  bottom: "inception_4b/1x1"
  top: "inception_4b/1x1"
}
layer {
  name: "inception_4b/3x3_reduce"
  type: "Convolution"
  bottom: "inception_4a/output"
  top: "inception_4b/3x3_reduce"
  param {
    lr_mult: 1
    decay_mult: 1
  }
  param {
    lr_mult: 2
    decay_mult: 0
  }
  convolution_param {
    num_output: 112
    kernel_size: 1
    weight_filler {
      type: "xavier"
      std: 0.09
    }
    bias_filler {
      type: "constant"
      value: 0.2
    }
  }
}
layer {
  name: "inception_4b/relu_3x3_reduce"
  type: "ReLU"
  bottom: "inception_4b/3x3_reduce"
  top: "inception_4b/3x3_reduce"
}
layer {
  name: "inception_4b/3x3"
  type: "Convolution"
  bottom: "inception_4b/3x3_reduce"
  top: "inception_4b/3x3"
  param {
    lr_mult: 1
    decay_mult: 1
  }
  param {
    lr_mult: 2
    decay_mult: 0
  }
  convolution_param {
    num_output: 224
    pad: 1
    kernel_size: 3
    weight_filler {
      type: "xavier"
      std: 0.03
    }
    bias_filler {
      type: "constant"
      value: 0.2
    }
  }
}
layer {
  name: "inception_4b/relu_3x3"
  type: "ReLU"
  bottom: "inception_4b/3x3"
  top: "inception_4b/3x3"
}
layer {
  name: "inception_4b/5x5_reduce"
  type: "Convolution"
  bottom: "inception_4a/output"
  top: "inception_4b/5x5_reduce"
  param {
    lr_mult: 1
    decay_mult: 1
  }
  param {
    lr_mult: 2
    decay_mult: 0
  }
  convolution_param {
    num_output: 24
    kernel_size: 1
    weight_filler {
      type: "xavier"
      std: 0.2
    }
    bias_filler {
      type: "constant"
      value: 0.2
    }
  }
}
layer {
  name: "inception_4b/relu_5x5_reduce"
  type: "ReLU"
  bottom: "inception_4b/5x5_reduce"
  top: "inception_4b/5x5_reduce"
}
layer {
  name: "inception_4b/5x5"
  type: "Convolution"
  bottom: "inception_4b/5x5_reduce"
  top: "inception_4b/5x5"
  param {
    lr_mult: 1
    decay_mult: 1
  }
  param {
    lr_mult: 2
    decay_mult: 0
  }
  convolution_param {
    num_output: 64
    pad: 2
    kernel_size: 5
    weight_filler {
      type: "xavier"
      std: 0.03
    }
    bias_filler {
      type: "constant"
      value: 0.2
    }
  }
}
layer {
  name: "inception_4b/relu_5x5"
  type: "ReLU"
  bottom: "inception_4b/5x5"
  top: "inception_4b/5x5"
}
layer {
  name: "inception_4b/pool"
  type: "Pooling"
  bottom: "inception_4a/output"
  top: "inception_4b/pool"
  pooling_param {
    pool: MAX
    kernel_size: 3
    stride: 1
    pad: 1
  }
}
layer {
  name: "inception_4b/pool_proj"
  type: "Convolution"
  bottom: "inception_4b/pool"
  top: "inception_4b/pool_proj"
  param {
    lr_mult: 1
    decay_mult: 1
  }
  param {
    lr_mult: 2
    decay_mult: 0
  }
  convolution_param {
    num_output: 64
    kernel_size: 1
    weight_filler {
      type: "xavier"
      std: 0.1
    }
    bias_filler {
      type: "constant"
      value: 0.2
    }
  }
}
layer {
  name: "inception_4b/relu_pool_proj"
  type: "ReLU"
  bottom: "inception_4b/pool_proj"
  top: "inception_4b/pool_proj"
}
layer {
  name: "inception_4b/output"
  type: "Concat"
  bottom: "inception_4b/1x1"
  bottom: "inception_4b/3x3"
  bottom: "inception_4b/5x5"
  bottom: "inception_4b/pool_proj"
  top: "inception_4b/output"
}
layer {
  name: "inception_4c/1x1"
  type: "Convolution"
  bottom: "inception_4b/output"
  top: "inception_4c/1x1"
  param {
    lr_mult: 1
    decay_mult: 1
  }
  param {
    lr_mult: 2
    decay_mult: 0
  }
  convolution_param {
    num_output: 128
    kernel_size: 1
    weight_filler {
      type: "xavier"
      std: 0.03
    }
    bias_filler {
      type: "constant"
      value: 0.2
    }
  }
}
layer {
  name: "inception_4c/relu_1x1"
  type: "ReLU"
  bottom: "inception_4c/1x1"
  top: "inception_4c/1x1"
}
layer {
  name: "inception_4c/3x3_reduce"
  type: "Convolution"
  bottom: "inception_4b/output"
  top: "inception_4c/3x3_reduce"
  param {
    lr_mult: 1
    decay_mult: 1
  }
  param {
    lr_mult: 2
    decay_mult: 0
  }
  convolution_param {
    num_output: 128
    kernel_size: 1
    weight_filler {
      type: "xavier"
      std: 0.09
    }
    bias_filler {
      type: "constant"
      value: 0.2
    }
  }
}
layer {
  name: "inception_4c/relu_3x3_reduce"
  type: "ReLU"
  bottom: "inception_4c/3x3_reduce"
  top: "inception_4c/3x3_reduce"
}
layer {
  name: "inception_4c/3x3"
  type: "Convolution"
  bottom: "inception_4c/3x3_reduce"
  top: "inception_4c/3x3"
  param {
    lr_mult: 1
    decay_mult: 1
  }
  param {
    lr_mult: 2
    decay_mult: 0
  }
  convolution_param {
    num_output: 256
    pad: 1
    kernel_size: 3
    weight_filler {
      type: "xavier"
      std: 0.03
    }
    bias_filler {
      type: "constant"
      value: 0.2
    }
  }
}
layer {
  name: "inception_4c/relu_3x3"
  type: "ReLU"
  bottom: "inception_4c/3x3"
  top: "inception_4c/3x3"
}
layer {
  name: "inception_4c/5x5_reduce"
  type: "Convolution"
  bottom: "inception_4b/output"
  top: "inception_4c/5x5_reduce"
  param {
    lr_mult: 1
    decay_mult: 1
  }
  param {
    lr_mult: 2
    decay_mult: 0
  }
  convolution_param {
    num_output: 24
    kernel_size: 1
    weight_filler {
      type: "xavier"
      std: 0.2
    }
    bias_filler {
      type: "constant"
      value: 0.2
    }
  }
}
layer {
  name: "inception_4c/relu_5x5_reduce"
  type: "ReLU"
  bottom: "inception_4c/5x5_reduce"
  top: "inception_4c/5x5_reduce"
}
layer {
  name: "inception_4c/5x5"
  type: "Convolution"
  bottom: "inception_4c/5x5_reduce"
  top: "inception_4c/5x5"
  param {
    lr_mult: 1
    decay_mult: 1
  }
  param {
    lr_mult: 2
    decay_mult: 0
  }
  convolution_param {
    num_output: 64
    pad: 2
    kernel_size: 5
    weight_filler {
      type: "xavier"
      std: 0.03
    }
    bias_filler {
      type: "constant"
      value: 0.2
    }
  }
}
layer {
  name: "inception_4c/relu_5x5"
  type: "ReLU"
  bottom: "inception_4c/5x5"
  top: "inception_4c/5x5"
}
layer {
  name: "inception_4c/pool"
  type: "Pooling"
  bottom: "inception_4b/output"
  top: "inception_4c/pool"
  pooling_param {
    pool: MAX
    kernel_size: 3
    stride: 1
    pad: 1
  }
}
layer {
  name: "inception_4c/pool_proj"
  type: "Convolution"
  bottom: "inception_4c/pool"
  top: "inception_4c/pool_proj"
  param {
    lr_mult: 1
    decay_mult: 1
  }
  param {
    lr_mult: 2
    decay_mult: 0
  }
  convolution_param {
    num_output: 64
    kernel_size: 1
    weight_filler {
      type: "xavier"
      std: 0.1
    }
    bias_filler {
      type: "constant"
      value: 0.2
    }
  }
}
layer {
  name: "inception_4c/relu_pool_proj"
  type: "ReLU"
  bottom: "inception_4c/pool_proj"
  top: "inception_4c/pool_proj"
}
layer {
  name: "inception_4c/output"
  type: "Concat"
  bottom: "inception_4c/1x1"
  bottom: "inception_4c/3x3"
  bottom: "inception_4c/5x5"
  bottom: "inception_4c/pool_proj"
  top: "inception_4c/output"
}
layer {
  name: "inception_4d/1x1"
  type: "Convolution"
  bottom: "inception_4c/output"
  top: "inception_4d/1x1"
  param {
    lr_mult: 1
    decay_mult: 1
  }
  param {
    lr_mult: 2
    decay_mult: 0
  }
  convolution_param {
    num_output: 112
    kernel_size: 1
    weight_filler {
      type: "xavier"
      std: 0.03
    }
    bias_filler {
      type: "constant"
      value: 0.2
    }
  }
}
layer {
  name: "inception_4d/relu_1x1"
  type: "ReLU"
  bottom: "inception_4d/1x1"
  top: "inception_4d/1x1"
}
layer {
  name: "inception_4d/3x3_reduce"
  type: "Convolution"
  bottom: "inception_4c/output"
  top: "inception_4d/3x3_reduce"
  param {
    lr_mult: 1
    decay_mult: 1
  }
  param {
    lr_mult: 2
    decay_mult: 0
  }
  convolution_param {
    num_output: 144
    kernel_size: 1
    weight_filler {
      type: "xavier"
      std: 0.09
    }
    bias_filler {
      type: "constant"
      value: 0.2
    }
  }
}
layer {
  name: "inception_4d/relu_3x3_reduce"
  type: "ReLU"
  bottom: "inception_4d/3x3_reduce"
  top: "inception_4d/3x3_reduce"
}
layer {
  name: "inception_4d/3x3"
  type: "Convolution"
  bottom: "inception_4d/3x3_reduce"
  top: "inception_4d/3x3"
  param {
    lr_mult: 1
    decay_mult: 1
  }
  param {
    lr_mult: 2
    decay_mult: 0
  }
  convolution_param {
    num_output: 288
    pad: 1
    kernel_size: 3
    weight_filler {
      type: "xavier"
      std: 0.03
    }
    bias_filler {
      type: "constant"
      value: 0.2
    }
  }
}
layer {
  name: "inception_4d/relu_3x3"
  type: "ReLU"
  bottom: "inception_4d/3x3"
  top: "inception_4d/3x3"
}
layer {
  name: "inception_4d/5x5_reduce"
  type: "Convolution"
  bottom: "inception_4c/output"
  top: "inception_4d/5x5_reduce"
  param {
    lr_mult: 1
    decay_mult: 1
  }
  param {
    lr_mult: 2
    decay_mult: 0
  }
  convolution_param {
    num_output: 32
    kernel_size: 1
    weight_filler {
      type: "xavier"
      std: 0.2
    }
    bias_filler {
      type: "constant"
      value: 0.2
    }
  }
}
layer {
  name: "inception_4d/relu_5x5_reduce"
  type: "ReLU"
  bottom: "inception_4d/5x5_reduce"
  top: "inception_4d/5x5_reduce"
}
layer {
  name: "inception_4d/5x5"
  type: "Convolution"
  bottom: "inception_4d/5x5_reduce"
  top: "inception_4d/5x5"
  param {
    lr_mult: 1
    decay_mult: 1
  }
  param {
    lr_mult: 2
    decay_mult: 0
  }
  convolution_param {
    num_output: 64
    pad: 2
    kernel_size: 5
    weight_filler {
      type: "xavier"
      std: 0.03
    }
    bias_filler {
      type: "constant"
      value: 0.2
    }
  }
}
layer {
  name: "inception_4d/relu_5x5"
  type: "ReLU"
  bottom: "inception_4d/5x5"
  top: "inception_4d/5x5"
}
layer {
  name: "inception_4d/pool"
  type: "Pooling"
  bottom: "inception_4c/output"
  top: "inception_4d/pool"
  pooling_param {
    pool: MAX
    kernel_size: 3
    stride: 1
    pad: 1
  }
}
layer {
  name: "inception_4d/pool_proj"
  type: "Convolution"
  bottom: "inception_4d/pool"
  top: "inception_4d/pool_proj"
  param {
    lr_mult: 1
    decay_mult: 1
  }
  param {
    lr_mult: 2
    decay_mult: 0
  }
  convolution_param {
    num_output: 64
    kernel_size: 1
    weight_filler {
      type: "xavier"
      std: 0.1
    }
    bias_filler {
      type: "constant"
      value: 0.2
    }
  }
}
layer {
  name: "inception_4d/relu_pool_proj"
  type: "ReLU"
  bottom: "inception_4d/pool_proj"
  top: "inception_4d/pool_proj"
}
layer {
  name: "inception_4d/output"
  type: "Concat"
  bottom: "inception_4d/1x1"
  bottom: "inception_4d/3x3"
  bottom: "inception_4d/5x5"
  bottom: "inception_4d/pool_proj"
  top: "inception_4d/output"
}
layer {
  name: "inception_4e/1x1"
  type: "Convolution"
  bottom: "inception_4d/output"
  top: "inception_4e/1x1"
  param {
    lr_mult: 1
    decay_mult: 1
  }
  param {
    lr_mult: 2
    decay_mult: 0
  }
  convolution_param {
    num_output: 256
    kernel_size: 1
    weight_filler {
      type: "xavier"
      std: 0.03
    }
    bias_filler {
      type: "constant"
      value: 0.2
    }
  }
}
layer {
  name: "inception_4e/relu_1x1"
  type: "ReLU"
  bottom: "inception_4e/1x1"
  top: "inception_4e/1x1"
}
layer {
  name: "inception_4e/3x3_reduce"
  type: "Convolution"
  bottom: "inception_4d/output"
  top: "inception_4e/3x3_reduce"
  param {
    lr_mult: 1
    decay_mult: 1
  }
  param {
    lr_mult: 2
    decay_mult: 0
  }
  convolution_param {
    num_output: 160
    kernel_size: 1
    weight_filler {
      type: "xavier"
      std: 0.09
    }
    bias_filler {
      type: "constant"
      value: 0.2
    }
  }
}
layer {
  name: "inception_4e/relu_3x3_reduce"
  type: "ReLU"
  bottom: "inception_4e/3x3_reduce"
  top: "inception_4e/3x3_reduce"
}
layer {
  name: "inception_4e/3x3"
  type: "Convolution"
  bottom: "inception_4e/3x3_reduce"
  top: "inception_4e/3x3"
  param {
    lr_mult: 1
    decay_mult: 1
  }
  param {
    lr_mult: 2
    decay_mult: 0
  }
  convolution_param {
    num_output: 320
    pad: 1
    kernel_size: 3
    weight_filler {
      type: "xavier"
      std: 0.03
    }
    bias_filler {
      type: "constant"
      value: 0.2
    }
  }
}
layer {
  name: "inception_4e/relu_3x3"
  type: "ReLU"
  bottom: "inception_4e/3x3"
  top: "inception_4e/3x3"
}
layer {
  name: "inception_4e/5x5_reduce"
  type: "Convolution"
  bottom: "inception_4d/output"
  top: "inception_4e/5x5_reduce"
  param {
    lr_mult: 1
    decay_mult: 1
  }
  param {
    lr_mult: 2
    decay_mult: 0
  }
  convolution_param {
    num_output: 32
    kernel_size: 1
    weight_filler {
      type: "xavier"
      std: 0.2
    }
    bias_filler {
      type: "constant"
      value: 0.2
    }
  }
}
layer {
  name: "inception_4e/relu_5x5_reduce"
  type: "ReLU"
  bottom: "inception_4e/5x5_reduce"
  top: "inception_4e/5x5_reduce"
}
layer {
  name: "inception_4e/5x5"
  type: "Convolution"
  bottom: "inception_4e/5x5_reduce"
  top: "inception_4e/5x5"
  param {
    lr_mult: 1
    decay_mult: 1
  }
  param {
    lr_mult: 2
    decay_mult: 0
  }
  convolution_param {
    num_output: 128
    pad: 2
    kernel_size: 5
    weight_filler {
      type: "xavier"
      std: 0.03
    }
    bias_filler {
      type: "constant"
      value: 0.2
    }
  }
}
layer {
  name: "inception_4e/relu_5x5"
  type: "ReLU"
  bottom: "inception_4e/5x5"
  top: "inception_4e/5x5"
}
layer {
  name: "inception_4e/pool"
  type: "Pooling"
  bottom: "inception_4d/output"
  top: "inception_4e/pool"
  pooling_param {
    pool: MAX
    kernel_size: 3
    stride: 1
    pad: 1
  }
}
layer {
  name: "inception_4e/pool_proj"
  type: "Convolution"
  bottom: "inception_4e/pool"
  top: "inception_4e/pool_proj"
  param {
    lr_mult: 1
    decay_mult: 1
  }
  param {
    lr_mult: 2
    decay_mult: 0
  }
  convolution_param {
    num_output: 128
    kernel_size: 1
    weight_filler {
      type: "xavier"
      std: 0.1
    }
    bias_filler {
      type: "constant"
      value: 0.2
    }
  }
}
layer {
  name: "inception_4e/relu_pool_proj"
  type: "ReLU"
  bottom: "inception_4e/pool_proj"
  top: "inception_4e/pool_proj"
}
layer {
  name: "inception_4e/output"
  type: "Concat"
  bottom: "inception_4e/1x1"
  bottom: "inception_4e/3x3"
  bottom: "inception_4e/5x5"
  bottom: "inception_4e/pool_proj"
  top: "inception_4e/output"
}
layer {
  name: "pool4/3x3_s2"
  type: "Pooling"
  bottom: "inception_4e/output"
  top: "pool4/3x3_s2"
  pooling_param {
    pool: MAX
    kernel_size: 3
    stride: 2
  }
}
layer {
  name: "inception_5a/1x1"
  type: "Convolution"
  bottom: "pool4/3x3_s2"
  top: "inception_5a/1x1"
  param {
    lr_mult: 1
    decay_mult: 1
  }
  param {
    lr_mult: 2
    decay_mult: 0
  }
  convolution_param {
    num_output: 256
    kernel_size: 1
    weight_filler {
      type: "xavier"
      std: 0.03
    }
    bias_filler {
      type: "constant"
      value: 0.2
    }
  }
}
layer {
  name: "inception_5a/relu_1x1"
  type: "ReLU"
  bottom: "inception_5a/1x1"
  top: "inception_5a/1x1"
}
layer {
  name: "inception_5a/3x3_reduce"
  type: "Convolution"
  bottom: "pool4/3x3_s2"
  top: "inception_5a/3x3_reduce"
  param {
    lr_mult: 1
    decay_mult: 1
  }
  param {
    lr_mult: 2
    decay_mult: 0
  }
  convolution_param {
    num_output: 160
    kernel_size: 1
    weight_filler {
      type: "xavier"
      std: 0.09
    }
    bias_filler {
      type: "constant"
      value: 0.2
    }
  }
}
layer {
  name: "inception_5a/relu_3x3_reduce"
  type: "ReLU"
  bottom: "inception_5a/3x3_reduce"
  top: "inception_5a/3x3_reduce"
}
layer {
  name: "inception_5a/3x3"
  type: "Convolution"
  bottom: "inception_5a/3x3_reduce"
  top: "inception_5a/3x3"
  param {
    lr_mult: 1
    decay_mult: 1
  }
  param {
    lr_mult: 2
    decay_mult: 0
  }
  convolution_param {
    num_output: 320
    pad: 1
    kernel_size: 3
    weight_filler {
      type: "xavier"
      std: 0.03
    }
    bias_filler {
      type: "constant"
      value: 0.2
    }
  }
}
layer {
  name: "inception_5a/relu_3x3"
  type: "ReLU"
  bottom: "inception_5a/3x3"
  top: "inception_5a/3x3"
}
layer {
  name: "inception_5a/5x5_reduce"
  type: "Convolution"
  bottom: "pool4/3x3_s2"
  top: "inception_5a/5x5_reduce"
  param {
    lr_mult: 1
    decay_mult: 1
  }
  param {
    lr_mult: 2
    decay_mult: 0
  }
  convolution_param {
    num_output: 32
    kernel_size: 1
    weight_filler {
      type: "xavier"
      std: 0.2
    }
    bias_filler {
      type: "constant"
      value: 0.2
    }
  }
}
layer {
  name: "inception_5a/relu_5x5_reduce"
  type: "ReLU"
  bottom: "inception_5a/5x5_reduce"
  top: "inception_5a/5x5_reduce"
}
layer {
  name: "inception_5a/5x5"
  type: "Convolution"
  bottom: "inception_5a/5x5_reduce"
  top: "inception_5a/5x5"
  param {
    lr_mult: 1
    decay_mult: 1
  }
  param {
    lr_mult: 2
    decay_mult: 0
  }
  convolution_param {
    num_output: 128
    pad: 2
    kernel_size: 5
    weight_filler {
      type: "xavier"
      std: 0.03
    }
    bias_filler 
I0417 00:13:32.547585 28390 net.cpp:340] Input 0 -> data
I0417 00:13:32.547622 28390 layer_factory.hpp:74] Creating layer conv1/7x7_s2
I0417 00:13:32.547639 28390 net.cpp:84] Creating Layer conv1/7x7_s2
I0417 00:13:32.547644 28390 net.cpp:380] conv1/7x7_s2 <- data
I0417 00:13:32.547651 28390 net.cpp:338] conv1/7x7_s2 -> conv1/7x7_s2
I0417 00:13:32.547660 28390 net.cpp:113] Setting up conv1/7x7_s2
I0417 00:13:32.548091 28390 net.cpp:120] Top shape: 128 64 112 112 (102760448)
I0417 00:13:32.548106 28390 layer_factory.hpp:74] Creating layer conv1/relu_7x7
I0417 00:13:32.548112 28390 net.cpp:84] Creating Layer conv1/relu_7x7
I0417 00:13:32.548115 28390 net.cpp:380] conv1/relu_7x7 <- conv1/7x7_s2
I0417 00:13:32.548120 28390 net.cpp:327] conv1/relu_7x7 -> conv1/7x7_s2 (in-place)
I0417 00:13:32.548125 28390 net.cpp:113] Setting up conv1/relu_7x7
I0417 00:13:32.548135 28390 net.cpp:120] Top shape: 128 64 112 112 (102760448)
I0417 00:13:32.548137 28390 layer_factory.hpp:74] Creating layer pool1/3x3_s2
I0417 00:13:32.548142 28390 net.cpp:84] Creating Layer pool1/3x3_s2
I0417 00:13:32.548146 28390 net.cpp:380] pool1/3x3_s2 <- conv1/7x7_s2
I0417 00:13:32.548149 28390 net.cpp:338] pool1/3x3_s2 -> pool1/3x3_s2
I0417 00:13:32.548154 28390 net.cpp:113] Setting up pool1/3x3_s2
I0417 00:13:32.548164 28390 net.cpp:120] Top shape: 128 64 56 56 (25690112)
I0417 00:13:32.548168 28390 layer_factory.hpp:74] Creating layer conv2/3x3_reduce
I0417 00:13:32.548176 28390 net.cpp:84] Creating Layer conv2/3x3_reduce
I0417 00:13:32.548178 28390 net.cpp:380] conv2/3x3_reduce <- pool1/3x3_s2
I0417 00:13:32.548183 28390 net.cpp:338] conv2/3x3_reduce -> conv2/3x3_reduce
I0417 00:13:32.548188 28390 net.cpp:113] Setting up conv2/3x3_reduce
I0417 00:13:32.548238 28390 net.cpp:120] Top shape: 128 64 56 56 (25690112)
I0417 00:13:32.548244 28390 layer_factory.hpp:74] Creating layer conv2/relu_3x3_reduce
I0417 00:13:32.548249 28390 net.cpp:84] Creating Layer conv2/relu_3x3_reduce
I0417 00:13:32.548251 28390 net.cpp:380] conv2/relu_3x3_reduce <- conv2/3x3_reduce
I0417 00:13:32.548256 28390 net.cpp:327] conv2/relu_3x3_reduce -> conv2/3x3_reduce (in-place)
I0417 00:13:32.548260 28390 net.cpp:113] Setting up conv2/relu_3x3_reduce
I0417 00:13:32.548264 28390 net.cpp:120] Top shape: 128 64 56 56 (25690112)
I0417 00:13:32.548267 28390 layer_factory.hpp:74] Creating layer conv2/3x3
I0417 00:13:32.548272 28390 net.cpp:84] Creating Layer conv2/3x3
I0417 00:13:32.548279 28390 net.cpp:380] conv2/3x3 <- conv2/3x3_reduce
I0417 00:13:32.548285 28390 net.cpp:338] conv2/3x3 -> conv2/3x3
I0417 00:13:32.548290 28390 net.cpp:113] Setting up conv2/3x3
I0417 00:13:32.548998 28390 net.cpp:120] Top shape: 128 192 56 56 (77070336)
I0417 00:13:32.549006 28390 layer_factory.hpp:74] Creating layer conv2/relu_3x3
I0417 00:13:32.549011 28390 net.cpp:84] Creating Layer conv2/relu_3x3
I0417 00:13:32.549015 28390 net.cpp:380] conv2/relu_3x3 <- conv2/3x3
I0417 00:13:32.549017 28390 net.cpp:327] conv2/relu_3x3 -> conv2/3x3 (in-place)
I0417 00:13:32.549021 28390 net.cpp:113] Setting up conv2/relu_3x3
I0417 00:13:32.549026 28390 net.cpp:120] Top shape: 128 192 56 56 (77070336)
I0417 00:13:32.549028 28390 layer_factory.hpp:74] Creating layer pool2/3x3_s2
I0417 00:13:32.549033 28390 net.cpp:84] Creating Layer pool2/3x3_s2
I0417 00:13:32.549036 28390 net.cpp:380] pool2/3x3_s2 <- conv2/3x3
I0417 00:13:32.549041 28390 net.cpp:338] pool2/3x3_s2 -> pool2/3x3_s2
I0417 00:13:32.549046 28390 net.cpp:113] Setting up pool2/3x3_s2
I0417 00:13:32.549051 28390 net.cpp:120] Top shape: 128 192 28 28 (19267584)
I0417 00:13:32.549053 28390 layer_factory.hpp:74] Creating layer pool2/3x3_s2_pool2/3x3_s2_0_split
I0417 00:13:32.549058 28390 net.cpp:84] Creating Layer pool2/3x3_s2_pool2/3x3_s2_0_split
I0417 00:13:32.549062 28390 net.cpp:380] pool2/3x3_s2_pool2/3x3_s2_0_split <- pool2/3x3_s2
I0417 00:13:32.549067 28390 net.cpp:338] pool2/3x3_s2_pool2/3x3_s2_0_split -> pool2/3x3_s2_pool2/3x3_s2_0_split_0
I0417 00:13:32.549072 28390 net.cpp:338] pool2/3x3_s2_pool2/3x3_s2_0_split -> pool2/3x3_s2_pool2/3x3_s2_0_split_1
I0417 00:13:32.549077 28390 net.cpp:338] pool2/3x3_s2_pool2/3x3_s2_0_split -> pool2/3x3_s2_pool2/3x3_s2_0_split_2
I0417 00:13:32.549083 28390 net.cpp:338] pool2/3x3_s2_pool2/3x3_s2_0_split -> pool2/3x3_s2_pool2/3x3_s2_0_split_3
I0417 00:13:32.549088 28390 net.cpp:113] Setting up pool2/3x3_s2_pool2/3x3_s2_0_split
I0417 00:13:32.549093 28390 net.cpp:120] Top shape: 128 192 28 28 (19267584)
I0417 00:13:32.549098 28390 net.cpp:120] Top shape: 128 192 28 28 (19267584)
I0417 00:13:32.549100 28390 net.cpp:120] Top shape: 128 192 28 28 (19267584)
I0417 00:13:32.549104 28390 net.cpp:120] Top shape: 128 192 28 28 (19267584)
I0417 00:13:32.549106 28390 layer_factory.hpp:74] Creating layer inception_3a/1x1
I0417 00:13:32.549111 28390 net.cpp:84] Creating Layer inception_3a/1x1
I0417 00:13:32.549114 28390 net.cpp:380] inception_3a/1x1 <- pool2/3x3_s2_pool2/3x3_s2_0_split_0
I0417 00:13:32.549123 28390 net.cpp:338] inception_3a/1x1 -> inception_3a/1x1
I0417 00:13:32.549129 28390 net.cpp:113] Setting up inception_3a/1x1
I0417 00:13:32.549211 28390 net.cpp:120] Top shape: 128 64 28 28 (6422528)
I0417 00:13:32.549216 28390 layer_factory.hpp:74] Creating layer inception_3a/relu_1x1
I0417 00:13:32.549219 28390 net.cpp:84] Creating Layer inception_3a/relu_1x1
I0417 00:13:32.549222 28390 net.cpp:380] inception_3a/relu_1x1 <- inception_3a/1x1
I0417 00:13:32.549227 28390 net.cpp:327] inception_3a/relu_1x1 -> inception_3a/1x1 (in-place)
I0417 00:13:32.549232 28390 net.cpp:113] Setting up inception_3a/relu_1x1
I0417 00:13:32.549235 28390 net.cpp:120] Top shape: 128 64 28 28 (6422528)
I0417 00:13:32.549238 28390 layer_factory.hpp:74] Creating layer inception_3a/3x3_reduce
I0417 00:13:32.549242 28390 net.cpp:84] Creating Layer inception_3a/3x3_reduce
I0417 00:13:32.549245 28390 net.cpp:380] inception_3a/3x3_reduce <- pool2/3x3_s2_pool2/3x3_s2_0_split_1
I0417 00:13:32.549250 28390 net.cpp:338] inception_3a/3x3_reduce -> inception_3a/3x3_reduce
I0417 00:13:32.549254 28390 net.cpp:113] Setting up inception_3a/3x3_reduce
I0417 00:13:32.549304 28390 net.cpp:120] Top shape: 128 96 28 28 (9633792)
I0417 00:13:32.549311 28390 layer_factory.hpp:74] Creating layer inception_3a/relu_3x3_reduce
I0417 00:13:32.549315 28390 net.cpp:84] Creating Layer inception_3a/relu_3x3_reduce
I0417 00:13:32.549319 28390 net.cpp:380] inception_3a/relu_3x3_reduce <- inception_3a/3x3_reduce
I0417 00:13:32.549322 28390 net.cpp:327] inception_3a/relu_3x3_reduce -> inception_3a/3x3_reduce (in-place)
I0417 00:13:32.549330 28390 net.cpp:113] Setting up inception_3a/relu_3x3_reduce
I0417 00:13:32.549335 28390 net.cpp:120] Top shape: 128 96 28 28 (9633792)
I0417 00:13:32.549337 28390 layer_factory.hpp:74] Creating layer inception_3a/3x3
I0417 00:13:32.549342 28390 net.cpp:84] Creating Layer inception_3a/3x3
I0417 00:13:32.549345 28390 net.cpp:380] inception_3a/3x3 <- inception_3a/3x3_reduce
I0417 00:13:32.549350 28390 net.cpp:338] inception_3a/3x3 -> inception_3a/3x3
I0417 00:13:32.549355 28390 net.cpp:113] Setting up inception_3a/3x3
I0417 00:13:32.550036 28390 net.cpp:120] Top shape: 128 128 28 28 (12845056)
I0417 00:13:32.550043 28390 layer_factory.hpp:74] Creating layer inception_3a/relu_3x3
I0417 00:13:32.550048 28390 net.cpp:84] Creating Layer inception_3a/relu_3x3
I0417 00:13:32.550051 28390 net.cpp:380] inception_3a/relu_3x3 <- inception_3a/3x3
I0417 00:13:32.550055 28390 net.cpp:327] inception_3a/relu_3x3 -> inception_3a/3x3 (in-place)
I0417 00:13:32.550060 28390 net.cpp:113] Setting up inception_3a/relu_3x3
I0417 00:13:32.550063 28390 net.cpp:120] Top shape: 128 128 28 28 (12845056)
I0417 00:13:32.550066 28390 layer_factory.hpp:74] Creating layer inception_3a/5x5_reduce
I0417 00:13:32.550071 28390 net.cpp:84] Creating Layer inception_3a/5x5_reduce
I0417 00:13:32.550075 28390 net.cpp:380] inception_3a/5x5_reduce <- pool2/3x3_s2_pool2/3x3_s2_0_split_2
I0417 00:13:32.550079 28390 net.cpp:338] inception_3a/5x5_reduce -> inception_3a/5x5_reduce
I0417 00:13:32.550084 28390 net.cpp:113] Setting up inception_3a/5x5_reduce
I0417 00:13:32.550113 28390 net.cpp:120] Top shape: 128 16 28 28 (1605632)
I0417 00:13:32.550118 28390 layer_factory.hpp:74] Creating layer inception_3a/relu_5x5_reduce
I0417 00:13:32.550124 28390 net.cpp:84] Creating Layer inception_3a/relu_5x5_reduce
I0417 00:13:32.550127 28390 net.cpp:380] inception_3a/relu_5x5_reduce <- inception_3a/5x5_reduce
I0417 00:13:32.550132 28390 net.cpp:327] inception_3a/relu_5x5_reduce -> inception_3a/5x5_reduce (in-place)
I0417 00:13:32.550135 28390 net.cpp:113] Setting up inception_3a/relu_5x5_reduce
I0417 00:13:32.550139 28390 net.cpp:120] Top shape: 128 16 28 28 (1605632)
I0417 00:13:32.550143 28390 layer_factory.hpp:74] Creating layer inception_3a/5x5
I0417 00:13:32.550148 28390 net.cpp:84] Creating Layer inception_3a/5x5
I0417 00:13:32.550150 28390 net.cpp:380] inception_3a/5x5 <- inception_3a/5x5_reduce
I0417 00:13:32.550155 28390 net.cpp:338] inception_3a/5x5 -> inception_3a/5x5
I0417 00:13:32.550160 28390 net.cpp:113] Setting up inception_3a/5x5
I0417 00:13:32.550247 28390 net.cpp:120] Top shape: 128 32 28 28 (3211264)
I0417 00:13:32.550264 28390 layer_factory.hpp:74] Creating layer inception_3a/relu_5x5
I0417 00:13:32.550267 28390 net.cpp:84] Creating Layer inception_3a/relu_5x5
I0417 00:13:32.550271 28390 net.cpp:380] inception_3a/relu_5x5 <- inception_3a/5x5
I0417 00:13:32.550276 28390 net.cpp:327] inception_3a/relu_5x5 -> inception_3a/5x5 (in-place)
I0417 00:13:32.550279 28390 net.cpp:113] Setting up inception_3a/relu_5x5
I0417 00:13:32.550282 28390 net.cpp:120] Top shape: 128 32 28 28 (3211264)
I0417 00:13:32.550285 28390 layer_factory.hpp:74] Creating layer inception_3a/pool
I0417 00:13:32.550289 28390 net.cpp:84] Creating Layer inception_3a/pool
I0417 00:13:32.550292 28390 net.cpp:380] inception_3a/pool <- pool2/3x3_s2_pool2/3x3_s2_0_split_3
I0417 00:13:32.550297 28390 net.cpp:338] inception_3a/pool -> inception_3a/pool
I0417 00:13:32.550302 28390 net.cpp:113] Setting up inception_3a/pool
I0417 00:13:32.550307 28390 net.cpp:120] Top shape: 128 192 28 28 (19267584)
I0417 00:13:32.550309 28390 layer_factory.hpp:74] Creating layer inception_3a/pool_proj
I0417 00:13:32.550314 28390 net.cpp:84] Creating Layer inception_3a/pool_proj
I0417 00:13:32.550318 28390 net.cpp:380] inception_3a/pool_proj <- inception_3a/pool
I0417 00:13:32.550323 28390 net.cpp:338] inception_3a/pool_proj -> inception_3a/pool_proj
I0417 00:13:32.550328 28390 net.cpp:113] Setting up inception_3a/pool_proj
I0417 00:13:32.550375 28390 net.cpp:120] Top shape: 128 32 28 28 (3211264)
I0417 00:13:32.550385 28390 layer_factory.hpp:74] Creating layer inception_3a/relu_pool_proj
I0417 00:13:32.550390 28390 net.cpp:84] Creating Layer inception_3a/relu_pool_proj
I0417 00:13:32.550393 28390 net.cpp:380] inception_3a/relu_pool_proj <- inception_3a/pool_proj
I0417 00:13:32.550398 28390 net.cpp:327] inception_3a/relu_pool_proj -> inception_3a/pool_proj (in-place)
I0417 00:13:32.550402 28390 net.cpp:113] Setting up inception_3a/relu_pool_proj
I0417 00:13:32.550406 28390 net.cpp:120] Top shape: 128 32 28 28 (3211264)
I0417 00:13:32.550408 28390 layer_factory.hpp:74] Creating layer inception_3a/output
I0417 00:13:32.550413 28390 net.cpp:84] Creating Layer inception_3a/output
I0417 00:13:32.550415 28390 net.cpp:380] inception_3a/output <- inception_3a/1x1
I0417 00:13:32.550420 28390 net.cpp:380] inception_3a/output <- inception_3a/3x3
I0417 00:13:32.550422 28390 net.cpp:380] inception_3a/output <- inception_3a/5x5
I0417 00:13:32.550426 28390 net.cpp:380] inception_3a/output <- inception_3a/pool_proj
I0417 00:13:32.550429 28390 net.cpp:338] inception_3a/output -> inception_3a/output
I0417 00:13:32.550436 28390 net.cpp:113] Setting up inception_3a/output
I0417 00:13:32.550441 28390 net.cpp:120] Top shape: 128 256 28 28 (25690112)
I0417 00:13:32.550443 28390 layer_factory.hpp:74] Creating layer inception_3a/output_inception_3a/output_0_split
I0417 00:13:32.550447 28390 net.cpp:84] Creating Layer inception_3a/output_inception_3a/output_0_split
I0417 00:13:32.550451 28390 net.cpp:380] inception_3a/output_inception_3a/output_0_split <- inception_3a/output
I0417 00:13:32.550454 28390 net.cpp:338] inception_3a/output_inception_3a/output_0_split -> inception_3a/output_inception_3a/output_0_split_0
I0417 00:13:32.550459 28390 net.cpp:338] inception_3a/output_inception_3a/output_0_split -> inception_3a/output_inception_3a/output_0_split_1
I0417 00:13:32.550464 28390 net.cpp:338] inception_3a/output_inception_3a/output_0_split -> inception_3a/output_inception_3a/output_0_split_2
I0417 00:13:32.550468 28390 net.cpp:338] inception_3a/output_inception_3a/output_0_split -> inception_3a/output_inception_3a/output_0_split_3
I0417 00:13:32.550472 28390 net.cpp:113] Setting up inception_3a/output_inception_3a/output_0_split
I0417 00:13:32.550477 28390 net.cpp:120] Top shape: 128 256 28 28 (25690112)
I0417 00:13:32.550480 28390 net.cpp:120] Top shape: 128 256 28 28 (25690112)
I0417 00:13:32.550484 28390 net.cpp:120] Top shape: 128 256 28 28 (25690112)
I0417 00:13:32.550487 28390 net.cpp:120] Top shape: 128 256 28 28 (25690112)
I0417 00:13:32.550490 28390 layer_factory.hpp:74] Creating layer inception_3b/1x1
I0417 00:13:32.550495 28390 net.cpp:84] Creating Layer inception_3b/1x1
I0417 00:13:32.550498 28390 net.cpp:380] inception_3b/1x1 <- inception_3a/output_inception_3a/output_0_split_0
I0417 00:13:32.550503 28390 net.cpp:338] inception_3b/1x1 -> inception_3b/1x1
I0417 00:13:32.550508 28390 net.cpp:113] Setting up inception_3b/1x1
I0417 00:13:32.550717 28390 net.cpp:120] Top shape: 128 128 28 28 (12845056)
I0417 00:13:32.550724 28390 layer_factory.hpp:74] Creating layer inception_3b/relu_1x1
I0417 00:13:32.550729 28390 net.cpp:84] Creating Layer inception_3b/relu_1x1
I0417 00:13:32.550731 28390 net.cpp:380] inception_3b/relu_1x1 <- inception_3b/1x1
I0417 00:13:32.550736 28390 net.cpp:327] inception_3b/relu_1x1 -> inception_3b/1x1 (in-place)
I0417 00:13:32.550740 28390 net.cpp:113] Setting up inception_3b/relu_1x1
I0417 00:13:32.550745 28390 net.cpp:120] Top shape: 128 128 28 28 (12845056)
I0417 00:13:32.550747 28390 layer_factory.hpp:74] Creating layer inception_3b/3x3_reduce
I0417 00:13:32.550751 28390 net.cpp:84] Creating Layer inception_3b/3x3_reduce
I0417 00:13:32.550755 28390 net.cpp:380] inception_3b/3x3_reduce <- inception_3a/output_inception_3a/output_0_split_1
I0417 00:13:32.550760 28390 net.cpp:338] inception_3b/3x3_reduce -> inception_3b/3x3_reduce
I0417 00:13:32.550765 28390 net.cpp:113] Setting up inception_3b/3x3_reduce
I0417 00:13:32.550971 28390 net.cpp:120] Top shape: 128 128 28 28 (12845056)
I0417 00:13:32.550979 28390 layer_factory.hpp:74] Creating layer inception_3b/relu_3x3_reduce
I0417 00:13:32.550983 28390 net.cpp:84] Creating Layer inception_3b/relu_3x3_reduce
I0417 00:13:32.550987 28390 net.cpp:380] inception_3b/relu_3x3_reduce <- inception_3b/3x3_reduce
I0417 00:13:32.550990 28390 net.cpp:327] inception_3b/relu_3x3_reduce -> inception_3b/3x3_reduce (in-place)
I0417 00:13:32.550994 28390 net.cpp:113] Setting up inception_3b/relu_3x3_reduce
I0417 00:13:32.550997 28390 net.cpp:120] Top shape: 128 128 28 28 (12845056)
I0417 00:13:32.551000 28390 layer_factory.hpp:74] Creating layer inception_3b/3x3
I0417 00:13:32.551007 28390 net.cpp:84] Creating Layer inception_3b/3x3
I0417 00:13:32.551009 28390 net.cpp:380] inception_3b/3x3 <- inception_3b/3x3_reduce
I0417 00:13:32.551014 28390 net.cpp:338] inception_3b/3x3 -> inception_3b/3x3
I0417 00:13:32.551018 28390 net.cpp:113] Setting up inception_3b/3x3
I0417 00:13:32.552386 28390 net.cpp:120] Top shape: 128 192 28 28 (19267584)
I0417 00:13:32.552394 28390 layer_factory.hpp:74] Creating layer inception_3b/relu_3x3
I0417 00:13:32.552398 28390 net.cpp:84] Creating Layer inception_3b/relu_3x3
I0417 00:13:32.552402 28390 net.cpp:380] inception_3b/relu_3x3 <- inception_3b/3x3
I0417 00:13:32.552405 28390 net.cpp:327] inception_3b/relu_3x3 -> inception_3b/3x3 (in-place)
I0417 00:13:32.552409 28390 net.cpp:113] Setting up inception_3b/relu_3x3
I0417 00:13:32.552413 28390 net.cpp:120] Top shape: 128 192 28 28 (19267584)
I0417 00:13:32.552417 28390 layer_factory.hpp:74] Creating layer inception_3b/5x5_reduce
I0417 00:13:32.552423 28390 net.cpp:84] Creating Layer inception_3b/5x5_reduce
I0417 00:13:32.552425 28390 net.cpp:380] inception_3b/5x5_reduce <- inception_3a/output_inception_3a/output_0_split_2
I0417 00:13:32.552431 28390 net.cpp:338] inception_3b/5x5_reduce -> inception_3b/5x5_reduce
I0417 00:13:32.552436 28390 net.cpp:113] Setting up inception_3b/5x5_reduce
I0417 00:13:32.552495 28390 net.cpp:120] Top shape: 128 32 28 28 (3211264)
I0417 00:13:32.552500 28390 layer_factory.hpp:74] Creating layer inception_3b/relu_5x5_reduce
I0417 00:13:32.552503 28390 net.cpp:84] Creating Layer inception_3b/relu_5x5_reduce
I0417 00:13:32.552506 28390 net.cpp:380] inception_3b/relu_5x5_reduce <- inception_3b/5x5_reduce
I0417 00:13:32.552510 28390 net.cpp:327] inception_3b/relu_5x5_reduce -> inception_3b/5x5_reduce (in-place)
I0417 00:13:32.552513 28390 net.cpp:113] Setting up inception_3b/relu_5x5_reduce
I0417 00:13:32.552517 28390 net.cpp:120] Top shape: 128 32 28 28 (3211264)
I0417 00:13:32.552520 28390 layer_factory.hpp:74] Creating layer inception_3b/5x5
I0417 00:13:32.552526 28390 net.cpp:84] Creating Layer inception_3b/5x5
I0417 00:13:32.552531 28390 net.cpp:380] inception_3b/5x5 <- inception_3b/5x5_reduce
I0417 00:13:32.552536 28390 net.cpp:338] inception_3b/5x5 -> inception_3b/5x5
I0417 00:13:32.552541 28390 net.cpp:113] Setting up inception_3b/5x5
I0417 00:13:32.553007 28390 net.cpp:120] Top shape: 128 96 28 28 (9633792)
I0417 00:13:32.553014 28390 layer_factory.hpp:74] Creating layer inception_3b/relu_5x5
I0417 00:13:32.553017 28390 net.cpp:84] Creating Layer inception_3b/relu_5x5
I0417 00:13:32.553020 28390 net.cpp:380] inception_3b/relu_5x5 <- inception_3b/5x5
I0417 00:13:32.553025 28390 net.cpp:327] inception_3b/relu_5x5 -> inception_3b/5x5 (in-place)
I0417 00:13:32.553028 28390 net.cpp:113] Setting up inception_3b/relu_5x5
I0417 00:13:32.553031 28390 net.cpp:120] Top shape: 128 96 28 28 (9633792)
I0417 00:13:32.553035 28390 layer_factory.hpp:74] Creating layer inception_3b/pool
I0417 00:13:32.553040 28390 net.cpp:84] Creating Layer inception_3b/pool
I0417 00:13:32.553042 28390 net.cpp:380] inception_3b/pool <- inception_3a/output_inception_3a/output_0_split_3
I0417 00:13:32.553047 28390 net.cpp:338] inception_3b/pool -> inception_3b/pool
I0417 00:13:32.553051 28390 net.cpp:113] Setting up inception_3b/pool
I0417 00:13:32.553056 28390 net.cpp:120] Top shape: 128 256 28 28 (25690112)
I0417 00:13:32.553059 28390 layer_factory.hpp:74] Creating layer inception_3b/pool_proj
I0417 00:13:32.553068 28390 net.cpp:84] Creating Layer inception_3b/pool_proj
I0417 00:13:32.553071 28390 net.cpp:380] inception_3b/pool_proj <- inception_3b/pool
I0417 00:13:32.553076 28390 net.cpp:338] inception_3b/pool_proj -> inception_3b/pool_proj
I0417 00:13:32.553081 28390 net.cpp:113] Setting up inception_3b/pool_proj
I0417 00:13:32.553189 28390 net.cpp:120] Top shape: 128 64 28 28 (6422528)
I0417 00:13:32.553194 28390 layer_factory.hpp:74] Creating layer inception_3b/relu_pool_proj
I0417 00:13:32.553199 28390 net.cpp:84] Creating Layer inception_3b/relu_pool_proj
I0417 00:13:32.553201 28390 net.cpp:380] inception_3b/relu_pool_proj <- inception_3b/pool_proj
I0417 00:13:32.553205 28390 net.cpp:327] inception_3b/relu_pool_proj -> inception_3b/pool_proj (in-place)
I0417 00:13:32.553210 28390 net.cpp:113] Setting up inception_3b/relu_pool_proj
I0417 00:13:32.553213 28390 net.cpp:120] Top shape: 128 64 28 28 (6422528)
I0417 00:13:32.553216 28390 layer_factory.hpp:74] Creating layer inception_3b/output
I0417 00:13:32.553220 28390 net.cpp:84] Creating Layer inception_3b/output
I0417 00:13:32.553223 28390 net.cpp:380] inception_3b/output <- inception_3b/1x1
I0417 00:13:32.553226 28390 net.cpp:380] inception_3b/output <- inception_3b/3x3
I0417 00:13:32.553230 28390 net.cpp:380] inception_3b/output <- inception_3b/5x5
I0417 00:13:32.553233 28390 net.cpp:380] inception_3b/output <- inception_3b/pool_proj
I0417 00:13:32.553237 28390 net.cpp:338] inception_3b/output -> inception_3b/output
I0417 00:13:32.553242 28390 net.cpp:113] Setting up inception_3b/output
I0417 00:13:32.553246 28390 net.cpp:120] Top shape: 128 480 28 28 (48168960)
I0417 00:13:32.553249 28390 layer_factory.hpp:74] Creating layer pool3/3x3_s2
I0417 00:13:32.553253 28390 net.cpp:84] Creating Layer pool3/3x3_s2
I0417 00:13:32.553256 28390 net.cpp:380] pool3/3x3_s2 <- inception_3b/output
I0417 00:13:32.553261 28390 net.cpp:338] pool3/3x3_s2 -> pool3/3x3_s2
I0417 00:13:32.553264 28390 net.cpp:113] Setting up pool3/3x3_s2
I0417 00:13:32.553269 28390 net.cpp:120] Top shape: 128 480 14 14 (12042240)
I0417 00:13:32.553272 28390 layer_factory.hpp:74] Creating layer pool3/3x3_s2_pool3/3x3_s2_0_split
I0417 00:13:32.553277 28390 net.cpp:84] Creating Layer pool3/3x3_s2_pool3/3x3_s2_0_split
I0417 00:13:32.553280 28390 net.cpp:380] pool3/3x3_s2_pool3/3x3_s2_0_split <- pool3/3x3_s2
I0417 00:13:32.553284 28390 net.cpp:338] pool3/3x3_s2_pool3/3x3_s2_0_split -> pool3/3x3_s2_pool3/3x3_s2_0_split_0
I0417 00:13:32.553289 28390 net.cpp:338] pool3/3x3_s2_pool3/3x3_s2_0_split -> pool3/3x3_s2_pool3/3x3_s2_0_split_1
I0417 00:13:32.553297 28390 net.cpp:338] pool3/3x3_s2_pool3/3x3_s2_0_split -> pool3/3x3_s2_pool3/3x3_s2_0_split_2
I0417 00:13:32.553302 28390 net.cpp:338] pool3/3x3_s2_pool3/3x3_s2_0_split -> pool3/3x3_s2_pool3/3x3_s2_0_split_3
I0417 00:13:32.553305 28390 net.cpp:113] Setting up pool3/3x3_s2_pool3/3x3_s2_0_split
I0417 00:13:32.553310 28390 net.cpp:120] Top shape: 128 480 14 14 (12042240)
I0417 00:13:32.553313 28390 net.cpp:120] Top shape: 128 480 14 14 (12042240)
I0417 00:13:32.553316 28390 net.cpp:120] Top shape: 128 480 14 14 (12042240)
I0417 00:13:32.553320 28390 net.cpp:120] Top shape: 128 480 14 14 (12042240)
I0417 00:13:32.553323 28390 layer_factory.hpp:74] Creating layer inception_4a/1x1
I0417 00:13:32.553328 28390 net.cpp:84] Creating Layer inception_4a/1x1
I0417 00:13:32.553331 28390 net.cpp:380] inception_4a/1x1 <- pool3/3x3_s2_pool3/3x3_s2_0_split_0
I0417 00:13:32.553336 28390 net.cpp:338] inception_4a/1x1 -> inception_4a/1x1
I0417 00:13:32.553340 28390 net.cpp:113] Setting up inception_4a/1x1
I0417 00:13:32.553899 28390 net.cpp:120] Top shape: 128 192 14 14 (4816896)
I0417 00:13:32.553905 28390 layer_factory.hpp:74] Creating layer inception_4a/relu_1x1
I0417 00:13:32.553911 28390 net.cpp:84] Creating Layer inception_4a/relu_1x1
I0417 00:13:32.553915 28390 net.cpp:380] inception_4a/relu_1x1 <- inception_4a/1x1
I0417 00:13:32.553917 28390 net.cpp:327] inception_4a/relu_1x1 -> inception_4a/1x1 (in-place)
I0417 00:13:32.553921 28390 net.cpp:113] Setting up inception_4a/relu_1x1
I0417 00:13:32.553928 28390 net.cpp:120] Top shape: 128 192 14 14 (4816896)
I0417 00:13:32.553931 28390 layer_factory.hpp:74] Creating layer inception_4a/3x3_reduce
I0417 00:13:32.553937 28390 net.cpp:84] Creating Layer inception_4a/3x3_reduce
I0417 00:13:32.553941 28390 net.cpp:380] inception_4a/3x3_reduce <- pool3/3x3_s2_pool3/3x3_s2_0_split_1
I0417 00:13:32.553944 28390 net.cpp:338] inception_4a/3x3_reduce -> inception_4a/3x3_reduce
I0417 00:13:32.553949 28390 net.cpp:113] Setting up inception_4a/3x3_reduce
I0417 00:13:32.554232 28390 net.cpp:120] Top shape: 128 96 14 14 (2408448)
I0417 00:13:32.554241 28390 layer_factory.hpp:74] Creating layer inception_4a/relu_3x3_reduce
I0417 00:13:32.554246 28390 net.cpp:84] Creating Layer inception_4a/relu_3x3_reduce
I0417 00:13:32.554250 28390 net.cpp:380] inception_4a/relu_3x3_reduce <- inception_4a/3x3_reduce
I0417 00:13:32.554253 28390 net.cpp:327] inception_4a/relu_3x3_reduce -> inception_4a/3x3_reduce (in-place)
I0417 00:13:32.554257 28390 net.cpp:113] Setting up inception_4a/relu_3x3_reduce
I0417 00:13:32.554261 28390 net.cpp:120] Top shape: 128 96 14 14 (2408448)
I0417 00:13:32.554265 28390 layer_factory.hpp:74] Creating layer inception_4a/3x3
I0417 00:13:32.554273 28390 net.cpp:84] Creating Layer inception_4a/3x3
I0417 00:13:32.554277 28390 net.cpp:380] inception_4a/3x3 <- inception_4a/3x3_reduce
I0417 00:13:32.554281 28390 net.cpp:338] inception_4a/3x3 -> inception_4a/3x3
I0417 00:13:32.554286 28390 net.cpp:113] Setting up inception_4a/3x3
I0417 00:13:32.555369 28390 net.cpp:120] Top shape: 128 208 14 14 (5218304)
I0417 00:13:32.555378 28390 layer_factory.hpp:74] Creating layer inception_4a/relu_3x3
I0417 00:13:32.555382 28390 net.cpp:84] Creating Layer inception_4a/relu_3x3
I0417 00:13:32.555385 28390 net.cpp:380] inception_4a/relu_3x3 <- inception_4a/3x3
I0417 00:13:32.555389 28390 net.cpp:327] inception_4a/relu_3x3 -> inception_4a/3x3 (in-place)
I0417 00:13:32.555393 28390 net.cpp:113] Setting up inception_4a/relu_3x3
I0417 00:13:32.555397 28390 net.cpp:120] Top shape: 128 208 14 14 (5218304)
I0417 00:13:32.555399 28390 layer_factory.hpp:74] Creating layer inception_4a/5x5_reduce
I0417 00:13:32.555405 28390 net.cpp:84] Creating Layer inception_4a/5x5_reduce
I0417 00:13:32.555408 28390 net.cpp:380] inception_4a/5x5_reduce <- pool3/3x3_s2_pool3/3x3_s2_0_split_2
I0417 00:13:32.555413 28390 net.cpp:338] inception_4a/5x5_reduce -> inception_4a/5x5_reduce
I0417 00:13:32.555418 28390 net.cpp:113] Setting up inception_4a/5x5_reduce
I0417 00:13:32.555471 28390 net.cpp:120] Top shape: 128 16 14 14 (401408)
I0417 00:13:32.555476 28390 layer_factory.hpp:74] Creating layer inception_4a/relu_5x5_reduce
I0417 00:13:32.555480 28390 net.cpp:84] Creating Layer inception_4a/relu_5x5_reduce
I0417 00:13:32.555483 28390 net.cpp:380] inception_4a/relu_5x5_reduce <- inception_4a/5x5_reduce
I0417 00:13:32.555490 28390 net.cpp:327] inception_4a/relu_5x5_reduce -> inception_4a/5x5_reduce (in-place)
I0417 00:13:32.555493 28390 net.cpp:113] Setting up inception_4a/relu_5x5_reduce
I0417 00:13:32.555496 28390 net.cpp:120] Top shape: 128 16 14 14 (401408)
I0417 00:13:32.555500 28390 layer_factory.hpp:74] Creating layer inception_4a/5x5
I0417 00:13:32.555505 28390 net.cpp:84] Creating Layer inception_4a/5x5
I0417 00:13:32.555507 28390 net.cpp:380] inception_4a/5x5 <- inception_4a/5x5_reduce
I0417 00:13:32.555512 28390 net.cpp:338] inception_4a/5x5 -> inception_4a/5x5
I0417 00:13:32.555517 28390 net.cpp:113] Setting up inception_4a/5x5
I0417 00:13:32.555639 28390 net.cpp:120] Top shape: 128 48 14 14 (1204224)
I0417 00:13:32.555644 28390 layer_factory.hpp:74] Creating layer inception_4a/relu_5x5
I0417 00:13:32.555649 28390 net.cpp:84] Creating Layer inception_4a/relu_5x5
I0417 00:13:32.555651 28390 net.cpp:380] inception_4a/relu_5x5 <- inception_4a/5x5
I0417 00:13:32.555656 28390 net.cpp:327] inception_4a/relu_5x5 -> inception_4a/5x5 (in-place)
I0417 00:13:32.555660 28390 net.cpp:113] Setting up inception_4a/relu_5x5
I0417 00:13:32.555663 28390 net.cpp:120] Top shape: 128 48 14 14 (1204224)
I0417 00:13:32.555670 28390 layer_factory.hpp:74] Creating layer inception_4a/pool
I0417 00:13:32.555675 28390 net.cpp:84] Creating Layer inception_4a/pool
I0417 00:13:32.555677 28390 net.cpp:380] inception_4a/pool <- pool3/3x3_s2_pool3/3x3_s2_0_split_3
I0417 00:13:32.555681 28390 net.cpp:338] inception_4a/pool -> inception_4a/pool
I0417 00:13:32.555685 28390 net.cpp:113] Setting up inception_4a/pool
I0417 00:13:32.555691 28390 net.cpp:120] Top shape: 128 480 14 14 (12042240)
I0417 00:13:32.555693 28390 layer_factory.hpp:74] Creating layer inception_4a/pool_proj
I0417 00:13:32.555699 28390 net.cpp:84] Creating Layer inception_4a/pool_proj
I0417 00:13:32.555702 28390 net.cpp:380] inception_4a/pool_proj <- inception_4a/pool
I0417 00:13:32.555707 28390 net.cpp:338] inception_4a/pool_proj -> inception_4a/pool_proj
I0417 00:13:32.555712 28390 net.cpp:113] Setting up inception_4a/pool_proj
I0417 00:13:32.555903 28390 net.cpp:120] Top shape: 128 64 14 14 (1605632)
I0417 00:13:32.555909 28390 layer_factory.hpp:74] Creating layer inception_4a/relu_pool_proj
I0417 00:13:32.555914 28390 net.cpp:84] Creating Layer inception_4a/relu_pool_proj
I0417 00:13:32.555917 28390 net.cpp:380] inception_4a/relu_pool_proj <- inception_4a/pool_proj
I0417 00:13:32.555922 28390 net.cpp:327] inception_4a/relu_pool_proj -> inception_4a/pool_proj (in-place)
I0417 00:13:32.555925 28390 net.cpp:113] Setting up inception_4a/relu_pool_proj
I0417 00:13:32.555928 28390 net.cpp:120] Top shape: 128 64 14 14 (1605632)
I0417 00:13:32.555932 28390 layer_factory.hpp:74] Creating layer inception_4a/output
I0417 00:13:32.555935 28390 net.cpp:84] Creating Layer inception_4a/output
I0417 00:13:32.555940 28390 net.cpp:380] inception_4a/output <- inception_4a/1x1
I0417 00:13:32.555943 28390 net.cpp:380] inception_4a/output <- inception_4a/3x3
I0417 00:13:32.555946 28390 net.cpp:380] inception_4a/output <- inception_4a/5x5
I0417 00:13:32.555950 28390 net.cpp:380] inception_4a/output <- inception_4a/pool_proj
I0417 00:13:32.555953 28390 net.cpp:338] inception_4a/output -> inception_4a/output
I0417 00:13:32.555958 28390 net.cpp:113] Setting up inception_4a/output
I0417 00:13:32.555963 28390 net.cpp:120] Top shape: 128 512 14 14 (12845056)
I0417 00:13:32.555966 28390 layer_factory.hpp:74] Creating layer inception_4a/output_inception_4a/output_0_split
I0417 00:13:32.555970 28390 net.cpp:84] Creating Layer inception_4a/output_inception_4a/output_0_split
I0417 00:13:32.555974 28390 net.cpp:380] inception_4a/output_inception_4a/output_0_split <- inception_4a/output
I0417 00:13:32.555976 28390 net.cpp:338] inception_4a/output_inception_4a/output_0_split -> inception_4a/output_inception_4a/output_0_split_0
I0417 00:13:32.555984 28390 net.cpp:338] inception_4a/output_inception_4a/output_0_split -> inception_4a/output_inception_4a/output_0_split_1
I0417 00:13:32.555989 28390 net.cpp:338] inception_4a/output_inception_4a/output_0_split -> inception_4a/output_inception_4a/output_0_split_2
I0417 00:13:32.555994 28390 net.cpp:338] inception_4a/output_inception_4a/output_0_split -> inception_4a/output_inception_4a/output_0_split_3
I0417 00:13:32.555997 28390 net.cpp:113] Setting up inception_4a/output_inception_4a/output_0_split
I0417 00:13:32.556002 28390 net.cpp:120] Top shape: 128 512 14 14 (12845056)
I0417 00:13:32.556006 28390 net.cpp:120] Top shape: 128 512 14 14 (12845056)
I0417 00:13:32.556010 28390 net.cpp:120] Top shape: 128 512 14 14 (12845056)
I0417 00:13:32.556012 28390 net.cpp:120] Top shape: 128 512 14 14 (12845056)
I0417 00:13:32.556015 28390 layer_factory.hpp:74] Creating layer inception_4b/1x1
I0417 00:13:32.556020 28390 net.cpp:84] Creating Layer inception_4b/1x1
I0417 00:13:32.556023 28390 net.cpp:380] inception_4b/1x1 <- inception_4a/output_inception_4a/output_0_split_0
I0417 00:13:32.556028 28390 net.cpp:338] inception_4b/1x1 -> inception_4b/1x1
I0417 00:13:32.556032 28390 net.cpp:113] Setting up inception_4b/1x1
I0417 00:13:32.556532 28390 net.cpp:120] Top shape: 128 160 14 14 (4014080)
I0417 00:13:32.556540 28390 layer_factory.hpp:74] Creating layer inception_4b/relu_1x1
I0417 00:13:32.556546 28390 net.cpp:84] Creating Layer inception_4b/relu_1x1
I0417 00:13:32.556550 28390 net.cpp:380] inception_4b/relu_1x1 <- inception_4b/1x1
I0417 00:13:32.556553 28390 net.cpp:327] inception_4b/relu_1x1 -> inception_4b/1x1 (in-place)
I0417 00:13:32.556557 28390 net.cpp:113] Setting up inception_4b/relu_1x1
I0417 00:13:32.556561 28390 net.cpp:120] Top shape: 128 160 14 14 (4014080)
I0417 00:13:32.556565 28390 layer_factory.hpp:74] Creating layer inception_4b/3x3_reduce
I0417 00:13:32.556570 28390 net.cpp:84] Creating Layer inception_4b/3x3_reduce
I0417 00:13:32.556571 28390 net.cpp:380] inception_4b/3x3_reduce <- inception_4a/output_inception_4a/output_0_split_1
I0417 00:13:32.556577 28390 net.cpp:338] inception_4b/3x3_reduce -> inception_4b/3x3_reduce
I0417 00:13:32.556582 28390 net.cpp:113] Setting up inception_4b/3x3_reduce
I0417 00:13:32.556934 28390 net.cpp:120] Top shape: 128 112 14 14 (2809856)
I0417 00:13:32.556941 28390 layer_factory.hpp:74] Creating layer inception_4b/relu_3x3_reduce
I0417 00:13:32.556944 28390 net.cpp:84] Creating Layer inception_4b/relu_3x3_reduce
I0417 00:13:32.556947 28390 net.cpp:380] inception_4b/relu_3x3_reduce <- inception_4b/3x3_reduce
I0417 00:13:32.556952 28390 net.cpp:327] inception_4b/relu_3x3_reduce -> inception_4b/3x3_reduce (in-place)
I0417 00:13:32.556957 28390 net.cpp:113] Setting up inception_4b/relu_3x3_reduce
I0417 00:13:32.556960 28390 net.cpp:120] Top shape: 128 112 14 14 (2809856)
I0417 00:13:32.556962 28390 layer_factory.hpp:74] Creating layer inception_4b/3x3
I0417 00:13:32.556967 28390 net.cpp:84] Creating Layer inception_4b/3x3
I0417 00:13:32.556969 28390 net.cpp:380] inception_4b/3x3 <- inception_4b/3x3_reduce
I0417 00:13:32.556974 28390 net.cpp:338] inception_4b/3x3 -> inception_4b/3x3
I0417 00:13:32.556979 28390 net.cpp:113] Setting up inception_4b/3x3
I0417 00:13:32.558331 28390 net.cpp:120] Top shape: 128 224 14 14 (5619712)
I0417 00:13:32.558339 28390 layer_factory.hpp:74] Creating layer inception_4b/relu_3x3
I0417 00:13:32.558343 28390 net.cpp:84] Creating Layer inception_4b/relu_3x3
I0417 00:13:32.558346 28390 net.cpp:380] inception_4b/relu_3x3 <- inception_4b/3x3
I0417 00:13:32.558351 28390 net.cpp:327] inception_4b/relu_3x3 -> inception_4b/3x3 (in-place)
I0417 00:13:32.558356 28390 net.cpp:113] Setting up inception_4b/relu_3x3
I0417 00:13:32.558359 28390 net.cpp:120] Top shape: 128 224 14 14 (5619712)
I0417 00:13:32.558362 28390 layer_factory.hpp:74] Creating layer inception_4b/5x5_reduce
I0417 00:13:32.558367 28390 net.cpp:84] Creating Layer inception_4b/5x5_reduce
I0417 00:13:32.558370 28390 net.cpp:380] inception_4b/5x5_reduce <- inception_4a/output_inception_4a/output_0_split_2
I0417 00:13:32.558375 28390 net.cpp:338] inception_4b/5x5_reduce -> inception_4b/5x5_reduce
I0417 00:13:32.558380 28390 net.cpp:113] Setting up inception_4b/5x5_reduce
I0417 00:13:32.558460 28390 net.cpp:120] Top shape: 128 24 14 14 (602112)
I0417 00:13:32.558465 28390 layer_factory.hpp:74] Creating layer inception_4b/relu_5x5_reduce
I0417 00:13:32.558470 28390 net.cpp:84] Creating Layer inception_4b/relu_5x5_reduce
I0417 00:13:32.558475 28390 net.cpp:380] inception_4b/relu_5x5_reduce <- inception_4b/5x5_reduce
I0417 00:13:32.558477 28390 net.cpp:327] inception_4b/relu_5x5_reduce -> inception_4b/5x5_reduce (in-place)
I0417 00:13:32.558481 28390 net.cpp:113] Setting up inception_4b/relu_5x5_reduce
I0417 00:13:32.558485 28390 net.cpp:120] Top shape: 128 24 14 14 (602112)
I0417 00:13:32.558488 28390 layer_factory.hpp:74] Creating layer inception_4b/5x5
I0417 00:13:32.558493 28390 net.cpp:84] Creating Layer inception_4b/5x5
I0417 00:13:32.558496 28390 net.cpp:380] inception_4b/5x5 <- inception_4b/5x5_reduce
I0417 00:13:32.558501 28390 net.cpp:338] inception_4b/5x5 -> inception_4b/5x5
I0417 00:13:32.558506 28390 net.cpp:113] Setting up inception_4b/5x5
I0417 00:13:32.558747 28390 net.cpp:120] Top shape: 128 64 14 14 (1605632)
I0417 00:13:32.558753 28390 layer_factory.hpp:74] Creating layer inception_4b/relu_5x5
I0417 00:13:32.558760 28390 net.cpp:84] Creating Layer inception_4b/relu_5x5
I0417 00:13:32.558768 28390 net.cpp:380] inception_4b/relu_5x5 <- inception_4b/5x5
I0417 00:13:32.558773 28390 net.cpp:327] inception_4b/relu_5x5 -> inception_4b/5x5 (in-place)
I0417 00:13:32.558778 28390 net.cpp:113] Setting up inception_4b/relu_5x5
I0417 00:13:32.558781 28390 net.cpp:120] Top shape: 128 64 14 14 (1605632)
I0417 00:13:32.558784 28390 layer_factory.hpp:74] Creating layer inception_4b/pool
I0417 00:13:32.558789 28390 net.cpp:84] Creating Layer inception_4b/pool
I0417 00:13:32.558791 28390 net.cpp:380] inception_4b/pool <- inception_4a/output_inception_4a/output_0_split_3
I0417 00:13:32.558795 28390 net.cpp:338] inception_4b/pool -> inception_4b/pool
I0417 00:13:32.558800 28390 net.cpp:113] Setting up inception_4b/pool
I0417 00:13:32.558805 28390 net.cpp:120] Top shape: 128 512 14 14 (12845056)
I0417 00:13:32.558809 28390 layer_factory.hpp:74] Creating layer inception_4b/pool_proj
I0417 00:13:32.558815 28390 net.cpp:84] Creating Layer inception_4b/pool_proj
I0417 00:13:32.558817 28390 net.cpp:380] inception_4b/pool_proj <- inception_4b/pool
I0417 00:13:32.558821 28390 net.cpp:338] inception_4b/pool_proj -> inception_4b/pool_proj
I0417 00:13:32.558827 28390 net.cpp:113] Setting up inception_4b/pool_proj
I0417 00:13:32.559031 28390 net.cpp:120] Top shape: 128 64 14 14 (1605632)
I0417 00:13:32.559041 28390 layer_factory.hpp:74] Creating layer inception_4b/relu_pool_proj
I0417 00:13:32.559046 28390 net.cpp:84] Creating Layer inception_4b/relu_pool_proj
I0417 00:13:32.559049 28390 net.cpp:380] inception_4b/relu_pool_proj <- inception_4b/pool_proj
I0417 00:13:32.559054 28390 net.cpp:327] inception_4b/relu_pool_proj -> inception_4b/pool_proj (in-place)
I0417 00:13:32.559058 28390 net.cpp:113] Setting up inception_4b/relu_pool_proj
I0417 00:13:32.559062 28390 net.cpp:120] Top shape: 128 64 14 14 (1605632)
I0417 00:13:32.559065 28390 layer_factory.hpp:74] Creating layer inception_4b/output
I0417 00:13:32.559069 28390 net.cpp:84] Creating Layer inception_4b/output
I0417 00:13:32.559072 28390 net.cpp:380] inception_4b/output <- inception_4b/1x1
I0417 00:13:32.559075 28390 net.cpp:380] inception_4b/output <- inception_4b/3x3
I0417 00:13:32.559079 28390 net.cpp:380] inception_4b/output <- inception_4b/5x5
I0417 00:13:32.559082 28390 net.cpp:380] inception_4b/output <- inception_4b/pool_proj
I0417 00:13:32.559087 28390 net.cpp:338] inception_4b/output -> inception_4b/output
I0417 00:13:32.559092 28390 net.cpp:113] Setting up inception_4b/output
I0417 00:13:32.559097 28390 net.cpp:120] Top shape: 128 512 14 14 (12845056)
I0417 00:13:32.559099 28390 layer_factory.hpp:74] Creating layer inception_4b/output_inception_4b/output_0_split
I0417 00:13:32.559103 28390 net.cpp:84] Creating Layer inception_4b/output_inception_4b/output_0_split
I0417 00:13:32.559106 28390 net.cpp:380] inception_4b/output_inception_4b/output_0_split <- inception_4b/output
I0417 00:13:32.559109 28390 net.cpp:338] inception_4b/output_inception_4b/output_0_split -> inception_4b/output_inception_4b/output_0_split_0
I0417 00:13:32.559114 28390 net.cpp:338] inception_4b/output_inception_4b/output_0_split -> inception_4b/output_inception_4b/output_0_split_1
I0417 00:13:32.559119 28390 net.cpp:338] inception_4b/output_inception_4b/output_0_split -> inception_4b/output_inception_4b/output_0_split_2
I0417 00:13:32.559123 28390 net.cpp:338] inception_4b/output_inception_4b/output_0_split -> inception_4b/output_inception_4b/output_0_split_3
I0417 00:13:32.559128 28390 net.cpp:113] Setting up inception_4b/output_inception_4b/output_0_split
I0417 00:13:32.559134 28390 net.cpp:120] Top shape: 128 512 14 14 (12845056)
I0417 00:13:32.559137 28390 net.cpp:120] Top shape: 128 512 14 14 (12845056)
I0417 00:13:32.559140 28390 net.cpp:120] Top shape: 128 512 14 14 (12845056)
I0417 00:13:32.559144 28390 net.cpp:120] Top shape: 128 512 14 14 (12845056)
I0417 00:13:32.559146 28390 layer_factory.hpp:74] Creating layer inception_4c/1x1
I0417 00:13:32.559151 28390 net.cpp:84] Creating Layer inception_4c/1x1
I0417 00:13:32.559154 28390 net.cpp:380] inception_4c/1x1 <- inception_4b/output_inception_4b/output_0_split_0
I0417 00:13:32.559162 28390 net.cpp:338] inception_4c/1x1 -> inception_4c/1x1
I0417 00:13:32.559167 28390 net.cpp:113] Setting up inception_4c/1x1
I0417 00:13:32.559566 28390 net.cpp:120] Top shape: 128 128 14 14 (3211264)
I0417 00:13:32.559573 28390 layer_factory.hpp:74] Creating layer inception_4c/relu_1x1
I0417 00:13:32.559577 28390 net.cpp:84] Creating Layer inception_4c/relu_1x1
I0417 00:13:32.559581 28390 net.cpp:380] inception_4c/relu_1x1 <- inception_4c/1x1
I0417 00:13:32.559586 28390 net.cpp:327] inception_4c/relu_1x1 -> inception_4c/1x1 (in-place)
I0417 00:13:32.559589 28390 net.cpp:113] Setting up inception_4c/relu_1x1
I0417 00:13:32.559593 28390 net.cpp:120] Top shape: 128 128 14 14 (3211264)
I0417 00:13:32.559597 28390 layer_factory.hpp:74] Creating layer inception_4c/3x3_reduce
I0417 00:13:32.559600 28390 net.cpp:84] Creating Layer inception_4c/3x3_reduce
I0417 00:13:32.559603 28390 net.cpp:380] inception_4c/3x3_reduce <- inception_4b/output_inception_4b/output_0_split_1
I0417 00:13:32.559609 28390 net.cpp:338] inception_4c/3x3_reduce -> inception_4c/3x3_reduce
I0417 00:13:32.559614 28390 net.cpp:113] Setting up inception_4c/3x3_reduce
I0417 00:13:32.560014 28390 net.cpp:120] Top shape: 128 128 14 14 (3211264)
I0417 00:13:32.560021 28390 layer_factory.hpp:74] Creating layer inception_4c/relu_3x3_reduce
I0417 00:13:32.560025 28390 net.cpp:84] Creating Layer inception_4c/relu_3x3_reduce
I0417 00:13:32.560029 28390 net.cpp:380] inception_4c/relu_3x3_reduce <- inception_4c/3x3_reduce
I0417 00:13:32.560031 28390 net.cpp:327] inception_4c/relu_3x3_reduce -> inception_4c/3x3_reduce (in-place)
I0417 00:13:32.560035 28390 net.cpp:113] Setting up inception_4c/relu_3x3_reduce
I0417 00:13:32.560039 28390 net.cpp:120] Top shape: 128 128 14 14 (3211264)
I0417 00:13:32.560042 28390 layer_factory.hpp:74] Creating layer inception_4c/3x3
I0417 00:13:32.560048 28390 net.cpp:84] Creating Layer inception_4c/3x3
I0417 00:13:32.560051 28390 net.cpp:380] inception_4c/3x3 <- inception_4c/3x3_reduce
I0417 00:13:32.560055 28390 net.cpp:338] inception_4c/3x3 -> inception_4c/3x3
I0417 00:13:32.560061 28390 net.cpp:113] Setting up inception_4c/3x3
I0417 00:13:32.561836 28390 net.cpp:120] Top shape: 128 256 14 14 (6422528)
I0417 00:13:32.561844 28390 layer_factory.hpp:74] Creating layer inception_4c/relu_3x3
I0417 00:13:32.561848 28390 net.cpp:84] Creating Layer inception_4c/relu_3x3
I0417 00:13:32.561851 28390 net.cpp:380] inception_4c/relu_3x3 <- inception_4c/3x3
I0417 00:13:32.561856 28390 net.cpp:327] inception_4c/relu_3x3 -> inception_4c/3x3 (in-place)
I0417 00:13:32.561859 28390 net.cpp:113] Setting up inception_4c/relu_3x3
I0417 00:13:32.561862 28390 net.cpp:120] Top shape: 128 256 14 14 (6422528)
I0417 00:13:32.561866 28390 layer_factory.hpp:74] Creating layer inception_4c/5x5_reduce
I0417 00:13:32.561872 28390 net.cpp:84] Creating Layer inception_4c/5x5_reduce
I0417 00:13:32.561874 28390 net.cpp:380] inception_4c/5x5_reduce <- inception_4b/output_inception_4b/output_0_split_2
I0417 00:13:32.561879 28390 net.cpp:338] inception_4c/5x5_reduce -> inception_4c/5x5_reduce
I0417 00:13:32.561884 28390 net.cpp:113] Setting up inception_4c/5x5_reduce
I0417 00:13:32.561965 28390 net.cpp:120] Top shape: 128 24 14 14 (602112)
I0417 00:13:32.561971 28390 layer_factory.hpp:74] Creating layer inception_4c/relu_5x5_reduce
I0417 00:13:32.561976 28390 net.cpp:84] Creating Layer inception_4c/relu_5x5_reduce
I0417 00:13:32.561980 28390 net.cpp:380] inception_4c/relu_5x5_reduce <- inception_4c/5x5_reduce
I0417 00:13:32.561995 28390 net.cpp:327] inception_4c/relu_5x5_reduce -> inception_4c/5x5_reduce (in-place)
I0417 00:13:32.562000 28390 net.cpp:113] Setting up inception_4c/relu_5x5_reduce
I0417 00:13:32.562002 28390 net.cpp:120] Top shape: 128 24 14 14 (602112)
I0417 00:13:32.562005 28390 layer_factory.hpp:74] Creating layer inception_4c/5x5
I0417 00:13:32.562011 28390 net.cpp:84] Creating Layer inception_4c/5x5
I0417 00:13:32.562013 28390 net.cpp:380] inception_4c/5x5 <- inception_4c/5x5_reduce
I0417 00:13:32.562021 28390 net.cpp:338] inception_4c/5x5 -> inception_4c/5x5
I0417 00:13:32.562026 28390 net.cpp:113] Setting up inception_4c/5x5
I0417 00:13:32.562266 28390 net.cpp:120] Top shape: 128 64 14 14 (1605632)
I0417 00:13:32.562273 28390 layer_factory.hpp:74] Creating layer inception_4c/relu_5x5
I0417 00:13:32.562278 28390 net.cpp:84] Creating Layer inception_4c/relu_5x5
I0417 00:13:32.562280 28390 net.cpp:380] inception_4c/relu_5x5 <- inception_4c/5x5
I0417 00:13:32.562284 28390 net.cpp:327] inception_4c/relu_5x5 -> inception_4c/5x5 (in-place)
I0417 00:13:32.562289 28390 net.cpp:113] Setting up inception_4c/relu_5x5
I0417 00:13:32.562293 28390 net.cpp:120] Top shape: 128 64 14 14 (1605632)
I0417 00:13:32.562295 28390 layer_factory.hpp:74] Creating layer inception_4c/pool
I0417 00:13:32.562300 28390 net.cpp:84] Creating Layer inception_4c/pool
I0417 00:13:32.562304 28390 net.cpp:380] inception_4c/pool <- inception_4b/output_inception_4b/output_0_split_3
I0417 00:13:32.562307 28390 net.cpp:338] inception_4c/pool -> inception_4c/pool
I0417 00:13:32.562316 28390 net.cpp:113] Setting up inception_4c/pool
I0417 00:13:32.562324 28390 net.cpp:120] Top shape: 128 512 14 14 (12845056)
I0417 00:13:32.562326 28390 layer_factory.hpp:74] Creating layer inception_4c/pool_proj
I0417 00:13:32.562331 28390 net.cpp:84] Creating Layer inception_4c/pool_proj
I0417 00:13:32.562335 28390 net.cpp:380] inception_4c/pool_proj <- inception_4c/pool
I0417 00:13:32.562340 28390 net.cpp:338] inception_4c/pool_proj -> inception_4c/pool_proj
I0417 00:13:32.562343 28390 net.cpp:113] Setting up inception_4c/pool_proj
I0417 00:13:32.562548 28390 net.cpp:120] Top shape: 128 64 14 14 (1605632)
I0417 00:13:32.562561 28390 layer_factory.hpp:74] Creating layer inception_4c/relu_pool_proj
I0417 00:13:32.562566 28390 net.cpp:84] Creating Layer inception_4c/relu_pool_proj
I0417 00:13:32.562568 28390 net.cpp:380] inception_4c/relu_pool_proj <- inception_4c/pool_proj
I0417 00:13:32.562572 28390 net.cpp:327] inception_4c/relu_pool_proj -> inception_4c/pool_proj (in-place)
I0417 00:13:32.562577 28390 net.cpp:113] Setting up inception_4c/relu_pool_proj
I0417 00:13:32.562580 28390 net.cpp:120] Top shape: 128 64 14 14 (1605632)
I0417 00:13:32.562583 28390 layer_factory.hpp:74] Creating layer inception_4c/output
I0417 00:13:32.562588 28390 net.cpp:84] Creating Layer inception_4c/output
I0417 00:13:32.562592 28390 net.cpp:380] inception_4c/output <- inception_4c/1x1
I0417 00:13:32.562594 28390 net.cpp:380] inception_4c/output <- inception_4c/3x3
I0417 00:13:32.562598 28390 net.cpp:380] inception_4c/output <- inception_4c/5x5
I0417 00:13:32.562602 28390 net.cpp:380] inception_4c/output <- inception_4c/pool_proj
I0417 00:13:32.562607 28390 net.cpp:338] inception_4c/output -> inception_4c/output
I0417 00:13:32.562610 28390 net.cpp:113] Setting up inception_4c/output
I0417 00:13:32.562615 28390 net.cpp:120] Top shape: 128 512 14 14 (12845056)
I0417 00:13:32.562618 28390 layer_factory.hpp:74] Creating layer inception_4c/output_inception_4c/output_0_split
I0417 00:13:32.562623 28390 net.cpp:84] Creating Layer inception_4c/output_inception_4c/output_0_split
I0417 00:13:32.562625 28390 net.cpp:380] inception_4c/output_inception_4c/output_0_split <- inception_4c/output
I0417 00:13:32.562629 28390 net.cpp:338] inception_4c/output_inception_4c/output_0_split -> inception_4c/output_inception_4c/output_0_split_0
I0417 00:13:32.562634 28390 net.cpp:338] inception_4c/output_inception_4c/output_0_split -> inception_4c/output_inception_4c/output_0_split_1
I0417 00:13:32.562638 28390 net.cpp:338] inception_4c/output_inception_4c/output_0_split -> inception_4c/output_inception_4c/output_0_split_2
I0417 00:13:32.562644 28390 net.cpp:338] inception_4c/output_inception_4c/output_0_split -> inception_4c/output_inception_4c/output_0_split_3
I0417 00:13:32.562647 28390 net.cpp:113] Setting up inception_4c/output_inception_4c/output_0_split
I0417 00:13:32.562654 28390 net.cpp:120] Top shape: 128 512 14 14 (12845056)
I0417 00:13:32.562659 28390 net.cpp:120] Top shape: 128 512 14 14 (12845056)
I0417 00:13:32.562664 28390 net.cpp:120] Top shape: 128 512 14 14 (12845056)
I0417 00:13:32.562667 28390 net.cpp:120] Top shape: 128 512 14 14 (12845056)
I0417 00:13:32.562670 28390 layer_factory.hpp:74] Creating layer inception_4d/1x1
I0417 00:13:32.562675 28390 net.cpp:84] Creating Layer inception_4d/1x1
I0417 00:13:32.562679 28390 net.cpp:380] inception_4d/1x1 <- inception_4c/output_inception_4c/output_0_split_0
I0417 00:13:32.562685 28390 net.cpp:338] inception_4d/1x1 -> inception_4d/1x1
I0417 00:13:32.562688 28390 net.cpp:113] Setting up inception_4d/1x1
I0417 00:13:32.563038 28390 net.cpp:120] Top shape: 128 112 14 14 (2809856)
I0417 00:13:32.563046 28390 layer_factory.hpp:74] Creating layer inception_4d/relu_1x1
I0417 00:13:32.563050 28390 net.cpp:84] Creating Layer inception_4d/relu_1x1
I0417 00:13:32.563053 28390 net.cpp:380] inception_4d/relu_1x1 <- inception_4d/1x1
I0417 00:13:32.563058 28390 net.cpp:327] inception_4d/relu_1x1 -> inception_4d/1x1 (in-place)
I0417 00:13:32.563062 28390 net.cpp:113] Setting up inception_4d/relu_1x1
I0417 00:13:32.563066 28390 net.cpp:120] Top shape: 128 112 14 14 (2809856)
I0417 00:13:32.563069 28390 layer_factory.hpp:74] Creating layer inception_4d/3x3_reduce
I0417 00:13:32.563074 28390 net.cpp:84] Creating Layer inception_4d/3x3_reduce
I0417 00:13:32.563077 28390 net.cpp:380] inception_4d/3x3_reduce <- inception_4c/output_inception_4c/output_0_split_1
I0417 00:13:32.563082 28390 net.cpp:338] inception_4d/3x3_reduce -> inception_4d/3x3_reduce
I0417 00:13:32.563087 28390 net.cpp:113] Setting up inception_4d/3x3_reduce
I0417 00:13:32.563539 28390 net.cpp:120] Top shape: 128 144 14 14 (3612672)
I0417 00:13:32.563545 28390 layer_factory.hpp:74] Creating layer inception_4d/relu_3x3_reduce
I0417 00:13:32.563549 28390 net.cpp:84] Creating Layer inception_4d/relu_3x3_reduce
I0417 00:13:32.563552 28390 net.cpp:380] inception_4d/relu_3x3_reduce <- inception_4d/3x3_reduce
I0417 00:13:32.563556 28390 net.cpp:327] inception_4d/relu_3x3_reduce -> inception_4d/3x3_reduce (in-place)
I0417 00:13:32.563560 28390 net.cpp:113] Setting up inception_4d/relu_3x3_reduce
I0417 00:13:32.563563 28390 net.cpp:120] Top shape: 128 144 14 14 (3612672)
I0417 00:13:32.563566 28390 layer_factory.hpp:74] Creating layer inception_4d/3x3
I0417 00:13:32.563572 28390 net.cpp:84] Creating Layer inception_4d/3x3
I0417 00:13:32.563575 28390 net.cpp:380] inception_4d/3x3 <- inception_4d/3x3_reduce
I0417 00:13:32.563580 28390 net.cpp:338] inception_4d/3x3 -> inception_4d/3x3
I0417 00:13:32.563585 28390 net.cpp:113] Setting up inception_4d/3x3
I0417 00:13:32.565809 28390 net.cpp:120] Top shape: 128 288 14 14 (7225344)
I0417 00:13:32.565816 28390 layer_factory.hpp:74] Creating layer inception_4d/relu_3x3
I0417 00:13:32.565820 28390 net.cpp:84] Creating Layer inception_4d/relu_3x3
I0417 00:13:32.565824 28390 net.cpp:380] inception_4d/relu_3x3 <- inception_4d/3x3
I0417 00:13:32.565827 28390 net.cpp:327] inception_4d/relu_3x3 -> inception_4d/3x3 (in-place)
I0417 00:13:32.565831 28390 net.cpp:113] Setting up inception_4d/relu_3x3
I0417 00:13:32.565834 28390 net.cpp:120] Top shape: 128 288 14 14 (7225344)
I0417 00:13:32.565837 28390 layer_factory.hpp:74] Creating layer inception_4d/5x5_reduce
I0417 00:13:32.565843 28390 net.cpp:84] Creating Layer inception_4d/5x5_reduce
I0417 00:13:32.565846 28390 net.cpp:380] inception_4d/5x5_reduce <- inception_4c/output_inception_4c/output_0_split_2
I0417 00:13:32.565851 28390 net.cpp:338] inception_4d/5x5_reduce -> inception_4d/5x5_reduce
I0417 00:13:32.565856 28390 net.cpp:113] Setting up inception_4d/5x5_reduce
I0417 00:13:32.565960 28390 net.cpp:120] Top shape: 128 32 14 14 (802816)
I0417 00:13:32.565966 28390 layer_factory.hpp:74] Creating layer inception_4d/relu_5x5_reduce
I0417 00:13:32.565970 28390 net.cpp:84] Creating Layer inception_4d/relu_5x5_reduce
I0417 00:13:32.565973 28390 net.cpp:380] inception_4d/relu_5x5_reduce <- inception_4d/5x5_reduce
I0417 00:13:32.565979 28390 net.cpp:327] inception_4d/relu_5x5_reduce -> inception_4d/5x5_reduce (in-place)
I0417 00:13:32.565985 28390 net.cpp:113] Setting up inception_4d/relu_5x5_reduce
I0417 00:13:32.565989 28390 net.cpp:120] Top shape: 128 32 14 14 (802816)
I0417 00:13:32.565992 28390 layer_factory.hpp:74] Creating layer inception_4d/5x5
I0417 00:13:32.565996 28390 net.cpp:84] Creating Layer inception_4d/5x5
I0417 00:13:32.565999 28390 net.cpp:380] inception_4d/5x5 <- inception_4d/5x5_reduce
I0417 00:13:32.566004 28390 net.cpp:338] inception_4d/5x5 -> inception_4d/5x5
I0417 00:13:32.566009 28390 net.cpp:113] Setting up inception_4d/5x5
I0417 00:13:32.566323 28390 net.cpp:120] Top shape: 128 64 14 14 (1605632)
I0417 00:13:32.566329 28390 layer_factory.hpp:74] Creating layer inception_4d/relu_5x5
I0417 00:13:32.566332 28390 net.cpp:84] Creating Layer inception_4d/relu_5x5
I0417 00:13:32.566335 28390 net.cpp:380] inception_4d/relu_5x5 <- inception_4d/5x5
I0417 00:13:32.566340 28390 net.cpp:327] inception_4d/relu_5x5 -> inception_4d/5x5 (in-place)
I0417 00:13:32.566344 28390 net.cpp:113] Setting up inception_4d/relu_5x5
I0417 00:13:32.566347 28390 net.cpp:120] Top shape: 128 64 14 14 (1605632)
I0417 00:13:32.566350 28390 layer_factory.hpp:74] Creating layer inception_4d/pool
I0417 00:13:32.566355 28390 net.cpp:84] Creating Layer inception_4d/pool
I0417 00:13:32.566359 28390 net.cpp:380] inception_4d/pool <- inception_4c/output_inception_4c/output_0_split_3
I0417 00:13:32.566362 28390 net.cpp:338] inception_4d/pool -> inception_4d/pool
I0417 00:13:32.566367 28390 net.cpp:113] Setting up inception_4d/pool
I0417 00:13:32.566372 28390 net.cpp:120] Top shape: 128 512 14 14 (12845056)
I0417 00:13:32.566375 28390 layer_factory.hpp:74] Creating layer inception_4d/pool_proj
I0417 00:13:32.566381 28390 net.cpp:84] Creating Layer inception_4d/pool_proj
I0417 00:13:32.566385 28390 net.cpp:380] inception_4d/pool_proj <- inception_4d/pool
I0417 00:13:32.566390 28390 net.cpp:338] inception_4d/pool_proj -> inception_4d/pool_proj
I0417 00:13:32.566395 28390 net.cpp:113] Setting up inception_4d/pool_proj
I0417 00:13:32.566599 28390 net.cpp:120] Top shape: 128 64 14 14 (1605632)
I0417 00:13:32.566606 28390 layer_factory.hpp:74] Creating layer inception_4d/relu_pool_proj
I0417 00:13:32.566612 28390 net.cpp:84] Creating Layer inception_4d/relu_pool_proj
I0417 00:13:32.566614 28390 net.cpp:380] inception_4d/relu_pool_proj <- inception_4d/pool_proj
I0417 00:13:32.566618 28390 net.cpp:327] inception_4d/relu_pool_proj -> inception_4d/pool_proj (in-place)
I0417 00:13:32.566622 28390 net.cpp:113] Setting up inception_4d/relu_pool_proj
I0417 00:13:32.566625 28390 net.cpp:120] Top shape: 128 64 14 14 (1605632)
I0417 00:13:32.566628 28390 layer_factory.hpp:74] Creating layer inception_4d/output
I0417 00:13:32.566633 28390 net.cpp:84] Creating Layer inception_4d/output
I0417 00:13:32.566637 28390 net.cpp:380] inception_4d/output <- inception_4d/1x1
I0417 00:13:32.566639 28390 net.cpp:380] inception_4d/output <- inception_4d/3x3
I0417 00:13:32.566642 28390 net.cpp:380] inception_4d/output <- inception_4d/5x5
I0417 00:13:32.566645 28390 net.cpp:380] inception_4d/output <- inception_4d/pool_proj
I0417 00:13:32.566650 28390 net.cpp:338] inception_4d/output -> inception_4d/output
I0417 00:13:32.566654 28390 net.cpp:113] Setting up inception_4d/output
I0417 00:13:32.566659 28390 net.cpp:120] Top shape: 128 528 14 14 (13246464)
I0417 00:13:32.566663 28390 layer_factory.hpp:74] Creating layer inception_4d/output_inception_4d/output_0_split
I0417 00:13:32.566666 28390 net.cpp:84] Creating Layer inception_4d/output_inception_4d/output_0_split
I0417 00:13:32.566669 28390 net.cpp:380] inception_4d/output_inception_4d/output_0_split <- inception_4d/output
I0417 00:13:32.566673 28390 net.cpp:338] inception_4d/output_inception_4d/output_0_split -> inception_4d/output_inception_4d/output_0_split_0
I0417 00:13:32.566679 28390 net.cpp:338] inception_4d/output_inception_4d/output_0_split -> inception_4d/output_inception_4d/output_0_split_1
I0417 00:13:32.566683 28390 net.cpp:338] inception_4d/output_inception_4d/output_0_split -> inception_4d/output_inception_4d/output_0_split_2
I0417 00:13:32.566691 28390 net.cpp:338] inception_4d/output_inception_4d/output_0_split -> inception_4d/output_inception_4d/output_0_split_3
I0417 00:13:32.566695 28390 net.cpp:113] Setting up inception_4d/output_inception_4d/output_0_split
I0417 00:13:32.566700 28390 net.cpp:120] Top shape: 128 528 14 14 (13246464)
I0417 00:13:32.566704 28390 net.cpp:120] Top shape: 128 528 14 14 (13246464)
I0417 00:13:32.566707 28390 net.cpp:120] Top shape: 128 528 14 14 (13246464)
I0417 00:13:32.566710 28390 net.cpp:120] Top shape: 128 528 14 14 (13246464)
I0417 00:13:32.566714 28390 layer_factory.hpp:74] Creating layer inception_4e/1x1
I0417 00:13:32.566718 28390 net.cpp:84] Creating Layer inception_4e/1x1
I0417 00:13:32.566722 28390 net.cpp:380] inception_4e/1x1 <- inception_4d/output_inception_4d/output_0_split_0
I0417 00:13:32.566726 28390 net.cpp:338] inception_4e/1x1 -> inception_4e/1x1
I0417 00:13:32.566731 28390 net.cpp:113] Setting up inception_4e/1x1
I0417 00:13:32.567544 28390 net.cpp:120] Top shape: 128 256 14 14 (6422528)
I0417 00:13:32.567553 28390 layer_factory.hpp:74] Creating layer inception_4e/relu_1x1
I0417 00:13:32.567558 28390 net.cpp:84] Creating Layer inception_4e/relu_1x1
I0417 00:13:32.567560 28390 net.cpp:380] inception_4e/relu_1x1 <- inception_4e/1x1
I0417 00:13:32.567564 28390 net.cpp:327] inception_4e/relu_1x1 -> inception_4e/1x1 (in-place)
I0417 00:13:32.567569 28390 net.cpp:113] Setting up inception_4e/relu_1x1
I0417 00:13:32.567571 28390 net.cpp:120] Top shape: 128 256 14 14 (6422528)
I0417 00:13:32.567574 28390 layer_factory.hpp:74] Creating layer inception_4e/3x3_reduce
I0417 00:13:32.567579 28390 net.cpp:84] Creating Layer inception_4e/3x3_reduce
I0417 00:13:32.567582 28390 net.cpp:380] inception_4e/3x3_reduce <- inception_4d/output_inception_4d/output_0_split_1
I0417 00:13:32.567589 28390 net.cpp:338] inception_4e/3x3_reduce -> inception_4e/3x3_reduce
I0417 00:13:32.567592 28390 net.cpp:113] Setting up inception_4e/3x3_reduce
I0417 00:13:32.568104 28390 net.cpp:120] Top shape: 128 160 14 14 (4014080)
I0417 00:13:32.568109 28390 layer_factory.hpp:74] Creating layer inception_4e/relu_3x3_reduce
I0417 00:13:32.568114 28390 net.cpp:84] Creating Layer inception_4e/relu_3x3_reduce
I0417 00:13:32.568117 28390 net.cpp:380] inception_4e/relu_3x3_reduce <- inception_4e/3x3_reduce
I0417 00:13:32.568122 28390 net.cpp:327] inception_4e/relu_3x3_reduce -> inception_4e/3x3_reduce (in-place)
I0417 00:13:32.568126 28390 net.cpp:113] Setting up inception_4e/relu_3x3_reduce
I0417 00:13:32.568130 28390 net.cpp:120] Top shape: 128 160 14 14 (4014080)
I0417 00:13:32.568132 28390 layer_factory.hpp:74] Creating layer inception_4e/3x3
I0417 00:13:32.568137 28390 net.cpp:84] Creating Layer inception_4e/3x3
I0417 00:13:32.568140 28390 net.cpp:380] inception_4e/3x3 <- inception_4e/3x3_reduce
I0417 00:13:32.568145 28390 net.cpp:338] inception_4e/3x3 -> inception_4e/3x3
I0417 00:13:32.568150 28390 net.cpp:113] Setting up inception_4e/3x3
I0417 00:13:32.570919 28390 net.cpp:120] Top shape: 128 320 14 14 (8028160)
I0417 00:13:32.570925 28390 layer_factory.hpp:74] Creating layer inception_4e/relu_3x3
I0417 00:13:32.570930 28390 net.cpp:84] Creating Layer inception_4e/relu_3x3
I0417 00:13:32.570933 28390 net.cpp:380] inception_4e/relu_3x3 <- inception_4e/3x3
I0417 00:13:32.570937 28390 net.cpp:327] inception_4e/relu_3x3 -> inception_4e/3x3 (in-place)
I0417 00:13:32.570941 28390 net.cpp:113] Setting up inception_4e/relu_3x3
I0417 00:13:32.570945 28390 net.cpp:120] Top shape: 128 320 14 14 (8028160)
I0417 00:13:32.570948 28390 layer_factory.hpp:74] Creating layer inception_4e/5x5_reduce
I0417 00:13:32.570953 28390 net.cpp:84] Creating Layer inception_4e/5x5_reduce
I0417 00:13:32.570956 28390 net.cpp:380] inception_4e/5x5_reduce <- inception_4d/output_inception_4d/output_0_split_2
I0417 00:13:32.570961 28390 net.cpp:338] inception_4e/5x5_reduce -> inception_4e/5x5_reduce
I0417 00:13:32.570966 28390 net.cpp:113] Setting up inception_4e/5x5_reduce
I0417 00:13:32.571077 28390 net.cpp:120] Top shape: 128 32 14 14 (802816)
I0417 00:13:32.571087 28390 layer_factory.hpp:74] Creating layer inception_4e/relu_5x5_reduce
I0417 00:13:32.571091 28390 net.cpp:84] Creating Layer inception_4e/relu_5x5_reduce
I0417 00:13:32.571094 28390 net.cpp:380] inception_4e/relu_5x5_reduce <- inception_4e/5x5_reduce
I0417 00:13:32.571099 28390 net.cpp:327] inception_4e/relu_5x5_reduce -> inception_4e/5x5_reduce (in-place)
I0417 00:13:32.571102 28390 net.cpp:113] Setting up inception_4e/relu_5x5_reduce
I0417 00:13:32.571106 28390 net.cpp:120] Top shape: 128 32 14 14 (802816)
I0417 00:13:32.571110 28390 layer_factory.hpp:74] Creating layer inception_4e/5x5
I0417 00:13:32.571115 28390 net.cpp:84] Creating Layer inception_4e/5x5
I0417 00:13:32.571117 28390 net.cpp:380] inception_4e/5x5 <- inception_4e/5x5_reduce
I0417 00:13:32.571121 28390 net.cpp:338] inception_4e/5x5 -> inception_4e/5x5
I0417 00:13:32.571127 28390 net.cpp:113] Setting up inception_4e/5x5
I0417 00:13:32.571779 28390 net.cpp:120] Top shape: 128 128 14 14 (3211264)
I0417 00:13:32.571786 28390 layer_factory.hpp:74] Creating layer inception_4e/relu_5x5
I0417 00:13:32.571792 28390 net.cpp:84] Creating Layer inception_4e/relu_5x5
I0417 00:13:32.571795 28390 net.cpp:380] inception_4e/relu_5x5 <- inception_4e/5x5
I0417 00:13:32.571799 28390 net.cpp:327] inception_4e/relu_5x5 -> inception_4e/5x5 (in-place)
I0417 00:13:32.571804 28390 net.cpp:113] Setting up inception_4e/relu_5x5
I0417 00:13:32.571806 28390 net.cpp:120] Top shape: 128 128 14 14 (3211264)
I0417 00:13:32.571810 28390 layer_factory.hpp:74] Creating layer inception_4e/pool
I0417 00:13:32.571815 28390 net.cpp:84] Creating Layer inception_4e/pool
I0417 00:13:32.571817 28390 net.cpp:380] inception_4e/pool <- inception_4d/output_inception_4d/output_0_split_3
I0417 00:13:32.571822 28390 net.cpp:338] inception_4e/pool -> inception_4e/pool
I0417 00:13:32.571826 28390 net.cpp:113] Setting up inception_4e/pool
I0417 00:13:32.571831 28390 net.cpp:120] Top shape: 128 528 14 14 (13246464)
I0417 00:13:32.571835 28390 layer_factory.hpp:74] Creating layer inception_4e/pool_proj
I0417 00:13:32.571841 28390 net.cpp:84] Creating Layer inception_4e/pool_proj
I0417 00:13:32.571843 28390 net.cpp:380] inception_4e/pool_proj <- inception_4e/pool
I0417 00:13:32.571848 28390 net.cpp:338] inception_4e/pool_proj -> inception_4e/pool_proj
I0417 00:13:32.571853 28390 net.cpp:113] Setting up inception_4e/pool_proj
I0417 00:13:32.572263 28390 net.cpp:120] Top shape: 128 128 14 14 (3211264)
I0417 00:13:32.572269 28390 layer_factory.hpp:74] Creating layer inception_4e/relu_pool_proj
I0417 00:13:32.572273 28390 net.cpp:84] Creating Layer inception_4e/relu_pool_proj
I0417 00:13:32.572276 28390 net.cpp:380] inception_4e/relu_pool_proj <- inception_4e/pool_proj
I0417 00:13:32.572281 28390 net.cpp:327] inception_4e/relu_pool_proj -> inception_4e/pool_proj (in-place)
I0417 00:13:32.572285 28390 net.cpp:113] Setting up inception_4e/relu_pool_proj
I0417 00:13:32.572289 28390 net.cpp:120] Top shape: 128 128 14 14 (3211264)
I0417 00:13:32.572293 28390 layer_factory.hpp:74] Creating layer inception_4e/output
I0417 00:13:32.572296 28390 net.cpp:84] Creating Layer inception_4e/output
I0417 00:13:32.572299 28390 net.cpp:380] inception_4e/output <- inception_4e/1x1
I0417 00:13:32.572304 28390 net.cpp:380] inception_4e/output <- inception_4e/3x3
I0417 00:13:32.572306 28390 net.cpp:380] inception_4e/output <- inception_4e/5x5
I0417 00:13:32.572309 28390 net.cpp:380] inception_4e/output <- inception_4e/pool_proj
I0417 00:13:32.572314 28390 net.cpp:338] inception_4e/output -> inception_4e/output
I0417 00:13:32.572317 28390 net.cpp:113] Setting up inception_4e/output
I0417 00:13:32.572322 28390 net.cpp:120] Top shape: 128 832 14 14 (20873216)
I0417 00:13:32.572325 28390 layer_factory.hpp:74] Creating layer pool4/3x3_s2
I0417 00:13:32.572330 28390 net.cpp:84] Creating Layer pool4/3x3_s2
I0417 00:13:32.572334 28390 net.cpp:380] pool4/3x3_s2 <- inception_4e/output
I0417 00:13:32.572337 28390 net.cpp:338] pool4/3x3_s2 -> pool4/3x3_s2
I0417 00:13:32.572341 28390 net.cpp:113] Setting up pool4/3x3_s2
I0417 00:13:32.572350 28390 net.cpp:120] Top shape: 128 832 7 7 (5218304)
I0417 00:13:32.572352 28390 layer_factory.hpp:74] Creating layer pool4/3x3_s2_pool4/3x3_s2_0_split
I0417 00:13:32.572357 28390 net.cpp:84] Creating Layer pool4/3x3_s2_pool4/3x3_s2_0_split
I0417 00:13:32.572360 28390 net.cpp:380] pool4/3x3_s2_pool4/3x3_s2_0_split <- pool4/3x3_s2
I0417 00:13:32.572365 28390 net.cpp:338] pool4/3x3_s2_pool4/3x3_s2_0_split -> pool4/3x3_s2_pool4/3x3_s2_0_split_0
I0417 00:13:32.572371 28390 net.cpp:338] pool4/3x3_s2_pool4/3x3_s2_0_split -> pool4/3x3_s2_pool4/3x3_s2_0_split_1
I0417 00:13:32.572376 28390 net.cpp:338] pool4/3x3_s2_pool4/3x3_s2_0_split -> pool4/3x3_s2_pool4/3x3_s2_0_split_2
I0417 00:13:32.572379 28390 net.cpp:338] pool4/3x3_s2_pool4/3x3_s2_0_split -> pool4/3x3_s2_pool4/3x3_s2_0_split_3
I0417 00:13:32.572383 28390 net.cpp:113] Setting up pool4/3x3_s2_pool4/3x3_s2_0_split
I0417 00:13:32.572389 28390 net.cpp:120] Top shape: 128 832 7 7 (5218304)
I0417 00:13:32.572392 28390 net.cpp:120] Top shape: 128 832 7 7 (5218304)
I0417 00:13:32.572396 28390 net.cpp:120] Top shape: 128 832 7 7 (5218304)
I0417 00:13:32.572399 28390 net.cpp:120] Top shape: 128 832 7 7 (5218304)
I0417 00:13:32.572402 28390 layer_factory.hpp:74] Creating layer inception_5a/1x1
I0417 00:13:32.572407 28390 net.cpp:84] Creating Layer inception_5a/1x1
I0417 00:13:32.572410 28390 net.cpp:380] inception_5a/1x1 <- pool4/3x3_s2_pool4/3x3_s2_0_split_0
I0417 00:13:32.572414 28390 net.cpp:338] inception_5a/1x1 -> inception_5a/1x1
I0417 00:13:32.572419 28390 net.cpp:113] Setting up inception_5a/1x1
I0417 00:13:32.573719 28390 net.cpp:120] Top shape: 128 256 7 7 (1605632)
I0417 00:13:32.573727 28390 layer_factory.hpp:74] Creating layer inception_5a/relu_1x1
I0417 00:13:32.573731 28390 net.cpp:84] Creating Layer inception_5a/relu_1x1
I0417 00:13:32.573734 28390 net.cpp:380] inception_5a/relu_1x1 <- inception_5a/1x1
I0417 00:13:32.573739 28390 net.cpp:327] inception_5a/relu_1x1 -> inception_5a/1x1 (in-place)
I0417 00:13:32.573742 28390 net.cpp:113] Setting up inception_5a/relu_1x1
I0417 00:13:32.573746 28390 net.cpp:120] Top shape: 128 256 7 7 (1605632)
I0417 00:13:32.573750 28390 layer_factory.hpp:74] Creating layer inception_5a/3x3_reduce
I0417 00:13:32.573755 28390 net.cpp:84] Creating Layer inception_5a/3x3_reduce
I0417 00:13:32.573758 28390 net.cpp:380] inception_5a/3x3_reduce <- pool4/3x3_s2_pool4/3x3_s2_0_split_1
I0417 00:13:32.573763 28390 net.cpp:338] inception_5a/3x3_reduce -> inception_5a/3x3_reduce
I0417 00:13:32.573767 28390 net.cpp:113] Setting up inception_5a/3x3_reduce
I0417 00:13:32.574565 28390 net.cpp:120] Top shape: 128 160 7 7 (1003520)
I0417 00:13:32.574573 28390 layer_factory.hpp:74] Creating layer inception_5a/relu_3x3_reduce
I0417 00:13:32.574576 28390 net.cpp:84] Creating Layer inception_5a/relu_3x3_reduce
I0417 00:13:32.574580 28390 net.cpp:380] inception_5a/relu_3x3_reduce <- inception_5a/3x3_reduce
I0417 00:13:32.574585 28390 net.cpp:327] inception_5a/relu_3x3_reduce -> inception_5a/3x3_reduce (in-place)
I0417 00:13:32.574589 28390 net.cpp:113] Setting up inception_5a/relu_3x3_reduce
I0417 00:13:32.574592 28390 net.cpp:120] Top shape: 128 160 7 7 (1003520)
I0417 00:13:32.574595 28390 layer_factory.hpp:74] Creating layer inception_5a/3x3
I0417 00:13:32.574601 28390 net.cpp:84] Creating Layer inception_5a/3x3
I0417 00:13:32.574604 28390 net.cpp:380] inception_5a/3x3 <- inception_5a/3x3_reduce
I0417 00:13:32.574609 28390 net.cpp:338] inception_5a/3x3 -> inception_5a/3x3
I0417 00:13:32.574615 28390 net.cpp:113] Setting up inception_5a/3x3
I0417 00:13:32.577389 28390 net.cpp:120] Top shape: 128 320 7 7 (2007040)
I0417 00:13:32.577399 28390 layer_factory.hpp:74] Creating layer inception_5a/relu_3x3
I0417 00:13:32.577402 28390 net.cpp:84] Creating Layer inception_5a/relu_3x3
I0417 00:13:32.577405 28390 net.cpp:380] inception_5a/relu_3x3 <- inception_5a/3x3
I0417 00:13:32.577410 28390 net.cpp:327] inception_5a/relu_3x3 -> inception_5a/3x3 (in-place)
I0417 00:13:32.577414 28390 net.cpp:113] Setting up inception_5a/relu_3x3
I0417 00:13:32.577420 28390 net.cpp:120] Top shape: 128 320 7 7 (2007040)
I0417 00:13:32.577424 28390 layer_factory.hpp:74] Creating layer inception_5a/5x5_reduce
I0417 00:13:32.577428 28390 net.cpp:84] Creating Layer inception_5a/5x5_reduce
I0417 00:13:32.577432 28390 net.cpp:380] inception_5a/5x5_reduce <- pool4/3x3_s2_pool4/3x3_s2_0_split_2
I0417 00:13:32.577436 28390 net.cpp:338] inception_5a/5x5_reduce -> inception_5a/5x5_reduce
I0417 00:13:32.577441 28390 net.cpp:113] Setting up inception_5a/5x5_reduce
I0417 00:13:32.577610 28390 net.cpp:120] Top shape: 128 32 7 7 (200704)
I0417 00:13:32.577616 28390 layer_factory.hpp:74] Creating layer inception_5a/relu_5x5_reduce
I0417 00:13:32.577621 28390 net.cpp:84] Creating Layer inception_5a/relu_5x5_reduce
I0417 00:13:32.577625 28390 net.cpp:380] inception_5a/relu_5x5_reduce <- inception_5a/5x5_reduce
I0417 00:13:32.577630 28390 net.cpp:327] inception_5a/relu_5x5_reduce -> inception_5a/5x5_reduce (in-place)
I0417 00:13:32.577633 28390 net.cpp:113] Setting up inception_5a/relu_5x5_reduce
I0417 00:13:32.577636 28390 net.cpp:120] Top shape: 128 32 7 7 (200704)
I0417 00:13:32.577639 28390 layer_factory.hpp:74] Creating layer inception_5a/5x5
I0417 00:13:32.577644 28390 net.cpp:84] Creating Layer inception_5a/5x5
I0417 00:13:32.577647 28390 net.cpp:380] inception_5a/5x5 <- inception_5a/5x5_reduce
I0417 00:13:32.577652 28390 net.cpp:338] inception_5a/5x5 -> inception_5a/5x5
I0417 00:13:32.577657 28390 net.cpp:113] Setting up inception_5a/5x5
I0417 00:13:32.578274 28390 net.cpp:120] Top shape: 128 128 7 7 (802816)
I0417 00:13:32.578280 28390 layer_factory.hpp:74] Creating layer inception_5a/relu_5x5
I0417 00:13:32.578284 28390 net.cpp:84] Creating Layer inception_5a/relu_5x5
I0417 00:13:32.578287 28390 net.cpp:380] inception_5a/relu_5x5 <- inception_5a/5x5
I0417 00:13:32.578291 28390 net.cpp:327] inception_5a/relu_5x5 -> inception_5a/5x5 (in-place)
I0417 00:13:32.578294 28390 net.cpp:113] Setting up inception_5a/relu_5x5
I0417 00:13:32.578299 28390 net.cpp:120] Top shape: 128 128 7 7 (802816)
I0417 00:13:32.578301 28390 layer_factory.hpp:74] Creating layer inception_5a/pool
I0417 00:13:32.578305 28390 net.cpp:84] Creating Layer inception_5a/pool
I0417 00:13:32.578308 28390 net.cpp:380] inception_5a/pool <- pool4/3x3_s2_pool4/3x3_s2_0_split_3
I0417 00:13:32.578313 28390 net.cpp:338] inception_5a/pool -> inception_5a/pool
I0417 00:13:32.578318 28390 net.cpp:113] Setting up inception_5a/pool
I0417 00:13:32.578323 28390 net.cpp:120] Top shape: 128 832 7 7 (5218304)
I0417 00:13:32.578326 28390 layer_factory.hpp:74] Creating layer inception_5a/pool_proj
I0417 00:13:32.578332 28390 net.cpp:84] Creating Layer inception_5a/pool_proj
I0417 00:13:32.578336 28390 net.cpp:380] inception_5a/pool_proj <- inception_5a/pool
I0417 00:13:32.578341 28390 net.cpp:338] inception_5a/pool_proj -> inception_5a/pool_proj
I0417 00:13:32.578344 28390 net.cpp:113] Setting up inception_5a/pool_proj
I0417 00:13:32.578986 28390 net.cpp:120] Top shape: 128 128 7 7 (802816)
I0417 00:13:32.578994 28390 layer_factory.hpp:74] Creating layer inception_5a/relu_pool_proj
I0417 00:13:32.579008 28390 net.cpp:84] Creating Layer inception_5a/relu_pool_proj
I0417 00:13:32.579011 28390 net.cpp:380] inception_5a/relu_pool_proj <- inception_5a/pool_proj
I0417 00:13:32.579015 28390 net.cpp:327] inception_5a/relu_pool_proj -> inception_5a/pool_proj (in-place)
I0417 00:13:32.579020 28390 net.cpp:113] Setting up inception_5a/relu_pool_proj
I0417 00:13:32.579023 28390 net.cpp:120] Top shape: 128 128 7 7 (802816)
I0417 00:13:32.579027 28390 layer_factory.hpp:74] Creating layer inception_5a/output
I0417 00:13:32.579031 28390 net.cpp:84] Creating Layer inception_5a/output
I0417 00:13:32.579035 28390 net.cpp:380] inception_5a/output <- inception_5a/1x1
I0417 00:13:32.579041 28390 net.cpp:380] inception_5a/output <- inception_5a/3x3
I0417 00:13:32.579046 28390 net.cpp:380] inception_5a/output <- inception_5a/5x5
I0417 00:13:32.579048 28390 net.cpp:380] inception_5a/output <- inception_5a/pool_proj
I0417 00:13:32.579053 28390 net.cpp:338] inception_5a/output -> inception_5a/output
I0417 00:13:32.579061 28390 net.cpp:113] Setting up inception_5a/output
I0417 00:13:32.579066 28390 net.cpp:120] Top shape: 128 832 7 7 (5218304)
I0417 00:13:32.579069 28390 layer_factory.hpp:74] Creating layer inception_5a/output_inception_5a/output_0_split
I0417 00:13:32.579073 28390 net.cpp:84] Creating Layer inception_5a/output_inception_5a/output_0_split
I0417 00:13:32.579077 28390 net.cpp:380] inception_5a/output_inception_5a/output_0_split <- inception_5a/output
I0417 00:13:32.579080 28390 net.cpp:338] inception_5a/output_inception_5a/output_0_split -> inception_5a/output_inception_5a/output_0_split_0
I0417 00:13:32.579085 28390 net.cpp:338] inception_5a/output_inception_5a/output_0_split -> inception_5a/output_inception_5a/output_0_split_1
I0417 00:13:32.579090 28390 net.cpp:338] inception_5a/output_inception_5a/output_0_split -> inception_5a/output_inception_5a/output_0_split_2
I0417 00:13:32.579097 28390 net.cpp:338] inception_5a/output_inception_5a/output_0_split -> inception_5a/output_inception_5a/output_0_split_3
I0417 00:13:32.579102 28390 net.cpp:113] Setting up inception_5a/output_inception_5a/output_0_split
I0417 00:13:32.579107 28390 net.cpp:120] Top shape: 128 832 7 7 (5218304)
I0417 00:13:32.579109 28390 net.cpp:120] Top shape: 128 832 7 7 (5218304)
I0417 00:13:32.579113 28390 net.cpp:120] Top shape: 128 832 7 7 (5218304)
I0417 00:13:32.579116 28390 net.cpp:120] Top shape: 128 832 7 7 (5218304)
I0417 00:13:32.579118 28390 layer_factory.hpp:74] Creating layer inception_5b/1x1
I0417 00:13:32.579125 28390 net.cpp:84] Creating Layer inception_5b/1x1
I0417 00:13:32.579128 28390 net.cpp:380] inception_5b/1x1 <- inception_5a/output_inception_5a/output_0_split_0
I0417 00:13:32.579133 28390 net.cpp:338] inception_5b/1x1 -> inception_5b/1x1
I0417 00:13:32.579138 28390 net.cpp:113] Setting up inception_5b/1x1
I0417 00:13:32.581037 28390 net.cpp:120] Top shape: 128 384 7 7 (2408448)
I0417 00:13:32.581043 28390 layer_factory.hpp:74] Creating layer inception_5b/relu_1x1
I0417 00:13:32.581049 28390 net.cpp:84] Creating Layer inception_5b/relu_1x1
I0417 00:13:32.581053 28390 net.cpp:380] inception_5b/relu_1x1 <- inception_5b/1x1
I0417 00:13:32.581056 28390 net.cpp:327] inception_5b/relu_1x1 -> inception_5b/1x1 (in-place)
I0417 00:13:32.581060 28390 net.cpp:113] Setting up inception_5b/relu_1x1
I0417 00:13:32.581064 28390 net.cpp:120] Top shape: 128 384 7 7 (2408448)
I0417 00:13:32.581068 28390 layer_factory.hpp:74] Creating layer inception_5b/3x3_reduce
I0417 00:13:32.581073 28390 net.cpp:84] Creating Layer inception_5b/3x3_reduce
I0417 00:13:32.581075 28390 net.cpp:380] inception_5b/3x3_reduce <- inception_5a/output_inception_5a/output_0_split_1
I0417 00:13:32.581080 28390 net.cpp:338] inception_5b/3x3_reduce -> inception_5b/3x3_reduce
I0417 00:13:32.581085 28390 net.cpp:113] Setting up inception_5b/3x3_reduce
I0417 00:13:32.582041 28390 net.cpp:120] Top shape: 128 192 7 7 (1204224)
I0417 00:13:32.582048 28390 layer_factory.hpp:74] Creating layer inception_5b/relu_3x3_reduce
I0417 00:13:32.582052 28390 net.cpp:84] Creating Layer inception_5b/relu_3x3_reduce
I0417 00:13:32.582056 28390 net.cpp:380] inception_5b/relu_3x3_reduce <- inception_5b/3x3_reduce
I0417 00:13:32.582059 28390 net.cpp:327] inception_5b/relu_3x3_reduce -> inception_5b/3x3_reduce (in-place)
I0417 00:13:32.582063 28390 net.cpp:113] Setting up inception_5b/relu_3x3_reduce
I0417 00:13:32.582067 28390 net.cpp:120] Top shape: 128 192 7 7 (1204224)
I0417 00:13:32.582070 28390 layer_factory.hpp:74] Creating layer inception_5b/3x3
I0417 00:13:32.582075 28390 net.cpp:84] Creating Layer inception_5b/3x3
I0417 00:13:32.582078 28390 net.cpp:380] inception_5b/3x3 <- inception_5b/3x3_reduce
I0417 00:13:32.582084 28390 net.cpp:338] inception_5b/3x3 -> inception_5b/3x3
I0417 00:13:32.582089 28390 net.cpp:113] Setting up inception_5b/3x3
I0417 00:13:32.586112 28390 net.cpp:120] Top shape: 128 384 7 7 (2408448)
I0417 00:13:32.586120 28390 layer_factory.hpp:74] Creating layer inception_5b/relu_3x3
I0417 00:13:32.586125 28390 net.cpp:84] Creating Layer inception_5b/relu_3x3
I0417 00:13:32.586132 28390 net.cpp:380] inception_5b/relu_3x3 <- inception_5b/3x3
I0417 00:13:32.586135 28390 net.cpp:327] inception_5b/relu_3x3 -> inception_5b/3x3 (in-place)
I0417 00:13:32.586140 28390 net.cpp:113] Setting up inception_5b/relu_3x3
I0417 00:13:32.586144 28390 net.cpp:120] Top shape: 128 384 7 7 (2408448)
I0417 00:13:32.586148 28390 layer_factory.hpp:74] Creating layer inception_5b/5x5_reduce
I0417 00:13:32.586153 28390 net.cpp:84] Creating Layer inception_5b/5x5_reduce
I0417 00:13:32.586155 28390 net.cpp:380] inception_5b/5x5_reduce <- inception_5a/output_inception_5a/output_0_split_2
I0417 00:13:32.586159 28390 net.cpp:338] inception_5b/5x5_reduce -> inception_5b/5x5_reduce
I0417 00:13:32.586164 28390 net.cpp:113] Setting up inception_5b/5x5_reduce
I0417 00:13:32.586410 28390 net.cpp:120] Top shape: 128 48 7 7 (301056)
I0417 00:13:32.586416 28390 layer_factory.hpp:74] Creating layer inception_5b/relu_5x5_reduce
I0417 00:13:32.586419 28390 net.cpp:84] Creating Layer inception_5b/relu_5x5_reduce
I0417 00:13:32.586422 28390 net.cpp:380] inception_5b/relu_5x5_reduce <- inception_5b/5x5_reduce
I0417 00:13:32.586427 28390 net.cpp:327] inception_5b/relu_5x5_reduce -> inception_5b/5x5_reduce (in-place)
I0417 00:13:32.586431 28390 net.cpp:113] Setting up inception_5b/relu_5x5_reduce
I0417 00:13:32.586436 28390 net.cpp:120] Top shape: 128 48 7 7 (301056)
I0417 00:13:32.586437 28390 layer_factory.hpp:74] Creating layer inception_5b/5x5
I0417 00:13:32.586442 28390 net.cpp:84] Creating Layer inception_5b/5x5
I0417 00:13:32.586446 28390 net.cpp:380] inception_5b/5x5 <- inception_5b/5x5_reduce
I0417 00:13:32.586451 28390 net.cpp:338] inception_5b/5x5 -> inception_5b/5x5
I0417 00:13:32.586455 28390 net.cpp:113] Setting up inception_5b/5x5
I0417 00:13:32.587378 28390 net.cpp:120] Top shape: 128 128 7 7 (802816)
I0417 00:13:32.587385 28390 layer_factory.hpp:74] Creating layer inception_5b/relu_5x5
I0417 00:13:32.587389 28390 net.cpp:84] Creating Layer inception_5b/relu_5x5
I0417 00:13:32.587393 28390 net.cpp:380] inception_5b/relu_5x5 <- inception_5b/5x5
I0417 00:13:32.587396 28390 net.cpp:327] inception_5b/relu_5x5 -> inception_5b/5x5 (in-place)
I0417 00:13:32.587400 28390 net.cpp:113] Setting up inception_5b/relu_5x5
I0417 00:13:32.587404 28390 net.cpp:120] Top shape: 128 128 7 7 (802816)
I0417 00:13:32.587407 28390 layer_factory.hpp:74] Creating layer inception_5b/pool
I0417 00:13:32.587411 28390 net.cpp:84] Creating Layer inception_5b/pool
I0417 00:13:32.587414 28390 net.cpp:380] inception_5b/pool <- inception_5a/output_inception_5a/output_0_split_3
I0417 00:13:32.587419 28390 net.cpp:338] inception_5b/pool -> inception_5b/pool
I0417 00:13:32.587424 28390 net.cpp:113] Setting up inception_5b/pool
I0417 00:13:32.587430 28390 net.cpp:120] Top shape: 128 832 7 7 (5218304)
I0417 00:13:32.587432 28390 layer_factory.hpp:74] Creating layer inception_5b/pool_proj
I0417 00:13:32.587440 28390 net.cpp:84] Creating Layer inception_5b/pool_proj
I0417 00:13:32.587442 28390 net.cpp:380] inception_5b/pool_proj <- inception_5b/pool
I0417 00:13:32.587446 28390 net.cpp:338] inception_5b/pool_proj -> inception_5b/pool_proj
I0417 00:13:32.587450 28390 net.cpp:113] Setting up inception_5b/pool_proj
I0417 00:13:32.588090 28390 net.cpp:120] Top shape: 128 128 7 7 (802816)
I0417 00:13:32.588098 28390 layer_factory.hpp:74] Creating layer inception_5b/relu_pool_proj
I0417 00:13:32.588102 28390 net.cpp:84] Creating Layer inception_5b/relu_pool_proj
I0417 00:13:32.588105 28390 net.cpp:380] inception_5b/relu_pool_proj <- inception_5b/pool_proj
I0417 00:13:32.588109 28390 net.cpp:327] inception_5b/relu_pool_proj -> inception_5b/pool_proj (in-place)
I0417 00:13:32.588114 28390 net.cpp:113] Setting up inception_5b/relu_pool_proj
I0417 00:13:32.588119 28390 net.cpp:120] Top shape: 128 128 7 7 (802816)
I0417 00:13:32.588121 28390 layer_factory.hpp:74] Creating layer inception_5b/output
I0417 00:13:32.588125 28390 net.cpp:84] Creating Layer inception_5b/output
I0417 00:13:32.588129 28390 net.cpp:380] inception_5b/output <- inception_5b/1x1
I0417 00:13:32.588136 28390 net.cpp:380] inception_5b/output <- inception_5b/3x3
I0417 00:13:32.588140 28390 net.cpp:380] inception_5b/output <- inception_5b/5x5
I0417 00:13:32.588142 28390 net.cpp:380] inception_5b/output <- inception_5b/pool_proj
I0417 00:13:32.588146 28390 net.cpp:338] inception_5b/output -> inception_5b/output
I0417 00:13:32.588151 28390 net.cpp:113] Setting up inception_5b/output
I0417 00:13:32.588155 28390 net.cpp:120] Top shape: 128 1024 7 7 (6422528)
I0417 00:13:32.588158 28390 layer_factory.hpp:74] Creating layer pool5/7x7_s1
I0417 00:13:32.588163 28390 net.cpp:84] Creating Layer pool5/7x7_s1
I0417 00:13:32.588166 28390 net.cpp:380] pool5/7x7_s1 <- inception_5b/output
I0417 00:13:32.588171 28390 net.cpp:338] pool5/7x7_s1 -> pool5/7x7_s1
I0417 00:13:32.588176 28390 net.cpp:113] Setting up pool5/7x7_s1
I0417 00:13:32.588181 28390 net.cpp:120] Top shape: 128 1024 1 1 (131072)
I0417 00:13:32.588183 28390 layer_factory.hpp:74] Creating layer fc6-conv
I0417 00:13:32.588187 28390 net.cpp:84] Creating Layer fc6-conv
I0417 00:13:32.588191 28390 net.cpp:380] fc6-conv <- pool5/7x7_s1
I0417 00:13:32.588196 28390 net.cpp:338] fc6-conv -> fc6-conv
I0417 00:13:32.588201 28390 net.cpp:113] Setting up fc6-conv
I0417 00:13:32.589262 28390 net.cpp:120] Top shape: 128 1000 1 1 (128000)
I0417 00:13:32.589270 28390 layer_factory.hpp:74] Creating layer fc6-conv/relu
I0417 00:13:32.589274 28390 net.cpp:84] Creating Layer fc6-conv/relu
I0417 00:13:32.589278 28390 net.cpp:380] fc6-conv/relu <- fc6-conv
I0417 00:13:32.589282 28390 net.cpp:327] fc6-conv/relu -> fc6-conv (in-place)
I0417 00:13:32.589287 28390 net.cpp:113] Setting up fc6-conv/relu
I0417 00:13:32.589290 28390 net.cpp:120] Top shape: 128 1000 1 1 (128000)
I0417 00:13:32.589293 28390 net.cpp:169] fc6-conv/relu does not need backward computation.
I0417 00:13:32.589296 28390 net.cpp:169] fc6-conv does not need backward computation.
I0417 00:13:32.589299 28390 net.cpp:169] pool5/7x7_s1 does not need backward computation.
I0417 00:13:32.589301 28390 net.cpp:169] inception_5b/output does not need backward computation.
I0417 00:13:32.589304 28390 net.cpp:169] inception_5b/relu_pool_proj does not need backward computation.
…
