I1022 01:08:19.787847  6102 caffe.cpp:301] Use CPU.
I1022 01:08:19.789178  6102 upgrade_proto.cpp:618] Attempting to upgrade input file specified using deprecated V1LayerParameter: ./imagenet_winners/alexnet.prototxt
I1022 01:08:19.789238  6102 upgrade_proto.cpp:626] Successfully upgraded file specified using deprecated V1LayerParameter
I1022 01:08:19.789341  6102 net.cpp:50] Initializing net from parameters: 
name: "alexnet"
input: "data"
input_dim: 128
input_dim: 3
input_dim: 224
input_dim: 224
force_backward: true
state {
  phase: TRAIN
}
layer {
  name: "conv1"
  type: "Convolution"
  bottom: "data"
  top: "conv1/11x11_s4"
  convolution_param {
    num_output: 64
    pad: 2
    kernel_size: 11
    stride: 4
  }
}
layer {
  name: "conv1/relu"
  type: "ReLU"
  bottom: "conv1/11x11_s4"
  top: "conv1/11x11_s4"
}
layer {
  name: "pool1/3x3_s2"
  type: "Pooling"
  bottom: "conv1/11x11_s4"
  top: "pool1/3x3_s2"
  pooling_param {
    pool: MAX
    kernel_size: 3
    stride: 2
  }
}
layer {
  name: "conv2/5x5_s1"
  type: "Convolution"
  bottom: "pool1/3x3_s2"
  top: "conv2/5x5_s1"
  convolution_param {
    num_output: 192
    pad: 2
    kernel_size: 5
    stride: 1
  }
}
layer {
  name: "conv2/relu"
  type: "ReLU"
  bottom: "conv2/5x5_s1"
  top: "conv2/5x5_s1"
}
layer {
  name: "pool2/3x3_s2"
  type: "Pooling"
  bottom: "conv2/5x5_s1"
  top: "pool2/3x3_s2"
  pooling_param {
    pool: MAX
    kernel_size: 3
    stride: 2
  }
}
layer {
  name: "conv3/3x3_s1"
  type: "Convolution"
  bottom: "pool2/3x3_s2"
  top: "conv3/3x3_s1"
  convolution_param {
    num_output: 384
    pad: 1
    kernel_size: 3
    stride: 1
  }
}
layer {
  name: "conv3/relu"
  type: "ReLU"
  bottom: "conv3/3x3_s1"
  top: "conv3/3x3_s1"
}
layer {
  name: "conv4/3x3_s1"
  type: "Convolution"
  bottom: "conv3/3x3_s1"
  top: "conv4/3x3_s1"
  convolution_param {
    num_output: 256
    pad: 1
    kernel_size: 3
    stride: 1
  }
}
layer {
  name: "conv4/relu"
  type: "ReLU"
  bottom: "conv4/3x3_s1"
  top: "conv4/3x3_s1"
}
layer {
  name: "conv5/3x3_s1"
  type: "Convolution"
  bottom: "conv4/3x3_s1"
  top: "conv5/3x3_s1"
  convolution_param {
    num_output: 256
    pad: 1
    kernel_size: 3
    stride: 1
  }
}
layer {
  name: "conv5/relu"
  type: "ReLU"
  bottom: "conv5/3x3_s1"
  top: "conv5/3x3_s1"
}
layer {
  name: "pool5/3x3_s2"
  type: "Pooling"
  bottom: "conv5/3x3_s1"
  top: "pool5/3x3_s2"
  pooling_param {
    pool: MAX
    kernel_size: 3
    stride: 2
  }
}
layer {
  name: "fc6"
  type: "InnerProduct"
  bottom: "pool5/3x3_s2"
  top: "fc6"
  inner_product_param {
    num_output: 4096
  }
}
layer {
  name: "fc7"
  type: "InnerProduct"
  bottom: "fc6"
  top: "fc7"
  inner_product_param {
    num_output: 4096
  }
}
layer {
  name: "fc8"
  type: "InnerProduct"
  bottom: "fc7"
  top: "fc8"
  inner_product_param {
    num_output: 1000
  }
}
I1022 01:08:19.789399  6102 net.cpp:435] Input 0 -> data
I1022 01:08:19.789428  6102 layer_factory.hpp:76] Creating layer conv1
I1022 01:08:19.789443  6102 net.cpp:110] Creating Layer conv1
I1022 01:08:19.789448  6102 net.cpp:477] conv1 <- data
I1022 01:08:19.789453  6102 net.cpp:433] conv1 -> conv1/11x11_s4
I1022 01:08:19.789517  6102 net.cpp:155] Setting up conv1
I1022 01:08:19.789535  6102 net.cpp:163] Top shape: 128 64 55 55 (24780800)
I1022 01:08:19.789547  6102 layer_factory.hpp:76] Creating layer conv1/relu
I1022 01:08:19.789553  6102 net.cpp:110] Creating Layer conv1/relu
I1022 01:08:19.789557  6102 net.cpp:477] conv1/relu <- conv1/11x11_s4
I1022 01:08:19.789561  6102 net.cpp:419] conv1/relu -> conv1/11x11_s4 (in-place)
I1022 01:08:19.789574  6102 net.cpp:155] Setting up conv1/relu
I1022 01:08:19.789578  6102 net.cpp:163] Top shape: 128 64 55 55 (24780800)
I1022 01:08:19.789582  6102 layer_factory.hpp:76] Creating layer pool1/3x3_s2
I1022 01:08:19.789587  6102 net.cpp:110] Creating Layer pool1/3x3_s2
I1022 01:08:19.789589  6102 net.cpp:477] pool1/3x3_s2 <- conv1/11x11_s4
I1022 01:08:19.789593  6102 net.cpp:433] pool1/3x3_s2 -> pool1/3x3_s2
I1022 01:08:19.789605  6102 net.cpp:155] Setting up pool1/3x3_s2
I1022 01:08:19.789610  6102 net.cpp:163] Top shape: 128 64 27 27 (5971968)
I1022 01:08:19.789618  6102 layer_factory.hpp:76] Creating layer conv2/5x5_s1
I1022 01:08:19.789624  6102 net.cpp:110] Creating Layer conv2/5x5_s1
I1022 01:08:19.789628  6102 net.cpp:477] conv2/5x5_s1 <- pool1/3x3_s2
I1022 01:08:19.789633  6102 net.cpp:433] conv2/5x5_s1 -> conv2/5x5_s1
I1022 01:08:19.789816  6102 net.cpp:155] Setting up conv2/5x5_s1
I1022 01:08:19.789825  6102 net.cpp:163] Top shape: 128 192 27 27 (17915904)
I1022 01:08:19.789832  6102 layer_factory.hpp:76] Creating layer conv2/relu
I1022 01:08:19.789839  6102 net.cpp:110] Creating Layer conv2/relu
I1022 01:08:19.789842  6102 net.cpp:477] conv2/relu <- conv2/5x5_s1
I1022 01:08:19.789846  6102 net.cpp:419] conv2/relu -> conv2/5x5_s1 (in-place)
I1022 01:08:19.789851  6102 net.cpp:155] Setting up conv2/relu
I1022 01:08:19.789855  6102 net.cpp:163] Top shape: 128 192 27 27 (17915904)
I1022 01:08:19.789858  6102 layer_factory.hpp:76] Creating layer pool2/3x3_s2
I1022 01:08:19.789862  6102 net.cpp:110] Creating Layer pool2/3x3_s2
I1022 01:08:19.789865  6102 net.cpp:477] pool2/3x3_s2 <- conv2/5x5_s1
I1022 01:08:19.789870  6102 net.cpp:433] pool2/3x3_s2 -> pool2/3x3_s2
I1022 01:08:19.789876  6102 net.cpp:155] Setting up pool2/3x3_s2
I1022 01:08:19.789880  6102 net.cpp:163] Top shape: 128 192 13 13 (4153344)
I1022 01:08:19.789883  6102 layer_factory.hpp:76] Creating layer conv3/3x3_s1
I1022 01:08:19.789888  6102 net.cpp:110] Creating Layer conv3/3x3_s1
I1022 01:08:19.789891  6102 net.cpp:477] conv3/3x3_s1 <- pool2/3x3_s2
I1022 01:08:19.789896  6102 net.cpp:433] conv3/3x3_s1 -> conv3/3x3_s1
I1022 01:08:19.790810  6102 net.cpp:155] Setting up conv3/3x3_s1
I1022 01:08:19.790820  6102 net.cpp:163] Top shape: 128 384 13 13 (8306688)
I1022 01:08:19.790827  6102 layer_factory.hpp:76] Creating layer conv3/relu
I1022 01:08:19.790832  6102 net.cpp:110] Creating Layer conv3/relu
I1022 01:08:19.790835  6102 net.cpp:477] conv3/relu <- conv3/3x3_s1
I1022 01:08:19.790839  6102 net.cpp:419] conv3/relu -> conv3/3x3_s1 (in-place)
I1022 01:08:19.790845  6102 net.cpp:155] Setting up conv3/relu
I1022 01:08:19.790848  6102 net.cpp:163] Top shape: 128 384 13 13 (8306688)
I1022 01:08:19.790851  6102 layer_factory.hpp:76] Creating layer conv4/3x3_s1
I1022 01:08:19.790858  6102 net.cpp:110] Creating Layer conv4/3x3_s1
I1022 01:08:19.790860  6102 net.cpp:477] conv4/3x3_s1 <- conv3/3x3_s1
I1022 01:08:19.790864  6102 net.cpp:433] conv4/3x3_s1 -> conv4/3x3_s1
I1022 01:08:19.791949  6102 net.cpp:155] Setting up conv4/3x3_s1
I1022 01:08:19.791957  6102 net.cpp:163] Top shape: 128 256 13 13 (5537792)
I1022 01:08:19.791963  6102 layer_factory.hpp:76] Creating layer conv4/relu
I1022 01:08:19.791968  6102 net.cpp:110] Creating Layer conv4/relu
I1022 01:08:19.791971  6102 net.cpp:477] conv4/relu <- conv4/3x3_s1
I1022 01:08:19.791975  6102 net.cpp:419] conv4/relu -> conv4/3x3_s1 (in-place)
I1022 01:08:19.791980  6102 net.cpp:155] Setting up conv4/relu
I1022 01:08:19.791985  6102 net.cpp:163] Top shape: 128 256 13 13 (5537792)
I1022 01:08:19.791987  6102 layer_factory.hpp:76] Creating layer conv5/3x3_s1
I1022 01:08:19.791991  6102 net.cpp:110] Creating Layer conv5/3x3_s1
I1022 01:08:19.791995  6102 net.cpp:477] conv5/3x3_s1 <- conv4/3x3_s1
I1022 01:08:19.791998  6102 net.cpp:433] conv5/3x3_s1 -> conv5/3x3_s1
I1022 01:08:19.792898  6102 net.cpp:155] Setting up conv5/3x3_s1
I1022 01:08:19.792911  6102 net.cpp:163] Top shape: 128 256 13 13 (5537792)
I1022 01:08:19.792918  6102 layer_factory.hpp:76] Creating layer conv5/relu
I1022 01:08:19.792923  6102 net.cpp:110] Creating Layer conv5/relu
I1022 01:08:19.792927  6102 net.cpp:477] conv5/relu <- conv5/3x3_s1
I1022 01:08:19.792930  6102 net.cpp:419] conv5/relu -> conv5/3x3_s1 (in-place)
I1022 01:08:19.792935  6102 net.cpp:155] Setting up conv5/relu
I1022 01:08:19.792939  6102 net.cpp:163] Top shape: 128 256 13 13 (5537792)
I1022 01:08:19.792943  6102 layer_factory.hpp:76] Creating layer pool5/3x3_s2
I1022 01:08:19.792948  6102 net.cpp:110] Creating Layer pool5/3x3_s2
I1022 01:08:19.792950  6102 net.cpp:477] pool5/3x3_s2 <- conv5/3x3_s1
I1022 01:08:19.792960  6102 net.cpp:433] pool5/3x3_s2 -> pool5/3x3_s2
I1022 01:08:19.792968  6102 net.cpp:155] Setting up pool5/3x3_s2
I1022 01:08:19.792973  6102 net.cpp:163] Top shape: 128 256 6 6 (1179648)
I1022 01:08:19.792975  6102 layer_factory.hpp:76] Creating layer fc6
I1022 01:08:19.792980  6102 net.cpp:110] Creating Layer fc6
I1022 01:08:19.792984  6102 net.cpp:477] fc6 <- pool5/3x3_s2
I1022 01:08:19.792987  6102 net.cpp:433] fc6 -> fc6
I1022 01:08:20.057559  6102 net.cpp:155] Setting up fc6
I1022 01:08:20.057588  6102 net.cpp:163] Top shape: 128 4096 (524288)
I1022 01:08:20.057597  6102 layer_factory.hpp:76] Creating layer fc7
I1022 01:08:20.057606  6102 net.cpp:110] Creating Layer fc7
I1022 01:08:20.057610  6102 net.cpp:477] fc7 <- fc6
I1022 01:08:20.057616  6102 net.cpp:433] fc7 -> fc7
I1022 01:08:20.170421  6102 net.cpp:155] Setting up fc7
I1022 01:08:20.170449  6102 net.cpp:163] Top shape: 128 4096 (524288)
I1022 01:08:20.170459  6102 layer_factory.hpp:76] Creating layer fc8
I1022 01:08:20.170465  6102 net.cpp:110] Creating Layer fc8
I1022 01:08:20.170470  6102 net.cpp:477] fc8 <- fc7
I1022 01:08:20.170476  6102 net.cpp:433] fc8 -> fc8
I1022 01:08:20.196257  6102 net.cpp:155] Setting up fc8
I1022 01:08:20.196280  6102 net.cpp:163] Top shape: 128 1000 (128000)
I1022 01:08:20.196288  6102 net.cpp:240] fc8 does not need backward computation.
I1022 01:08:20.196293  6102 net.cpp:240] fc7 does not need backward computation.
I1022 01:08:20.196296  6102 net.cpp:240] fc6 does not need backward computation.
I1022 01:08:20.196300  6102 net.cpp:240] pool5/3x3_s2 does not need backward computation.
I1022 01:08:20.196303  6102 net.cpp:240] conv5/relu does not need backward computation.
…
