…
I1022 01:17:24.245453  6250 net.cpp:339] The NetState phase (0) differed from the phase (1) specified by a rule in layer data
I1022 01:17:24.245476  6250 net.cpp:339] The NetState phase (0) differed from the phase (1) specified by a rule in layer accuracy
I1022 01:17:24.245548  6250 net.cpp:50] Initializing net from parameters: 
name: "AlexNet"
state {
  phase: TRAIN
}
layer {
  name: "data"
  type: "Data"
  top: "data"
  top: "label"
  include {
    phase: TRAIN
  }
  transform_param {
    mirror: true
    crop_size: 227
  }
  data_param {
    source: "/home/awesomebox/code/caffe/examples/imagenet/ilsvrc12_train_lmdb"
    batch_size: 256
    backend: LMDB
  }
}
layer {
  name: "conv1"
  type: "Convolution"
  bottom: "data"
  top: "conv1"
  convolution_param {
    num_output: 64
    kernel_size: 11
    stride: 4
  }
}
layer {
  name: "relu1"
  type: "ReLU"
  bottom: "conv1"
  top: "conv1"
}
layer {
  name: "pool1"
  type: "Pooling"
  bottom: "conv1"
  top: "pool1"
  pooling_param {
    pool: MAX
    kernel_size: 3
    stride: 2
  }
}
layer {
  name: "conv2"
  type: "Convolution"
  bottom: "pool1"
  top: "conv2"
  convolution_param {
    num_output: 192
    pad: 2
    kernel_size: 5
  }
}
layer {
  name: "relu2"
  type: "ReLU"
  bottom: "conv2"
  top: "conv2"
}
layer {
  name: "pool2"
  type: "Pooling"
  bottom: "conv2"
  top: "pool2"
  pooling_param {
    pool: MAX
    kernel_size: 3
    stride: 2
  }
}
layer {
  name: "conv3"
  type: "Convolution"
  bottom: "pool2"
  top: "conv3"
  convolution_param {
    num_output: 384
    pad: 1
    kernel_size: 3
  }
}
layer {
  name: "relu3"
  type: "ReLU"
  bottom: "conv3"
  top: "conv3"
}
layer {
  name: "conv4"
  type: "Convolution"
  bottom: "conv3"
  top: "conv4"
  convolution_param {
    num_output: 256
    pad: 1
    kernel_size: 3
  }
}
layer {
  name: "relu4"
  type: "ReLU"
  bottom: "conv4"
  top: "conv4"
}
layer {
  name: "conv5"
  type: "Convolution"
  bottom: "conv4"
  top: "conv5"
  convolution_param {
    num_output: 256
    pad: 1
    kernel_size: 3
  }
}
layer {
  name: "relu5"
  type: "ReLU"
  bottom: "conv5"
  top: "conv5"
}
layer {
  name: "pool5"
  type: "Pooling"
  bottom: "conv5"
  top: "pool5"
  pooling_param {
    pool: MAX
    kernel_size: 3
    stride: 2
  }
}
layer {
  name: "fc6"
  type: "InnerProduct"
  bottom: "pool5"
  top: "fc6"
  inner_product_param {
    num_output: 4096
  }
}
layer {
  name: "fc7"
  type: "InnerProduct"
  bottom: "fc6"
  top: "fc7"
  inner_product_param {
    num_output: 4096
  }
}
layer {
  name: "fc8"
  type: "InnerProduct"
  bottom: "fc7"
  top: "fc8"
  inner_product_param {
    num_output: 1000
  }
}
layer {
  name: "loss"
  type: "SoftmaxWithLoss"
  bottom: "fc8"
  bottom: "label"
  top: "loss"
}
I1022 01:17:24.245611  6250 layer_factory.hpp:76] Creating layer data
I1022 01:17:24.246141  6250 net.cpp:110] Creating Layer data
I1022 01:17:24.246155  6250 net.cpp:433] data -> data
I1022 01:17:24.246189  6250 net.cpp:433] data -> label
I1022 01:17:24.246276  6252 db_lmdb.cpp:23] Opened lmdb /home/awesomebox/code/caffe/examples/imagenet/ilsvrc12_train_lmdb
I1022 01:17:24.246539  6250 data_layer.cpp:45] output data size: 256,3,227,227
I1022 01:17:24.323297  6250 net.cpp:155] Setting up data
I1022 01:17:24.323343  6250 net.cpp:163] Top shape: 256 3 227 227 (39574272)
I1022 01:17:24.323349  6250 net.cpp:163] Top shape: 256 (256)
I1022 01:17:24.323359  6250 layer_factory.hpp:76] Creating layer conv1
I1022 01:17:24.323372  6250 net.cpp:110] Creating Layer conv1
I1022 01:17:24.323379  6250 net.cpp:477] conv1 <- data
I1022 01:17:24.323389  6250 net.cpp:433] conv1 -> conv1
I1022 01:17:24.323462  6250 net.cpp:155] Setting up conv1
I1022 01:17:24.323469  6250 net.cpp:163] Top shape: 256 64 55 55 (49561600)
I1022 01:17:24.323484  6250 layer_factory.hpp:76] Creating layer relu1
I1022 01:17:24.323492  6250 net.cpp:110] Creating Layer relu1
I1022 01:17:24.323495  6250 net.cpp:477] relu1 <- conv1
I1022 01:17:24.323500  6250 net.cpp:419] relu1 -> conv1 (in-place)
I1022 01:17:24.323511  6250 net.cpp:155] Setting up relu1
I1022 01:17:24.323524  6250 net.cpp:163] Top shape: 256 64 55 55 (49561600)
I1022 01:17:24.323529  6250 layer_factory.hpp:76] Creating layer pool1
I1022 01:17:24.323535  6250 net.cpp:110] Creating Layer pool1
I1022 01:17:24.323539  6250 net.cpp:477] pool1 <- conv1
I1022 01:17:24.323542  6250 net.cpp:433] pool1 -> pool1
I1022 01:17:24.323559  6250 net.cpp:155] Setting up pool1
I1022 01:17:24.323562  6250 net.cpp:163] Top shape: 256 64 27 27 (11943936)
I1022 01:17:24.323566  6250 layer_factory.hpp:76] Creating layer conv2
I1022 01:17:24.323572  6250 net.cpp:110] Creating Layer conv2
I1022 01:17:24.323575  6250 net.cpp:477] conv2 <- pool1
I1022 01:17:24.323580  6250 net.cpp:433] conv2 -> conv2
I1022 01:17:24.323799  6250 net.cpp:155] Setting up conv2
I1022 01:17:24.323807  6250 net.cpp:163] Top shape: 256 192 27 27 (35831808)
I1022 01:17:24.323815  6250 layer_factory.hpp:76] Creating layer relu2
I1022 01:17:24.323822  6250 net.cpp:110] Creating Layer relu2
I1022 01:17:24.323824  6250 net.cpp:477] relu2 <- conv2
I1022 01:17:24.323828  6250 net.cpp:419] relu2 -> conv2 (in-place)
I1022 01:17:24.323834  6250 net.cpp:155] Setting up relu2
I1022 01:17:24.323838  6250 net.cpp:163] Top shape: 256 192 27 27 (35831808)
I1022 01:17:24.323842  6250 layer_factory.hpp:76] Creating layer pool2
I1022 01:17:24.323845  6250 net.cpp:110] Creating Layer pool2
I1022 01:17:24.323848  6250 net.cpp:477] pool2 <- conv2
I1022 01:17:24.323853  6250 net.cpp:433] pool2 -> pool2
I1022 01:17:24.323859  6250 net.cpp:155] Setting up pool2
I1022 01:17:24.323863  6250 net.cpp:163] Top shape: 256 192 13 13 (8306688)
I1022 01:17:24.323868  6250 layer_factory.hpp:76] Creating layer conv3
I1022 01:17:24.323873  6250 net.cpp:110] Creating Layer conv3
I1022 01:17:24.323875  6250 net.cpp:477] conv3 <- pool2
I1022 01:17:24.323879  6250 net.cpp:433] conv3 -> conv3
I1022 01:17:24.324878  6250 net.cpp:155] Setting up conv3
I1022 01:17:24.324892  6250 net.cpp:163] Top shape: 256 384 13 13 (16613376)
I1022 01:17:24.324901  6250 layer_factory.hpp:76] Creating layer relu3
I1022 01:17:24.324908  6250 net.cpp:110] Creating Layer relu3
I1022 01:17:24.324913  6250 net.cpp:477] relu3 <- conv3
I1022 01:17:24.324916  6250 net.cpp:419] relu3 -> conv3 (in-place)
I1022 01:17:24.324923  6250 net.cpp:155] Setting up relu3
I1022 01:17:24.324926  6250 net.cpp:163] Top shape: 256 384 13 13 (16613376)
I1022 01:17:24.324929  6250 layer_factory.hpp:76] Creating layer conv4
I1022 01:17:24.324935  6250 net.cpp:110] Creating Layer conv4
I1022 01:17:24.324939  6250 net.cpp:477] conv4 <- conv3
I1022 01:17:24.324942  6250 net.cpp:433] conv4 -> conv4
I1022 01:17:24.325911  6250 net.cpp:155] Setting up conv4
I1022 01:17:24.325922  6250 net.cpp:163] Top shape: 256 256 13 13 (11075584)
I1022 01:17:24.325928  6250 layer_factory.hpp:76] Creating layer relu4
I1022 01:17:24.325934  6250 net.cpp:110] Creating Layer relu4
I1022 01:17:24.325938  6250 net.cpp:477] relu4 <- conv4
I1022 01:17:24.325942  6250 net.cpp:419] relu4 -> conv4 (in-place)
I1022 01:17:24.325948  6250 net.cpp:155] Setting up relu4
I1022 01:17:24.325953  6250 net.cpp:163] Top shape: 256 256 13 13 (11075584)
I1022 01:17:24.325955  6250 layer_factory.hpp:76] Creating layer conv5
I1022 01:17:24.325960  6250 net.cpp:110] Creating Layer conv5
I1022 01:17:24.325963  6250 net.cpp:477] conv5 <- conv4
I1022 01:17:24.325968  6250 net.cpp:433] conv5 -> conv5
I1022 01:17:24.326822  6250 net.cpp:155] Setting up conv5
I1022 01:17:24.326833  6250 net.cpp:163] Top shape: 256 256 13 13 (11075584)
I1022 01:17:24.326841  6250 layer_factory.hpp:76] Creating layer relu5
I1022 01:17:24.326848  6250 net.cpp:110] Creating Layer relu5
I1022 01:17:24.326851  6250 net.cpp:477] relu5 <- conv5
I1022 01:17:24.326855  6250 net.cpp:419] relu5 -> conv5 (in-place)
I1022 01:17:24.326861  6250 net.cpp:155] Setting up relu5
I1022 01:17:24.326865  6250 net.cpp:163] Top shape: 256 256 13 13 (11075584)
I1022 01:17:24.326869  6250 layer_factory.hpp:76] Creating layer pool5
I1022 01:17:24.326874  6250 net.cpp:110] Creating Layer pool5
I1022 01:17:24.326877  6250 net.cpp:477] pool5 <- conv5
I1022 01:17:24.326889  6250 net.cpp:433] pool5 -> pool5
I1022 01:17:24.326899  6250 net.cpp:155] Setting up pool5
I1022 01:17:24.326902  6250 net.cpp:163] Top shape: 256 256 6 6 (2359296)
I1022 01:17:24.326905  6250 layer_factory.hpp:76] Creating layer fc6
I1022 01:17:24.326911  6250 net.cpp:110] Creating Layer fc6
I1022 01:17:24.326915  6250 net.cpp:477] fc6 <- pool5
I1022 01:17:24.326918  6250 net.cpp:433] fc6 -> fc6
I1022 01:17:24.362534  6250 net.cpp:155] Setting up fc6
I1022 01:17:24.362560  6250 net.cpp:163] Top shape: 256 4096 (1048576)
I1022 01:17:24.362570  6250 layer_factory.hpp:76] Creating layer fc7
I1022 01:17:24.362578  6250 net.cpp:110] Creating Layer fc7
I1022 01:17:24.362583  6250 net.cpp:477] fc7 <- fc6
I1022 01:17:24.362589  6250 net.cpp:433] fc7 -> fc7
I1022 01:17:24.378074  6250 net.cpp:155] Setting up fc7
I1022 01:17:24.378099  6250 net.cpp:163] Top shape: 256 4096 (1048576)
I1022 01:17:24.378108  6250 layer_factory.hpp:76] Creating layer fc8
I1022 01:17:24.378118  6250 net.cpp:110] Creating Layer fc8
I1022 01:17:24.378123  6250 net.cpp:477] fc8 <- fc7
I1022 01:17:24.378129  6250 net.cpp:433] fc8 -> fc8
I1022 01:17:24.382099  6250 net.cpp:155] Setting up fc8
I1022 01:17:24.382122  6250 net.cpp:163] Top shape: 256 1000 (256000)
I1022 01:17:24.382132  6250 layer_factory.hpp:76] Creating layer loss
I1022 01:17:24.382139  6250 net.cpp:110] Creating Layer loss
I1022 01:17:24.382144  6250 net.cpp:477] loss <- fc8
I1022 01:17:24.382149  6250 net.cpp:477] loss <- label
I1022 01:17:24.382156  6250 net.cpp:433] loss -> loss
I1022 01:17:24.382169  6250 layer_factory.hpp:76] Creating layer loss
I1022 01:17:24.382532  6250 net.cpp:155] Setting up loss
…
