…
E0417 00:33:35.743690 28762 upgrade_proto.cpp:618] Attempting to upgrade input file specified using deprecated V1LayerParameter: ./imagenet_winners/alexnet.prototxt
E0417 00:33:35.743741 28762 upgrade_proto.cpp:636] Input NetParameter to be upgraded already specifies 'layer' fields; these will be ignored for the upgrade.
E0417 00:33:35.743773 28762 upgrade_proto.cpp:623] Warning: had one or more problems upgrading V1LayerParameter (see above); continuing anyway.
I0417 00:33:35.743908 28762 net.cpp:42] Initializing net from parameters: 
name: "alexnet"
input: "data"
input_dim: 128
input_dim: 3
input_dim: 224
input_dim: 224
force_backward: true
state {
  phase: TRAIN
}
layer {
  name: "conv1"
  type: "Convolution"
  bottom: "data"
  top: "conv1/11x11_s4"
  param {
    lr_mult: 1
    decay_mult: 1
  }
  param {
    lr_mult: 2
    decay_mult: 0
  }
  convolution_param {
    num_output: 64
    pad: 2
    kernel_size: 11
    stride: 4
    weight_filler {
      type: "xavier"
      std: 0.1
    }
    bias_filler {
      type: "constant"
      value: 0.2
    }
  }
}
layer {
  name: "conv1/relu"
  type: "ReLU"
  bottom: "conv1/11x11_s4"
  top: "conv1/11x11_s4"
}
layer {
  name: "pool1/3x3_s2"
  type: "Pooling"
  bottom: "conv1/11x11_s4"
  top: "pool1/3x3_s2"
  pooling_param {
    pool: MAX
    kernel_size: 3
    stride: 2
  }
}
layer {
  name: "conv2/5x5_s1"
  type: "Convolution"
  bottom: "pool1/3x3_s2"
  top: "conv2/5x5_s1"
  param {
    lr_mult: 1
    decay_mult: 1
  }
  param {
    lr_mult: 2
    decay_mult: 0
  }
  convolution_param {
    num_output: 192
    pad: 2
    kernel_size: 5
    stride: 1
    weight_filler {
      type: "xavier"
      std: 0.1
    }
    bias_filler {
      type: "constant"
      value: 0.2
    }
  }
}
layer {
  name: "cpnv2/relu"
  type: "ReLU"
  bottom: "conv2/5x5_s1"
  top: "conv2/5x5_s1"
}
layer {
  name: "pool2/3x3_s2"
  type: "Pooling"
  bottom: "conv2/5x5_s1"
  top: "pool2/3x3_s2"
  pooling_param {
    pool: MAX
    kernel_size: 3
    stride: 2
  }
}
layer {
  name: "conv3/3x3_s1"
  type: "Convolution"
  bottom: "pool2/3x3_s2"
  top: "conv3/3x3_s1"
  param {
    lr_mult: 1
    decay_mult: 1
  }
  param {
    lr_mult: 2
    decay_mult: 0
  }
  convolution_param {
    num_output: 384
    pad: 1
    kernel_size: 3
    stride: 1
    weight_filler {
      type: "xavier"
      std: 0.1
    }
    bias_filler {
      type: "constant"
      value: 0.2
    }
  }
}
layer {
  name: "conv3/relu"
  type: "ReLU"
  bottom: "conv3/3x3_s1"
  top: "conv3/3x3_s1"
}
layer {
  name: "conv4/3x3_s1"
  type: "Convolution"
  bottom: "conv3/3x3_s1"
  top: "conv4/3x3_s1"
  param {
    lr_mult: 1
    decay_mult: 1
  }
  param {
    lr_mult: 2
    decay_mult: 0
  }
  convolution_param {
    num_output: 256
    pad: 1
    kernel_size: 3
    stride: 1
    weight_filler {
      type: "xavier"
      std: 0.1
    }
    bias_filler {
      type: "constant"
      value: 0.2
    }
  }
}
layer {
  name: "conv4/relu"
  type: "ReLU"
  bottom: "conv4/3x3_s1"
  top: "conv4/3x3_s1"
}
layer {
  name: "conv5/3x3_s1"
  type: "Convolution"
  bottom: "conv4/3x3_s1"
  top: "conv5/3x3_s1"
  param {
    lr_mult: 1
    decay_mult: 1
  }
  param {
    lr_mult: 2
    decay_mult: 0
  }
  convolution_param {
    num_output: 256
    pad: 1
    kernel_size: 3
    stride: 1
    weight_filler {
      type: "xavier"
      std: 0.1
    }
    bias_filler {
      type: "constant"
      value: 0.2
    }
  }
}
layer {
  name: "conv5/relu"
  type: "ReLU"
  bottom: "conv5/3x3_s1"
  top: "conv5/3x3_s1"
}
layer {
  name: "pool5/3x3_s2"
  type: "Pooling"
  bottom: "conv5/3x3_s1"
  top: "pool5/3x3_s2"
  pooling_param {
    pool: MAX
    kernel_size: 3
    stride: 2
  }
}
I0417 00:33:35.743963 28762 net.cpp:340] Input 0 -> data
I0417 00:33:35.743993 28762 layer_factory.hpp:74] Creating layer conv1
I0417 00:33:35.744009 28762 net.cpp:84] Creating Layer conv1
I0417 00:33:35.744014 28762 net.cpp:380] conv1 <- data
I0417 00:33:35.744020 28762 net.cpp:338] conv1 -> conv1/11x11_s4
I0417 00:33:35.744029 28762 net.cpp:113] Setting up conv1
I0417 00:33:35.744531 28762 net.cpp:120] Top shape: 128 64 55 55 (24780800)
I0417 00:33:35.744545 28762 layer_factory.hpp:74] Creating layer conv1/relu
I0417 00:33:35.744552 28762 net.cpp:84] Creating Layer conv1/relu
I0417 00:33:35.744555 28762 net.cpp:380] conv1/relu <- conv1/11x11_s4
I0417 00:33:35.744560 28762 net.cpp:327] conv1/relu -> conv1/11x11_s4 (in-place)
I0417 00:33:35.744565 28762 net.cpp:113] Setting up conv1/relu
I0417 00:33:35.744573 28762 net.cpp:120] Top shape: 128 64 55 55 (24780800)
I0417 00:33:35.744577 28762 layer_factory.hpp:74] Creating layer pool1/3x3_s2
I0417 00:33:35.744582 28762 net.cpp:84] Creating Layer pool1/3x3_s2
I0417 00:33:35.744585 28762 net.cpp:380] pool1/3x3_s2 <- conv1/11x11_s4
I0417 00:33:35.744588 28762 net.cpp:338] pool1/3x3_s2 -> pool1/3x3_s2
I0417 00:33:35.744595 28762 net.cpp:113] Setting up pool1/3x3_s2
I0417 00:33:35.744606 28762 net.cpp:120] Top shape: 128 64 27 27 (5971968)
I0417 00:33:35.744609 28762 layer_factory.hpp:74] Creating layer conv2/5x5_s1
I0417 00:33:35.744614 28762 net.cpp:84] Creating Layer conv2/5x5_s1
I0417 00:33:35.744617 28762 net.cpp:380] conv2/5x5_s1 <- pool1/3x3_s2
I0417 00:33:35.744704 28762 net.cpp:338] conv2/5x5_s1 -> conv2/5x5_s1
I0417 00:33:35.744714 28762 net.cpp:113] Setting up conv2/5x5_s1
I0417 00:33:35.746635 28762 net.cpp:120] Top shape: 128 192 27 27 (17915904)
I0417 00:33:35.746646 28762 layer_factory.hpp:74] Creating layer cpnv2/relu
I0417 00:33:35.746651 28762 net.cpp:84] Creating Layer cpnv2/relu
I0417 00:33:35.746655 28762 net.cpp:380] cpnv2/relu <- conv2/5x5_s1
I0417 00:33:35.746659 28762 net.cpp:327] cpnv2/relu -> conv2/5x5_s1 (in-place)
I0417 00:33:35.746664 28762 net.cpp:113] Setting up cpnv2/relu
I0417 00:33:35.746669 28762 net.cpp:120] Top shape: 128 192 27 27 (17915904)
I0417 00:33:35.746671 28762 layer_factory.hpp:74] Creating layer pool2/3x3_s2
I0417 00:33:35.746675 28762 net.cpp:84] Creating Layer pool2/3x3_s2
I0417 00:33:35.746678 28762 net.cpp:380] pool2/3x3_s2 <- conv2/5x5_s1
I0417 00:33:35.746683 28762 net.cpp:338] pool2/3x3_s2 -> pool2/3x3_s2
I0417 00:33:35.746688 28762 net.cpp:113] Setting up pool2/3x3_s2
I0417 00:33:35.746695 28762 net.cpp:120] Top shape: 128 192 13 13 (4153344)
I0417 00:33:35.746697 28762 layer_factory.hpp:74] Creating layer conv3/3x3_s1
I0417 00:33:35.746702 28762 net.cpp:84] Creating Layer conv3/3x3_s1
I0417 00:33:35.746706 28762 net.cpp:380] conv3/3x3_s1 <- pool2/3x3_s2
I0417 00:33:35.746709 28762 net.cpp:338] conv3/3x3_s1 -> conv3/3x3_s1
I0417 00:33:35.746714 28762 net.cpp:113] Setting up conv3/3x3_s1
I0417 00:33:35.750685 28762 net.cpp:120] Top shape: 128 384 13 13 (8306688)
I0417 00:33:35.750696 28762 layer_factory.hpp:74] Creating layer conv3/relu
I0417 00:33:35.750701 28762 net.cpp:84] Creating Layer conv3/relu
I0417 00:33:35.750705 28762 net.cpp:380] conv3/relu <- conv3/3x3_s1
I0417 00:33:35.750708 28762 net.cpp:327] conv3/relu -> conv3/3x3_s1 (in-place)
I0417 00:33:35.750713 28762 net.cpp:113] Setting up conv3/relu
I0417 00:33:35.750717 28762 net.cpp:120] Top shape: 128 384 13 13 (8306688)
I0417 00:33:35.750720 28762 layer_factory.hpp:74] Creating layer conv4/3x3_s1
I0417 00:33:35.750725 28762 net.cpp:84] Creating Layer conv4/3x3_s1
I0417 00:33:35.750728 28762 net.cpp:380] conv4/3x3_s1 <- conv3/3x3_s1
I0417 00:33:35.750733 28762 net.cpp:338] conv4/3x3_s1 -> conv4/3x3_s1
I0417 00:33:35.750738 28762 net.cpp:113] Setting up conv4/3x3_s1
I0417 00:33:35.755753 28762 net.cpp:120] Top shape: 128 256 13 13 (5537792)
I0417 00:33:35.755763 28762 layer_factory.hpp:74] Creating layer conv4/relu
I0417 00:33:35.755767 28762 net.cpp:84] Creating Layer conv4/relu
I0417 00:33:35.755770 28762 net.cpp:380] conv4/relu <- conv4/3x3_s1
I0417 00:33:35.755774 28762 net.cpp:327] conv4/relu -> conv4/3x3_s1 (in-place)
I0417 00:33:35.755779 28762 net.cpp:113] Setting up conv4/relu
I0417 00:33:35.755784 28762 net.cpp:120] Top shape: 128 256 13 13 (5537792)
I0417 00:33:35.755786 28762 layer_factory.hpp:74] Creating layer conv5/3x3_s1
I0417 00:33:35.755791 28762 net.cpp:84] Creating Layer conv5/3x3_s1
I0417 00:33:35.755800 28762 net.cpp:380] conv5/3x3_s1 <- conv4/3x3_s1
I0417 00:33:35.755805 28762 net.cpp:338] conv5/3x3_s1 -> conv5/3x3_s1
I0417 00:33:35.755810 28762 net.cpp:113] Setting up conv5/3x3_s1
I0417 00:33:35.759330 28762 net.cpp:120] Top shape: 128 256 13 13 (5537792)
I0417 00:33:35.759341 28762 layer_factory.hpp:74] Creating layer conv5/relu
I0417 00:33:35.759344 28762 net.cpp:84] Creating Layer conv5/relu
I0417 00:33:35.759347 28762 net.cpp:380] conv5/relu <- conv5/3x3_s1
I0417 00:33:35.759351 28762 net.cpp:327] conv5/relu -> conv5/3x3_s1 (in-place)
I0417 00:33:35.759356 28762 net.cpp:113] Setting up conv5/relu
I0417 00:33:35.759361 28762 net.cpp:120] Top shape: 128 256 13 13 (5537792)
I0417 00:33:35.759363 28762 layer_factory.hpp:74] Creating layer pool5/3x3_s2
I0417 00:33:35.759367 28762 net.cpp:84] Creating Layer pool5/3x3_s2
I0417 00:33:35.759371 28762 net.cpp:380] pool5/3x3_s2 <- conv5/3x3_s1
I0417 00:33:35.759374 28762 net.cpp:338] pool5/3x3_s2 -> pool5/3x3_s2
I0417 00:33:35.759379 28762 net.cpp:113] Setting up pool5/3x3_s2
I0417 00:33:35.759385 28762 net.cpp:120] Top shape: 128 256 6 6 (1179648)
I0417 00:33:35.759388 28762 net.cpp:169] pool5/3x3_s2 does not need backward computation.
I0417 00:33:35.759392 28762 net.cpp:169] conv5/relu does not need backward computation.
I0417 00:33:35.759394 28762 net.cpp:169] conv5/3x3_s1 does not need backward computation.
I0417 00:33:35.759397 28762 net.cpp:169] conv4/relu does not need backward computation.
I0417 00:33:35.759399 28762 net.cpp:169] conv4/3x3_s1 does not need backward computation.
…
