…
27:35.673627 11298 caffe.cpp:212] Use GPU with device ID 0
E0408 23:27:35.893597 11298 upgrade_proto.cpp:618] Attempting to upgrade input file specified using deprecated V1LayerParameter: ./imagenet_winners/alexnet.prototxt
I0408 23:27:35.893674 11298 upgrade_proto.cpp:626] Successfully upgraded file specified using deprecated V1LayerParameter
I0408 23:27:35.893822 11298 net.cpp:42] Initializing net from parameters: 
name: "alexnet"
input: "data"
input_dim: 128
input_dim: 3
input_dim: 224
input_dim: 224
force_backward: true
state {
  phase: TRAIN
}
layer {
  name: "conv1"
  type: "Convolution"
  bottom: "data"
  top: "conv1/11x11_s4"
  param {
    lr_mult: 1
    decay_mult: 1
  }
  param {
    lr_mult: 2
    decay_mult: 0
  }
  convolution_param {
    num_output: 64
    pad: 2
    kernel_size: 11
    stride: 4
    weight_filler {
      type: "xavier"
      std: 0.1
    }
    bias_filler {
      type: "constant"
      value: 0.2
    }
  }
}
layer {
  name: "conv1/relu"
  type: "ReLU"
  bottom: "conv1/11x11_s4"
  top: "conv1/11x11_s4"
}
layer {
  name: "pool1/3x3_s2"
  type: "Pooling"
  bottom: "conv1/11x11_s4"
  top: "pool1/3x3_s2"
  pooling_param {
    pool: MAX
    kernel_size: 3
    stride: 2
  }
}
layer {
  name: "conv2/5x5_s1"
  type: "Convolution"
  bottom: "pool1/3x3_s2"
  top: "conv2/5x5_s1"
  param {
    lr_mult: 1
    decay_mult: 1
  }
  param {
    lr_mult: 2
    decay_mult: 0
  }
  convolution_param {
    num_output: 192
    pad: 2
    kernel_size: 5
    stride: 1
    weight_filler {
      type: "xavier"
      std: 0.1
    }
    bias_filler {
      type: "constant"
      value: 0.2
    }
  }
}
layer {
  name: "cpnv2/relu"
  type: "ReLU"
  bottom: "conv2/5x5_s1"
  top: "conv2/5x5_s1"
}
layer {
  name: "pool2/3x3_s2"
  type: "Pooling"
  bottom: "conv2/5x5_s1"
  top: "pool2/3x3_s2"
  pooling_param {
    pool: MAX
    kernel_size: 3
    stride: 2
  }
}
layer {
  name: "conv3/3x3_s1"
  type: "Convolution"
  bottom: "pool2/3x3_s2"
  top: "conv3/3x3_s1"
  param {
    lr_mult: 1
    decay_mult: 1
  }
  param {
    lr_mult: 2
    decay_mult: 0
  }
  convolution_param {
    num_output: 384
    pad: 1
    kernel_size: 3
    stride: 1
    weight_filler {
      type: "xavier"
      std: 0.1
    }
    bias_filler {
      type: "constant"
      value: 0.2
    }
  }
}
layer {
  name: "conv3/relu"
  type: "ReLU"
  bottom: "conv3/3x3_s1"
  top: "conv3/3x3_s1"
}
layer {
  name: "conv4/3x3_s1"
  type: "Convolution"
  bottom: "conv3/3x3_s1"
  top: "conv4/3x3_s1"
  param {
    lr_mult: 1
    decay_mult: 1
  }
  param {
    lr_mult: 2
    decay_mult: 0
  }
  convolution_param {
    num_output: 256
    pad: 1
    kernel_size: 3
    stride: 1
    weight_filler {
      type: "xavier"
      std: 0.1
    }
    bias_filler {
      type: "constant"
      value: 0.2
    }
  }
}
layer {
  name: "conv4/relu"
  type: "ReLU"
  bottom: "conv4/3x3_s1"
  top: "conv4/3x3_s1"
}
layer {
  name: "conv5/3x3_s1"
  type: "Convolution"
  bottom: "conv4/3x3_s1"
  top: "conv5/3x3_s1"
  param {
    lr_mult: 1
    decay_mult: 1
  }
  param {
    lr_mult: 2
    decay_mult: 0
  }
  convolution_param {
    num_output: 256
    pad: 1
    kernel_size: 3
    stride: 1
    weight_filler {
      type: "xavier"
      std: 0.1
    }
    bias_filler {
      type: "constant"
      value: 0.2
    }
  }
}
layer {
  name: "conv5/relu"
  type: "ReLU"
  bottom: "conv5/3x3_s1"
  top: "conv5/3x3_s1"
}
layer {
  name: "pool5/3x3_s2"
  type: "Pooling"
  bottom: "conv5/3x3_s1"
  top: "pool5/3x3_s2"
  pooling_param {
    pool: MAX
    kernel_size: 3
    stride: 2
  }
}
layer {
  name: "fc6-conv"
  type: "Convolution"
  bottom: "pool5/3x3_s2"
  top: "fc6-conv"
  convolution_param {
    num_output: 4096
    kernel_size: 6
  }
}
layer {
  name: "fc7-conv"
  type: "Convolution"
  bottom: "fc6-conv"
  top: "fc7-conv"
  convolution_param {
    num_output: 4096
    kernel_size: 1
  }
}
layer {
  name: "fc8-conv"
  type: "Convolution"
  bottom: "fc7-conv"
  top: "fc8-conv"
  convolution_param {
    num_output: 1000
    kernel_size: 1
  }
}
I0408 23:27:35.893884 11298 net.cpp:340] Input 0 -> data
I0408 23:27:35.893920 11298 layer_factory.hpp:74] Creating layer conv1
I0408 23:27:35.893939 11298 net.cpp:84] Creating Layer conv1
I0408 23:27:35.893944 11298 net.cpp:380] conv1 <- data
I0408 23:27:35.893949 11298 net.cpp:338] conv1 -> conv1/11x11_s4
I0408 23:27:35.893959 11298 net.cpp:113] Setting up conv1
I0408 23:27:35.894467 11298 net.cpp:120] Top shape: 128 64 55 55 (24780800)
I0408 23:27:35.894481 11298 layer_factory.hpp:74] Creating layer conv1/relu
I0408 23:27:35.894487 11298 net.cpp:84] Creating Layer conv1/relu
I0408 23:27:35.894490 11298 net.cpp:380] conv1/relu <- conv1/11x11_s4
I0408 23:27:35.894495 11298 net.cpp:327] conv1/relu -> conv1/11x11_s4 (in-place)
I0408 23:27:35.894500 11298 net.cpp:113] Setting up conv1/relu
I0408 23:27:35.894508 11298 net.cpp:120] Top shape: 128 64 55 55 (24780800)
I0408 23:27:35.894511 11298 layer_factory.hpp:74] Creating layer pool1/3x3_s2
I0408 23:27:35.894516 11298 net.cpp:84] Creating Layer pool1/3x3_s2
I0408 23:27:35.894520 11298 net.cpp:380] pool1/3x3_s2 <- conv1/11x11_s4
I0408 23:27:35.894523 11298 net.cpp:338] pool1/3x3_s2 -> pool1/3x3_s2
I0408 23:27:35.894528 11298 net.cpp:113] Setting up pool1/3x3_s2
I0408 23:27:35.894539 11298 net.cpp:120] Top shape: 128 64 27 27 (5971968)
I0408 23:27:35.894543 11298 layer_factory.hpp:74] Creating layer conv2/5x5_s1
I0408 23:27:35.894548 11298 net.cpp:84] Creating Layer conv2/5x5_s1
I0408 23:27:35.894551 11298 net.cpp:380] conv2/5x5_s1 <- pool1/3x3_s2
I0408 23:27:35.894556 11298 net.cpp:338] conv2/5x5_s1 -> conv2/5x5_s1
I0408 23:27:35.894561 11298 net.cpp:113] Setting up conv2/5x5_s1
I0408 23:27:35.896456 11298 net.cpp:120] Top shape: 128 192 27 27 (17915904)
I0408 23:27:35.896467 11298 layer_factory.hpp:74] Creating layer cpnv2/relu
I0408 23:27:35.896473 11298 net.cpp:84] Creating Layer cpnv2/relu
I0408 23:27:35.896476 11298 net.cpp:380] cpnv2/relu <- conv2/5x5_s1
I0408 23:27:35.896481 11298 net.cpp:327] cpnv2/relu -> conv2/5x5_s1 (in-place)
I0408 23:27:35.896484 11298 net.cpp:113] Setting up cpnv2/relu
I0408 23:27:35.896489 11298 net.cpp:120] Top shape: 128 192 27 27 (17915904)
I0408 23:27:35.896492 11298 layer_factory.hpp:74] Creating layer pool2/3x3_s2
I0408 23:27:35.896497 11298 net.cpp:84] Creating Layer pool2/3x3_s2
I0408 23:27:35.896499 11298 net.cpp:380] pool2/3x3_s2 <- conv2/5x5_s1
I0408 23:27:35.896503 11298 net.cpp:338] pool2/3x3_s2 -> pool2/3x3_s2
I0408 23:27:35.896508 11298 net.cpp:113] Setting up pool2/3x3_s2
I0408 23:27:35.896514 11298 net.cpp:120] Top shape: 128 192 13 13 (4153344)
I0408 23:27:35.896517 11298 layer_factory.hpp:74] Creating layer conv3/3x3_s1
I0408 23:27:35.896522 11298 net.cpp:84] Creating Layer conv3/3x3_s1
I0408 23:27:35.896524 11298 net.cpp:380] conv3/3x3_s1 <- pool2/3x3_s2
I0408 23:27:35.896528 11298 net.cpp:338] conv3/3x3_s1 -> conv3/3x3_s1
I0408 23:27:35.896533 11298 net.cpp:113] Setting up conv3/3x3_s1
I0408 23:27:35.900374 11298 net.cpp:120] Top shape: 128 384 13 13 (8306688)
I0408 23:27:35.900401 11298 layer_factory.hpp:74] Creating layer conv3/relu
I0408 23:27:35.900409 11298 net.cpp:84] Creating Layer conv3/relu
I0408 23:27:35.900413 11298 net.cpp:380] conv3/relu <- conv3/3x3_s1
I0408 23:27:35.900418 11298 net.cpp:327] conv3/relu -> conv3/3x3_s1 (in-place)
I0408 23:27:35.900424 11298 net.cpp:113] Setting up conv3/relu
I0408 23:27:35.900429 11298 net.cpp:120] Top shape: 128 384 13 13 (8306688)
I0408 23:27:35.900431 11298 layer_factory.hpp:74] Creating layer conv4/3x3_s1
I0408 23:27:35.900439 11298 net.cpp:84] Creating Layer conv4/3x3_s1
I0408 23:27:35.900442 11298 net.cpp:380] conv4/3x3_s1 <- conv3/3x3_s1
I0408 23:27:35.900446 11298 net.cpp:338] conv4/3x3_s1 -> conv4/3x3_s1
I0408 23:27:35.900452 11298 net.cpp:113] Setting up conv4/3x3_s1
I0408 23:27:35.905869 11298 net.cpp:120] Top shape: 128 256 13 13 (5537792)
I0408 23:27:35.905894 11298 layer_factory.hpp:74] Creating layer conv4/relu
I0408 23:27:35.905901 11298 net.cpp:84] Creating Layer conv4/relu
I0408 23:27:35.905905 11298 net.cpp:380] conv4/relu <- conv4/3x3_s1
I0408 23:27:35.905910 11298 net.cpp:327] conv4/relu -> conv4/3x3_s1 (in-place)
I0408 23:27:35.905925 11298 net.cpp:113] Setting up conv4/relu
I0408 23:27:35.905930 11298 net.cpp:120] Top shape: 128 256 13 13 (5537792)
I0408 23:27:35.905932 11298 layer_factory.hpp:74] Creating layer conv5/3x3_s1
I0408 23:27:35.905941 11298 net.cpp:84] Creating Layer conv5/3x3_s1
I0408 23:27:35.905944 11298 net.cpp:380] conv5/3x3_s1 <- conv4/3x3_s1
I0408 23:27:35.905949 11298 net.cpp:338] conv5/3x3_s1 -> conv5/3x3_s1
I0408 23:27:35.905954 11298 net.cpp:113] Setting up conv5/3x3_s1
I0408 23:27:35.909574 11298 net.cpp:120] Top shape: 128 256 13 13 (5537792)
I0408 23:27:35.909593 11298 layer_factory.hpp:74] Creating layer conv5/relu
I0408 23:27:35.909600 11298 net.cpp:84] Creating Layer conv5/relu
I0408 23:27:35.909602 11298 net.cpp:380] conv5/relu <- conv5/3x3_s1
I0408 23:27:35.909606 11298 net.cpp:327] conv5/relu -> conv5/3x3_s1 (in-place)
I0408 23:27:35.909611 11298 net.cpp:113] Setting up conv5/relu
I0408 23:27:35.909616 11298 net.cpp:120] Top shape: 128 256 13 13 (5537792)
I0408 23:27:35.909620 11298 layer_factory.hpp:74] Creating layer pool5/3x3_s2
I0408 23:27:35.909626 11298 net.cpp:84] Creating Layer pool5/3x3_s2
I0408 23:27:35.909627 11298 net.cpp:380] pool5/3x3_s2 <- conv5/3x3_s1
I0408 23:27:35.909631 11298 net.cpp:338] pool5/3x3_s2 -> pool5/3x3_s2
I0408 23:27:35.909637 11298 net.cpp:113] Setting up pool5/3x3_s2
I0408 23:27:35.909643 11298 net.cpp:120] Top shape: 128 256 6 6 (1179648)
I0408 23:27:35.909647 11298 layer_factory.hpp:74] Creating layer fc6-conv
I0408 23:27:35.909651 11298 net.cpp:84] Creating Layer fc6-conv
I0408 23:27:35.909654 11298 net.cpp:380] fc6-conv <- pool5/3x3_s2
I0408 23:27:35.909659 11298 net.cpp:338] fc6-conv -> fc6-conv
I0408 23:27:35.909664 11298 net.cpp:113] Setting up fc6-conv
I0408 23:27:35.993713 11298 net.cpp:120] Top shape: 128 4096 1 1 (524288)
I0408 23:27:35.993743 11298 layer_factory.hpp:74] Creating layer fc7-conv
I0408 23:27:35.993753 11298 net.cpp:84] Creating Layer fc7-conv
I0408 23:27:35.993757 11298 net.cpp:380] fc7-conv <- fc6-conv
I0408 23:27:35.993763 11298 net.cpp:338] fc7-conv -> fc7-conv
I0408 23:27:35.993772 11298 net.cpp:113] Setting up fc7-conv
I0408 23:27:36.122089 11298 net.cpp:120] Top shape: 128 4096 1 1 (524288)
I0408 23:27:36.122119 11298 layer_factory.hpp:74] Creating layer fc8-conv
I0408 23:27:36.122128 11298 net.cpp:84] Creating Layer fc8-conv
I0408 23:27:36.122133 11298 net.cpp:380] fc8-conv <- fc7-conv
I0408 23:27:36.122139 11298 net.cpp:338] fc8-conv -> fc8-conv
I0408 23:27:36.122146 11298 net.cpp:113] Setting up fc8-conv
I0408 23:27:36.147285 11298 net.cpp:120] Top shape: 128 1000 1 1 (128000)
I0408 23:27:36.147313 11298 net.cpp:169] fc8-conv does not need backward computation.
I0408 23:27:36.147316 11298 net.cpp:169] fc7-conv does not need backward computation.
I0408 23:27:36.147320 11298 net.cpp:169] fc6-conv does not need backward computation.
I0408 23:27:36.147322 11298 net.cpp:169] pool5/3x3_s2 does not need backward computation.
I0408 23:27:36.147325 11298 net.cpp:169] conv5/relu does not need backward computation.
…
