…
:28.298516  9931 caffe.cpp:291] Use GPU with device ID 0
I0822 16:51:28.833000  9931 upgrade_proto.cpp:641] Attempting to upgrade input file specified using deprecated V1LayerParameter: ./imagenet_winners/vgg_a.prototxt
I0822 16:51:28.833092  9931 upgrade_proto.cpp:649] Successfully upgraded file specified using deprecated V1LayerParameter
I0822 16:51:28.833302  9931 net.cpp:51] Initializing net from parameters: 
name: "vgg_a"
input: "data"
input_dim: 64
input_dim: 3
input_dim: 224
input_dim: 224
force_backward: true
state {
  phase: TRAIN
}
layer {
  name: "conv1/3x3_s1"
  type: "Convolution"
  bottom: "data"
  top: "conv1/3x3_s1"
  param {
    lr_mult: 1
    decay_mult: 1
  }
  param {
    lr_mult: 2
    decay_mult: 0
  }
  convolution_param {
    num_output: 64
    kernel_size: 3
    stride: 1
    weight_filler {
      type: "xavier"
      std: 0.1
    }
    bias_filler {
      type: "constant"
      value: 0.2
    }
  }
}
layer {
  name: "conv1/relu"
  type: "ReLU"
  bottom: "conv1/3x3_s1"
  top: "conv1/3x3_s1"
}
layer {
  name: "pool1/2x2_s2"
  type: "Pooling"
  bottom: "conv1/3x3_s1"
  top: "pool1/2x2_s2"
  pooling_param {
    pool: MAX
    kernel_size: 2
    stride: 2
  }
}
layer {
  name: "conv2/3x3_s1"
  type: "Convolution"
  bottom: "pool1/2x2_s2"
  top: "conv2/3x3_s1"
  param {
    lr_mult: 1
    decay_mult: 1
  }
  param {
    lr_mult: 2
    decay_mult: 0
  }
  convolution_param {
    num_output: 128
    pad: 1
    kernel_size: 3
    stride: 1
    weight_filler {
      type: "xavier"
      std: 0.1
    }
    bias_filler {
      type: "constant"
      value: 0.2
    }
  }
}
layer {
  name: "conv2/relu"
  type: "ReLU"
  bottom: "conv2/3x3_s1"
  top: "conv2/3x3_s1"
}
layer {
  name: "pool2/2x2_s2"
  type: "Pooling"
  bottom: "conv2/3x3_s1"
  top: "pool2/2x2_s2"
  pooling_param {
    pool: MAX
    kernel_size: 2
    stride: 2
  }
}
layer {
  name: "conv3/3x3_s1"
  type: "Convolution"
  bottom: "pool2/2x2_s2"
  top: "conv3/3x3_s1"
  param {
    lr_mult: 1
    decay_mult: 1
  }
  param {
    lr_mult: 2
    decay_mult: 0
  }
  convolution_param {
    num_output: 256
    pad: 1
    kernel_size: 3
    stride: 1
    weight_filler {
      type: "xavier"
      std: 0.1
    }
    bias_filler {
      type: "constant"
      value: 0.2
    }
  }
}
layer {
  name: "conv3/relu"
  type: "ReLU"
  bottom: "conv3/3x3_s1"
  top: "conv3/3x3_s1"
}
layer {
  name: "conv4/3x3_s1"
  type: "Convolution"
  bottom: "conv3/3x3_s1"
  top: "conv4/3x3_s1"
  param {
    lr_mult: 1
    decay_mult: 1
  }
  param {
    lr_mult: 2
    decay_mult: 0
  }
  convolution_param {
    num_output: 256
    pad: 1
    kernel_size: 3
    stride: 1
    weight_filler {
      type: "xavier"
      std: 0.1
    }
    bias_filler {
      type: "constant"
      value: 0.2
    }
  }
}
layer {
  name: "conv4/relu"
  type: "ReLU"
  bottom: "conv4/3x3_s1"
  top: "conv4/3x3_s1"
}
layer {
  name: "pool3/2x2_s2"
  type: "Pooling"
  bottom: "conv4/3x3_s1"
  top: "pool3/2x2_s2"
  pooling_param {
    pool: MAX
    kernel_size: 2
    stride: 2
  }
}
layer {
  name: "conv5/3x3_s1"
  type: "Convolution"
  bottom: "pool3/2x2_s2"
  top: "conv5/3x3_s1"
  param {
    lr_mult: 1
    decay_mult: 1
  }
  param {
    lr_mult: 2
    decay_mult: 0
  }
  convolution_param {
    num_output: 512
    pad: 1
    kernel_size: 3
    stride: 1
    weight_filler {
      type: "xavier"
      std: 0.1
    }
    bias_filler {
      type: "constant"
      value: 0.2
    }
  }
}
layer {
  name: "conv5/relu"
  type: "ReLU"
  bottom: "conv5/3x3_s1"
  top: "conv5/3x3_s1"
}
layer {
  name: "conv6/3x3_s1"
  type: "Convolution"
  bottom: "conv5/3x3_s1"
  top: "conv6/3x3_s1"
  param {
    lr_mult: 1
    decay_mult: 1
  }
  param {
    lr_mult: 2
    decay_mult: 0
  }
  convolution_param {
    num_output: 512
    pad: 1
    kernel_size: 3
    stride: 1
    weight_filler {
      type: "xavier"
      std: 0.1
    }
    bias_filler {
      type: "constant"
      value: 0.2
    }
  }
}
layer {
  name: "conv6/relu"
  type: "ReLU"
  bottom: "conv6/3x3_s1"
  top: "conv6/3x3_s1"
}
layer {
  name: "pool4/2x2_s2"
  type: "Pooling"
  bottom: "conv6/3x3_s1"
  top: "pool4/2x2_s2"
  pooling_param {
    pool: MAX
    kernel_size: 2
    stride: 2
  }
}
layer {
  name: "conv7/3x3_s1"
  type: "Convolution"
  bottom: "pool4/2x2_s2"
  top: "conv7/3x3_s1"
  param {
    lr_mult: 1
    decay_mult: 1
  }
  param {
    lr_mult: 2
    decay_mult: 0
  }
  convolution_param {
    num_output: 512
    pad: 1
    kernel_size: 3
    stride: 1
    weight_filler {
      type: "xavier"
      std: 0.1
    }
    bias_filler {
      type: "constant"
      value: 0.2
    }
  }
}
layer {
  name: "conv7/relu"
  type: "ReLU"
  bottom: "conv7/3x3_s1"
  top: "conv7/3x3_s1"
}
layer {
  name: "conv8/3x3_s1"
  type: "Convolution"
  bottom: "conv7/3x3_s1"
  top: "conv8/3x3_s1"
  param {
    lr_mult: 1
    decay_mult: 1
  }
  param {
    lr_mult: 2
    decay_mult: 0
  }
  convolution_param {
    num_output: 512
    pad: 1
    kernel_size: 3
    stride: 1
    weight_filler {
      type: "xavier"
      std: 0.1
    }
    bias_filler {
      type: "constant"
      value: 0.2
    }
  }
}
layer {
  name: "conv8/relu"
  type: "ReLU"
  bottom: "conv8/3x3_s1"
  top: "conv8/3x3_s1"
}
layer {
  name: "pool5/2x2_s2"
  type: "Pooling"
  bottom: "conv8/3x3_s1"
  top: "pool5/2x2_s2"
  pooling_param {
    pool: MAX
    kernel_size: 2
    stride: 2
  }
}
layer {
  name: "fc6"
  type: "InnerProduct"
  bottom: "pool5/2x2_s2"
  top: "fc6"
  inner_product_param {
    num_output: 4096
  }
}
layer {
  name: "fc7"
  type: "InnerProduct"
  bottom: "fc6"
  top: "fc7"
  inner_product_param {
    num_output: 4096
  }
}
layer {
  name: "fc8"
  type: "InnerProduct"
  bottom: "fc7"
  top: "fc8"
  inner_product_param {
    num_output: 1000
  }
}
I0822 16:51:28.833384  9931 net.cpp:440] Input 0 -> data
I0822 16:51:28.833426  9931 layer_factory.hpp:76] Creating layer conv1/3x3_s1
I0822 16:51:28.833441  9931 net.cpp:110] Creating Layer conv1/3x3_s1
I0822 16:51:28.833444  9931 net.cpp:485] conv1/3x3_s1 <- data
I0822 16:51:28.833451  9931 net.cpp:438] conv1/3x3_s1 -> conv1/3x3_s1
I0822 16:51:28.833881  9931 net.cpp:155] Setting up conv1/3x3_s1
I0822 16:51:28.833891  9931 net.cpp:163] Top shape: 64 64 222 222 (201867264)
I0822 16:51:28.833910  9931 layer_factory.hpp:76] Creating layer conv1/relu
I0822 16:51:28.833917  9931 net.cpp:110] Creating Layer conv1/relu
I0822 16:51:28.833920  9931 net.cpp:485] conv1/relu <- conv1/3x3_s1
I0822 16:51:28.833925  9931 net.cpp:425] conv1/relu -> conv1/3x3_s1 (in-place)
I0822 16:51:28.833933  9931 net.cpp:155] Setting up conv1/relu
I0822 16:51:28.833937  9931 net.cpp:163] Top shape: 64 64 222 222 (201867264)
I0822 16:51:28.833940  9931 layer_factory.hpp:76] Creating layer pool1/2x2_s2
I0822 16:51:28.833945  9931 net.cpp:110] Creating Layer pool1/2x2_s2
I0822 16:51:28.833948  9931 net.cpp:485] pool1/2x2_s2 <- conv1/3x3_s1
I0822 16:51:28.833952  9931 net.cpp:438] pool1/2x2_s2 -> pool1/2x2_s2
I0822 16:51:28.833964  9931 net.cpp:155] Setting up pool1/2x2_s2
I0822 16:51:28.833969  9931 net.cpp:163] Top shape: 64 64 111 111 (50466816)
I0822 16:51:28.833972  9931 layer_factory.hpp:76] Creating layer conv2/3x3_s1
I0822 16:51:28.833977  9931 net.cpp:110] Creating Layer conv2/3x3_s1
I0822 16:51:28.833981  9931 net.cpp:485] conv2/3x3_s1 <- pool1/2x2_s2
I0822 16:51:28.833986  9931 net.cpp:438] conv2/3x3_s1 -> conv2/3x3_s1
I0822 16:51:28.834460  9931 net.cpp:155] Setting up conv2/3x3_s1
I0822 16:51:28.834466  9931 net.cpp:163] Top shape: 64 128 111 111 (100933632)
I0822 16:51:28.834473  9931 layer_factory.hpp:76] Creating layer conv2/relu
I0822 16:51:28.834478  9931 net.cpp:110] Creating Layer conv2/relu
I0822 16:51:28.834481  9931 net.cpp:485] conv2/relu <- conv2/3x3_s1
I0822 16:51:28.834486  9931 net.cpp:425] conv2/relu -> conv2/3x3_s1 (in-place)
I0822 16:51:28.834491  9931 net.cpp:155] Setting up conv2/relu
I0822 16:51:28.834496  9931 net.cpp:163] Top shape: 64 128 111 111 (100933632)
I0822 16:51:28.834497  9931 layer_factory.hpp:76] Creating layer pool2/2x2_s2
I0822 16:51:28.834502  9931 net.cpp:110] Creating Layer pool2/2x2_s2
I0822 16:51:28.834506  9931 net.cpp:485] pool2/2x2_s2 <- conv2/3x3_s1
I0822 16:51:28.834512  9931 net.cpp:438] pool2/2x2_s2 -> pool2/2x2_s2
I0822 16:51:28.834522  9931 net.cpp:155] Setting up pool2/2x2_s2
I0822 16:51:28.834527  9931 net.cpp:163] Top shape: 64 128 56 56 (25690112)
I0822 16:51:28.834530  9931 layer_factory.hpp:76] Creating layer conv3/3x3_s1
I0822 16:51:28.834535  9931 net.cpp:110] Creating Layer conv3/3x3_s1
I0822 16:51:28.834538  9931 net.cpp:485] conv3/3x3_s1 <- pool2/2x2_s2
I0822 16:51:28.834543  9931 net.cpp:438] conv3/3x3_s1 -> conv3/3x3_s1
I0822 16:51:28.836338  9931 net.cpp:155] Setting up conv3/3x3_s1
I0822 16:51:28.836346  9931 net.cpp:163] Top shape: 64 256 56 56 (51380224)
I0822 16:51:28.836354  9931 layer_factory.hpp:76] Creating layer conv3/relu
I0822 16:51:28.836357  9931 net.cpp:110] Creating Layer conv3/relu
I0822 16:51:28.836360  9931 net.cpp:485] conv3/relu <- conv3/3x3_s1
I0822 16:51:28.836364  9931 net.cpp:425] conv3/relu -> conv3/3x3_s1 (in-place)
I0822 16:51:28.836370  9931 net.cpp:155] Setting up conv3/relu
I0822 16:51:28.836374  9931 net.cpp:163] Top shape: 64 256 56 56 (51380224)
I0822 16:51:28.836377  9931 layer_factory.hpp:76] Creating layer conv4/3x3_s1
I0822 16:51:28.836383  9931 net.cpp:110] Creating Layer conv4/3x3_s1
I0822 16:51:28.836386  9931 net.cpp:485] conv4/3x3_s1 <- conv3/3x3_s1
I0822 16:51:28.836390  9931 net.cpp:438] conv4/3x3_s1 -> conv4/3x3_s1
I0822 16:51:28.839910  9931 net.cpp:155] Setting up conv4/3x3_s1
I0822 16:51:28.839918  9931 net.cpp:163] Top shape: 64 256 56 56 (51380224)
I0822 16:51:28.839923  9931 layer_factory.hpp:76] Creating layer conv4/relu
I0822 16:51:28.839928  9931 net.cpp:110] Creating Layer conv4/relu
I0822 16:51:28.839931  9931 net.cpp:485] conv4/relu <- conv4/3x3_s1
I0822 16:51:28.839936  9931 net.cpp:425] conv4/relu -> conv4/3x3_s1 (in-place)
I0822 16:51:28.839941  9931 net.cpp:155] Setting up conv4/relu
I0822 16:51:28.839944  9931 net.cpp:163] Top shape: 64 256 56 56 (51380224)
I0822 16:51:28.839947  9931 layer_factory.hpp:76] Creating layer pool3/2x2_s2
I0822 16:51:28.839952  9931 net.cpp:110] Creating Layer pool3/2x2_s2
I0822 16:51:28.839954  9931 net.cpp:485] pool3/2x2_s2 <- conv4/3x3_s1
I0822 16:51:28.839958  9931 net.cpp:438] pool3/2x2_s2 -> pool3/2x2_s2
I0822 16:51:28.839969  9931 net.cpp:155] Setting up pool3/2x2_s2
I0822 16:51:28.839973  9931 net.cpp:163] Top shape: 64 256 28 28 (12845056)
I0822 16:51:28.839977  9931 layer_factory.hpp:76] Creating layer conv5/3x3_s1
I0822 16:51:28.839982  9931 net.cpp:110] Creating Layer conv5/3x3_s1
I0822 16:51:28.839984  9931 net.cpp:485] conv5/3x3_s1 <- pool3/2x2_s2
I0822 16:51:28.839988  9931 net.cpp:438] conv5/3x3_s1 -> conv5/3x3_s1
I0822 16:51:28.846686  9931 net.cpp:155] Setting up conv5/3x3_s1
I0822 16:51:28.846694  9931 net.cpp:163] Top shape: 64 512 28 28 (25690112)
I0822 16:51:28.846701  9931 layer_factory.hpp:76] Creating layer conv5/relu
I0822 16:51:28.846706  9931 net.cpp:110] Creating Layer conv5/relu
I0822 16:51:28.846709  9931 net.cpp:485] conv5/relu <- conv5/3x3_s1
I0822 16:51:28.846716  9931 net.cpp:425] conv5/relu -> conv5/3x3_s1 (in-place)
I0822 16:51:28.846722  9931 net.cpp:155] Setting up conv5/relu
I0822 16:51:28.846725  9931 net.cpp:163] Top shape: 64 512 28 28 (25690112)
I0822 16:51:28.846729  9931 layer_factory.hpp:76] Creating layer conv6/3x3_s1
I0822 16:51:28.846734  9931 net.cpp:110] Creating Layer conv6/3x3_s1
I0822 16:51:28.846737  9931 net.cpp:485] conv6/3x3_s1 <- conv5/3x3_s1
I0822 16:51:28.846741  9931 net.cpp:438] conv6/3x3_s1 -> conv6/3x3_s1
I0822 16:51:28.859854  9931 net.cpp:155] Setting up conv6/3x3_s1
I0822 16:51:28.859865  9931 net.cpp:163] Top shape: 64 512 28 28 (25690112)
I0822 16:51:28.859870  9931 layer_factory.hpp:76] Creating layer conv6/relu
I0822 16:51:28.859876  9931 net.cpp:110] Creating Layer conv6/relu
I0822 16:51:28.859879  9931 net.cpp:485] conv6/relu <- conv6/3x3_s1
I0822 16:51:28.859884  9931 net.cpp:425] conv6/relu -> conv6/3x3_s1 (in-place)
I0822 16:51:28.859889  9931 net.cpp:155] Setting up conv6/relu
I0822 16:51:28.859894  9931 net.cpp:163] Top shape: 64 512 28 28 (25690112)
I0822 16:51:28.859896  9931 layer_factory.hpp:76] Creating layer pool4/2x2_s2
I0822 16:51:28.859908  9931 net.cpp:110] Creating Layer pool4/2x2_s2
I0822 16:51:28.859911  9931 net.cpp:485] pool4/2x2_s2 <- conv6/3x3_s1
I0822 16:51:28.859916  9931 net.cpp:438] pool4/2x2_s2 -> pool4/2x2_s2
I0822 16:51:28.859926  9931 net.cpp:155] Setting up pool4/2x2_s2
I0822 16:51:28.859930  9931 net.cpp:163] Top shape: 64 512 14 14 (6422528)
I0822 16:51:28.859935  9931 layer_factory.hpp:76] Creating layer conv7/3x3_s1
I0822 16:51:28.859941  9931 net.cpp:110] Creating Layer conv7/3x3_s1
I0822 16:51:28.859944  9931 net.cpp:485] conv7/3x3_s1 <- pool4/2x2_s2
I0822 16:51:28.859949  9931 net.cpp:438] conv7/3x3_s1 -> conv7/3x3_s1
I0822 16:51:28.872781  9931 net.cpp:155] Setting up conv7/3x3_s1
I0822 16:51:28.872794  9931 net.cpp:163] Top shape: 64 512 14 14 (6422528)
I0822 16:51:28.872802  9931 layer_factory.hpp:76] Creating layer conv7/relu
I0822 16:51:28.872807  9931 net.cpp:110] Creating Layer conv7/relu
I0822 16:51:28.872810  9931 net.cpp:485] conv7/relu <- conv7/3x3_s1
I0822 16:51:28.872814  9931 net.cpp:425] conv7/relu -> conv7/3x3_s1 (in-place)
I0822 16:51:28.872822  9931 net.cpp:155] Setting up conv7/relu
I0822 16:51:28.872827  9931 net.cpp:163] Top shape: 64 512 14 14 (6422528)
I0822 16:51:28.872829  9931 layer_factory.hpp:76] Creating layer conv8/3x3_s1
I0822 16:51:28.872835  9931 net.cpp:110] Creating Layer conv8/3x3_s1
I0822 16:51:28.872838  9931 net.cpp:485] conv8/3x3_s1 <- conv7/3x3_s1
I0822 16:51:28.872843  9931 net.cpp:438] conv8/3x3_s1 -> conv8/3x3_s1
I0822 16:51:28.885893  9931 net.cpp:155] Setting up conv8/3x3_s1
I0822 16:51:28.885906  9931 net.cpp:163] Top shape: 64 512 14 14 (6422528)
I0822 16:51:28.885912  9931 layer_factory.hpp:76] Creating layer conv8/relu
I0822 16:51:28.885918  9931 net.cpp:110] Creating Layer conv8/relu
I0822 16:51:28.885921  9931 net.cpp:485] conv8/relu <- conv8/3x3_s1
I0822 16:51:28.885926  9931 net.cpp:425] conv8/relu -> conv8/3x3_s1 (in-place)
I0822 16:51:28.885933  9931 net.cpp:155] Setting up conv8/relu
I0822 16:51:28.885937  9931 net.cpp:163] Top shape: 64 512 14 14 (6422528)
I0822 16:51:28.885941  9931 layer_factory.hpp:76] Creating layer pool5/2x2_s2
I0822 16:51:28.885946  9931 net.cpp:110] Creating Layer pool5/2x2_s2
I0822 16:51:28.885948  9931 net.cpp:485] pool5/2x2_s2 <- conv8/3x3_s1
I0822 16:51:28.885953  9931 net.cpp:438] pool5/2x2_s2 -> pool5/2x2_s2
I0822 16:51:28.885965  9931 net.cpp:155] Setting up pool5/2x2_s2
I0822 16:51:28.885970  9931 net.cpp:163] Top shape: 64 512 7 7 (1605632)
I0822 16:51:28.885973  9931 layer_factory.hpp:76] Creating layer fc6
I0822 16:51:28.885984  9931 net.cpp:110] Creating Layer fc6
I0822 16:51:28.885987  9931 net.cpp:485] fc6 <- pool5/2x2_s2
I0822 16:51:28.885992  9931 net.cpp:438] fc6 -> fc6
I0822 16:51:28.966752  9931 net.cpp:155] Setting up fc6
I0822 16:51:28.966771  9931 net.cpp:163] Top shape: 64 4096 (262144)
I0822 16:51:28.966784  9931 layer_factory.hpp:76] Creating layer fc7
I0822 16:51:28.966792  9931 net.cpp:110] Creating Layer fc7
I0822 16:51:28.966797  9931 net.cpp:485] fc7 <- fc6
I0822 16:51:28.966802  9931 net.cpp:438] fc7 -> fc7
I0822 16:51:28.980372  9931 net.cpp:155] Setting up fc7
I0822 16:51:28.980393  9931 net.cpp:163] Top shape: 64 4096 (262144)
I0822 16:51:28.980402  9931 layer_factory.hpp:76] Creating layer fc8
I0822 16:51:28.980411  9931 net.cpp:110] Creating Layer fc8
I0822 16:51:28.980414  9931 net.cpp:485] fc8 <- fc7
I0822 16:51:28.980420  9931 net.cpp:438] fc8 -> fc8
I0822 16:51:28.983839  9931 net.cpp:155] Setting up fc8
I0822 16:51:28.983860  9931 net.cpp:163] Top shape: 64 1000 (64000)
I0822 16:51:28.983868  9931 net.cpp:244] fc8 does not need backward computation.
I0822 16:51:28.983872  9931 net.cpp:244] fc7 does not need backward computation.
I0822 16:51:28.983875  9931 net.cpp:244] fc6 does not need backward computation.
I0822 16:51:28.983878  9931 net.cpp:244] pool5/2x2_s2 does not need backward computation.
I0822 16:51:28.983882  9931 net.cpp:244] conv8/relu does not need backward computation.
…
