…
3  9939 caffe.cpp:291] Use GPU with device ID 0
I0822 16:52:29.079602  9939 upgrade_proto.cpp:641] Attempting to upgrade input file specified using deprecated V1LayerParameter: ./imagenet_winners/googlenet.prototxt
I0822 16:52:29.079926  9939 upgrade_proto.cpp:649] Successfully upgraded file specified using deprecated V1LayerParameter
I0822 16:52:29.080855  9939 net.cpp:51] Initializing net from parameters: 
name: "googlenet"
input: "data"
input_dim: 128
input_dim: 3
input_dim: 224
input_dim: 224
force_backward: true
state {
  phase: TRAIN
}
layer {
  name: "conv1/7x7_s2"
  type: "Convolution"
  bottom: "data"
  top: "conv1/7x7_s2"
  param {
    lr_mult: 1
    decay_mult: 1
  }
  param {
    lr_mult: 2
    decay_mult: 0
  }
  convolution_param {
    num_output: 64
    pad: 3
    kernel_size: 7
    stride: 2
    weight_filler {
      type: "xavier"
      std: 0.1
    }
    bias_filler {
      type: "constant"
      value: 0.2
    }
  }
}
layer {
  name: "conv1/relu_7x7"
  type: "ReLU"
  bottom: "conv1/7x7_s2"
  top: "conv1/7x7_s2"
}
layer {
  name: "pool1/3x3_s2"
  type: "Pooling"
  bottom: "conv1/7x7_s2"
  top: "pool1/3x3_s2"
  pooling_param {
    pool: MAX
    kernel_size: 3
    stride: 2
  }
}
layer {
  name: "conv2/3x3_reduce"
  type: "Convolution"
  bottom: "pool1/3x3_s2"
  top: "conv2/3x3_reduce"
  param {
    lr_mult: 1
    decay_mult: 1
  }
  param {
    lr_mult: 2
    decay_mult: 0
  }
  convolution_param {
    num_output: 64
    kernel_size: 1
    weight_filler {
      type: "xavier"
      std: 0.1
    }
    bias_filler {
      type: "constant"
      value: 0.2
    }
  }
}
layer {
  name: "conv2/relu_3x3_reduce"
  type: "ReLU"
  bottom: "conv2/3x3_reduce"
  top: "conv2/3x3_reduce"
}
layer {
  name: "conv2/3x3"
  type: "Convolution"
  bottom: "conv2/3x3_reduce"
  top: "conv2/3x3"
  param {
    lr_mult: 1
    decay_mult: 1
  }
  param {
    lr_mult: 2
    decay_mult: 0
  }
  convolution_param {
    num_output: 192
    pad: 1
    kernel_size: 3
    weight_filler {
      type: "xavier"
      std: 0.03
    }
    bias_filler {
      type: "constant"
      value: 0.2
    }
  }
}
layer {
  name: "conv2/relu_3x3"
  type: "ReLU"
  bottom: "conv2/3x3"
  top: "conv2/3x3"
}
layer {
  name: "pool2/3x3_s2"
  type: "Pooling"
  bottom: "conv2/3x3"
  top: "pool2/3x3_s2"
  pooling_param {
    pool: MAX
    kernel_size: 3
    stride: 2
  }
}
layer {
  name: "inception_3a/1x1"
  type: "Convolution"
  bottom: "pool2/3x3_s2"
  top: "inception_3a/1x1"
  param {
    lr_mult: 1
    decay_mult: 1
  }
  param {
    lr_mult: 2
    decay_mult: 0
  }
  convolution_param {
    num_output: 64
    kernel_size: 1
    weight_filler {
      type: "xavier"
      std: 0.03
    }
    bias_filler {
      type: "constant"
      value: 0.2
    }
  }
}
layer {
  name: "inception_3a/relu_1x1"
  type: "ReLU"
  bottom: "inception_3a/1x1"
  top: "inception_3a/1x1"
}
layer {
  name: "inception_3a/3x3_reduce"
  type: "Convolution"
  bottom: "pool2/3x3_s2"
  top: "inception_3a/3x3_reduce"
  param {
    lr_mult: 1
    decay_mult: 1
  }
  param {
    lr_mult: 2
    decay_mult: 0
  }
  convolution_param {
    num_output: 96
    kernel_size: 1
  }
}
layer {
  name: "inception_3a/relu_3x3_reduce"
  type: "ReLU"
  bottom: "inception_3a/3x3_reduce"
  top: "inception_3a/3x3_reduce"
}
layer {
  name: "inception_3a/3x3"
  type: "Convolution"
  bottom: "inception_3a/3x3_reduce"
  top: "inception_3a/3x3"
  param {
    lr_mult: 1
    decay_mult: 1
  }
  param {
    lr_mult: 2
    decay_mult: 0
  }
  convolution_param {
    num_output: 128
    pad: 1
    kernel_size: 3
    weight_filler {
      type: "xavier"
      std: 0.09
    }
    bias_filler {
      type: "constant"
      value: 0.2
    }
  }
}
layer {
  name: "inception_3a/relu_3x3"
  type: "ReLU"
  bottom: "inception_3a/3x3"
  top: "inception_3a/3x3"
}
layer {
  name: "inception_3a/5x5_reduce"
  type: "Convolution"
  bottom: "pool2/3x3_s2"
  top: "inception_3a/5x5_reduce"
  param {
    lr_mult: 1
    decay_mult: 1
  }
  param {
    lr_mult: 2
    decay_mult: 0
  }
  convolution_param {
    num_output: 16
    kernel_size: 1
    weight_filler {
      type: "xavier"
      std: 0.2
    }
    bias_filler {
      type: "constant"
      value: 0.2
    }
  }
}
layer {
  name: "inception_3a/relu_5x5_reduce"
  type: "ReLU"
  bottom: "inception_3a/5x5_reduce"
  top: "inception_3a/5x5_reduce"
}
layer {
  name: "inception_3a/5x5"
  type: "Convolution"
  bottom: "inception_3a/5x5_reduce"
  top: "inception_3a/5x5"
  param {
    lr_mult: 1
    decay_mult: 1
  }
  param {
    lr_mult: 2
    decay_mult: 0
  }
  convolution_param {
    num_output: 32
    pad: 2
    kernel_size: 5
    weight_filler {
      type: "xavier"
      std: 0.03
    }
    bias_filler {
      type: "constant"
      value: 0.2
    }
  }
}
layer {
  name: "inception_3a/relu_5x5"
  type: "ReLU"
  bottom: "inception_3a/5x5"
  top: "inception_3a/5x5"
}
layer {
  name: "inception_3a/pool"
  type: "Pooling"
  bottom: "pool2/3x3_s2"
  top: "inception_3a/pool"
  pooling_param {
    pool: MAX
    kernel_size: 3
    stride: 1
    pad: 1
  }
}
layer {
  name: "inception_3a/pool_proj"
  type: "Convolution"
  bottom: "inception_3a/pool"
  top: "inception_3a/pool_proj"
  param {
    lr_mult: 1
    decay_mult: 1
  }
  param {
    lr_mult: 2
    decay_mult: 0
  }
  convolution_param {
    num_output: 32
    kernel_size: 1
    weight_filler {
      type: "xavier"
      std: 0.1
    }
    bias_filler {
      type: "constant"
      value: 0.2
    }
  }
}
layer {
  name: "inception_3a/relu_pool_proj"
  type: "ReLU"
  bottom: "inception_3a/pool_proj"
  top: "inception_3a/pool_proj"
}
layer {
  name: "inception_3a/output"
  type: "Concat"
  bottom: "inception_3a/1x1"
  bottom: "inception_3a/3x3"
  bottom: "inception_3a/5x5"
  bottom: "inception_3a/pool_proj"
  top: "inception_3a/output"
}
layer {
  name: "inception_3b/1x1"
  type: "Convolution"
  bottom: "inception_3a/output"
  top: "inception_3b/1x1"
  param {
    lr_mult: 1
    decay_mult: 1
  }
  param {
    lr_mult: 2
    decay_mult: 0
  }
  convolution_param {
    num_output: 128
    kernel_size: 1
    weight_filler {
      type: "xavier"
      std: 0.03
    }
    bias_filler {
      type: "constant"
      value: 0.2
    }
  }
}
layer {
  name: "inception_3b/relu_1x1"
  type: "ReLU"
  bottom: "inception_3b/1x1"
  top: "inception_3b/1x1"
}
layer {
  name: "inception_3b/3x3_reduce"
  type: "Convolution"
  bottom: "inception_3a/output"
  top: "inception_3b/3x3_reduce"
  param {
    lr_mult: 1
    decay_mult: 1
  }
  param {
    lr_mult: 2
    decay_mult: 0
  }
  convolution_param {
    num_output: 128
    kernel_size: 1
    weight_filler {
      type: "xavier"
      std: 0.09
    }
    bias_filler {
      type: "constant"
      value: 0.2
    }
  }
}
layer {
  name: "inception_3b/relu_3x3_reduce"
  type: "ReLU"
  bottom: "inception_3b/3x3_reduce"
  top: "inception_3b/3x3_reduce"
}
layer {
  name: "inception_3b/3x3"
  type: "Convolution"
  bottom: "inception_3b/3x3_reduce"
  top: "inception_3b/3x3"
  param {
    lr_mult: 1
    decay_mult: 1
  }
  param {
    lr_mult: 2
    decay_mult: 0
  }
  convolution_param {
    num_output: 192
    pad: 1
    kernel_size: 3
    weight_filler {
      type: "xavier"
      std: 0.03
    }
    bias_filler {
      type: "constant"
      value: 0.2
    }
  }
}
layer {
  name: "inception_3b/relu_3x3"
  type: "ReLU"
  bottom: "inception_3b/3x3"
  top: "inception_3b/3x3"
}
layer {
  name: "inception_3b/5x5_reduce"
  type: "Convolution"
  bottom: "inception_3a/output"
  top: "inception_3b/5x5_reduce"
  param {
    lr_mult: 1
    decay_mult: 1
  }
  param {
    lr_mult: 2
    decay_mult: 0
  }
  convolution_param {
    num_output: 32
    kernel_size: 1
    weight_filler {
      type: "xavier"
      std: 0.2
    }
    bias_filler {
      type: "constant"
      value: 0.2
    }
  }
}
layer {
  name: "inception_3b/relu_5x5_reduce"
  type: "ReLU"
  bottom: "inception_3b/5x5_reduce"
  top: "inception_3b/5x5_reduce"
}
layer {
  name: "inception_3b/5x5"
  type: "Convolution"
  bottom: "inception_3b/5x5_reduce"
  top: "inception_3b/5x5"
  param {
    lr_mult: 1
    decay_mult: 1
  }
  param {
    lr_mult: 2
    decay_mult: 0
  }
  convolution_param {
    num_output: 96
    pad: 2
    kernel_size: 5
    weight_filler {
      type: "xavier"
      std: 0.03
    }
    bias_filler {
      type: "constant"
      value: 0.2
    }
  }
}
layer {
  name: "inception_3b/relu_5x5"
  type: "ReLU"
  bottom: "inception_3b/5x5"
  top: "inception_3b/5x5"
}
layer {
  name: "inception_3b/pool"
  type: "Pooling"
  bottom: "inception_3a/output"
  top: "inception_3b/pool"
  pooling_param {
    pool: MAX
    kernel_size: 3
    stride: 1
    pad: 1
  }
}
layer {
  name: "inception_3b/pool_proj"
  type: "Convolution"
  bottom: "inception_3b/pool"
  top: "inception_3b/pool_proj"
  param {
    lr_mult: 1
    decay_mult: 1
  }
  param {
    lr_mult: 2
    decay_mult: 0
  }
  convolution_param {
    num_output: 64
    kernel_size: 1
    weight_filler {
      type: "xavier"
      std: 0.1
    }
    bias_filler {
      type: "constant"
      value: 0.2
    }
  }
}
layer {
  name: "inception_3b/relu_pool_proj"
  type: "ReLU"
  bottom: "inception_3b/pool_proj"
  top: "inception_3b/pool_proj"
}
layer {
  name: "inception_3b/output"
  type: "Concat"
  bottom: "inception_3b/1x1"
  bottom: "inception_3b/3x3"
  bottom: "inception_3b/5x5"
  bottom: "inception_3b/pool_proj"
  top: "inception_3b/output"
}
layer {
  name: "pool3/3x3_s2"
  type: "Pooling"
  bottom: "inception_3b/output"
  top: "pool3/3x3_s2"
  pooling_param {
    pool: MAX
    kernel_size: 3
    stride: 2
  }
}
layer {
  name: "inception_4a/1x1"
  type: "Convolution"
  bottom: "pool3/3x3_s2"
  top: "inception_4a/1x1"
  param {
    lr_mult: 1
    decay_mult: 1
  }
  param {
    lr_mult: 2
    decay_mult: 0
  }
  convolution_param {
    num_output: 192
    kernel_size: 1
    weight_filler {
      type: "xavier"
      std: 0.03
    }
    bias_filler {
      type: "constant"
      value: 0.2
    }
  }
}
layer {
  name: "inception_4a/relu_1x1"
  type: "ReLU"
  bottom: "inception_4a/1x1"
  top: "inception_4a/1x1"
}
layer {
  name: "inception_4a/3x3_reduce"
  type: "Convolution"
  bottom: "pool3/3x3_s2"
  top: "inception_4a/3x3_reduce"
  param {
    lr_mult: 1
    decay_mult: 1
  }
  param {
    lr_mult: 2
    decay_mult: 0
  }
  convolution_param {
    num_output: 96
    kernel_size: 1
    weight_filler {
      type: "xavier"
      std: 0.09
    }
    bias_filler {
      type: "constant"
      value: 0.2
    }
  }
}
layer {
  name: "inception_4a/relu_3x3_reduce"
  type: "ReLU"
  bottom: "inception_4a/3x3_reduce"
  top: "inception_4a/3x3_reduce"
}
layer {
  name: "inception_4a/3x3"
  type: "Convolution"
  bottom: "inception_4a/3x3_reduce"
  top: "inception_4a/3x3"
  param {
    lr_mult: 1
    decay_mult: 1
  }
  param {
    lr_mult: 2
    decay_mult: 0
  }
  convolution_param {
    num_output: 208
    pad: 1
    kernel_size: 3
    weight_filler {
      type: "xavier"
      std: 0.03
    }
    bias_filler {
      type: "constant"
      value: 0.2
    }
  }
}
layer {
  name: "inception_4a/relu_3x3"
  type: "ReLU"
  bottom: "inception_4a/3x3"
  top: "inception_4a/3x3"
}
layer {
  name: "inception_4a/5x5_reduce"
  type: "Convolution"
  bottom: "pool3/3x3_s2"
  top: "inception_4a/5x5_reduce"
  param {
    lr_mult: 1
    decay_mult: 1
  }
  param {
    lr_mult: 2
    decay_mult: 0
  }
  convolution_param {
    num_output: 16
    kernel_size: 1
    weight_filler {
      type: "xavier"
      std: 0.2
    }
    bias_filler {
      type: "constant"
      value: 0.2
    }
  }
}
layer {
  name: "inception_4a/relu_5x5_reduce"
  type: "ReLU"
  bottom: "inception_4a/5x5_reduce"
  top: "inception_4a/5x5_reduce"
}
layer {
  name: "inception_4a/5x5"
  type: "Convolution"
  bottom: "inception_4a/5x5_reduce"
  top: "inception_4a/5x5"
  param {
    lr_mult: 1
    decay_mult: 1
  }
  param {
    lr_mult: 2
    decay_mult: 0
  }
  convolution_param {
    num_output: 48
    pad: 2
    kernel_size: 5
    weight_filler {
      type: "xavier"
      std: 0.03
    }
    bias_filler {
      type: "constant"
      value: 0.2
    }
  }
}
layer {
  name: "inception_4a/relu_5x5"
  type: "ReLU"
  bottom: "inception_4a/5x5"
  top: "inception_4a/5x5"
}
layer {
  name: "inception_4a/pool"
  type: "Pooling"
  bottom: "pool3/3x3_s2"
  top: "inception_4a/pool"
  pooling_param {
    pool: MAX
    kernel_size: 3
    stride: 1
    pad: 1
  }
}
layer {
  name: "inception_4a/pool_proj"
  type: "Convolution"
  bottom: "inception_4a/pool"
  top: "inception_4a/pool_proj"
  param {
    lr_mult: 1
    decay_mult: 1
  }
  param {
    lr_mult: 2
    decay_mult: 0
  }
  convolution_param {
    num_output: 64
    kernel_size: 1
    weight_filler {
      type: "xavier"
      std: 0.1
    }
    bias_filler {
      type: "constant"
      value: 0.2
    }
  }
}
layer {
  name: "inception_4a/relu_pool_proj"
  type: "ReLU"
  bottom: "inception_4a/pool_proj"
  top: "inception_4a/pool_proj"
}
layer {
  name: "inception_4a/output"
  type: "Concat"
  bottom: "inception_4a/1x1"
  bottom: "inception_4a/3x3"
  bottom: "inception_4a/5x5"
  bottom: "inception_4a/pool_proj"
  top: "inception_4a/output"
}
layer {
  name: "inception_4b/1x1"
  type: "Convolution"
  bottom: "inception_4a/output"
  top: "inception_4b/1x1"
  param {
    lr_mult: 1
    decay_mult: 1
  }
  param {
    lr_mult: 2
    decay_mult: 0
  }
  convolution_param {
    num_output: 160
    kernel_size: 1
    weight_filler {
      type: "xavier"
      std: 0.03
    }
    bias_filler {
      type: "constant"
      value: 0.2
    }
  }
}
layer {
  name: "inception_4b/relu_1x1"
  type: "ReLU"
  bottom: "inception_4b/1x1"
  top: "inception_4b/1x1"
}
layer {
  name: "inception_4b/3x3_reduce"
  type: "Convolution"
  bottom: "inception_4a/output"
  top: "inception_4b/3x3_reduce"
  param {
    lr_mult: 1
    decay_mult: 1
  }
  param {
    lr_mult: 2
    decay_mult: 0
  }
  convolution_param {
    num_output: 112
    kernel_size: 1
    weight_filler {
      type: "xavier"
      std: 0.09
    }
    bias_filler {
      type: "constant"
      value: 0.2
    }
  }
}
layer {
  name: "inception_4b/relu_3x3_reduce"
  type: "ReLU"
  bottom: "inception_4b/3x3_reduce"
  top: "inception_4b/3x3_reduce"
}
layer {
  name: "inception_4b/3x3"
  type: "Convolution"
  bottom: "inception_4b/3x3_reduce"
  top: "inception_4b/3x3"
  param {
    lr_mult: 1
    decay_mult: 1
  }
  param {
    lr_mult: 2
    decay_mult: 0
  }
  convolution_param {
    num_output: 224
    pad: 1
    kernel_size: 3
    weight_filler {
      type: "xavier"
      std: 0.03
    }
    bias_filler {
      type: "constant"
      value: 0.2
    }
  }
}
layer {
  name: "inception_4b/relu_3x3"
  type: "ReLU"
  bottom: "inception_4b/3x3"
  top: "inception_4b/3x3"
}
layer {
  name: "inception_4b/5x5_reduce"
  type: "Convolution"
  bottom: "inception_4a/output"
  top: "inception_4b/5x5_reduce"
  param {
    lr_mult: 1
    decay_mult: 1
  }
  param {
    lr_mult: 2
    decay_mult: 0
  }
  convolution_param {
    num_output: 24
    kernel_size: 1
    weight_filler {
      type: "xavier"
      std: 0.2
    }
    bias_filler {
      type: "constant"
      value: 0.2
    }
  }
}
layer {
  name: "inception_4b/relu_5x5_reduce"
  type: "ReLU"
  bottom: "inception_4b/5x5_reduce"
  top: "inception_4b/5x5_reduce"
}
layer {
  name: "inception_4b/5x5"
  type: "Convolution"
  bottom: "inception_4b/5x5_reduce"
  top: "inception_4b/5x5"
  param {
    lr_mult: 1
    decay_mult: 1
  }
  param {
    lr_mult: 2
    decay_mult: 0
  }
  convolution_param {
    num_output: 64
    pad: 2
    kernel_size: 5
    weight_filler {
      type: "xavier"
      std: 0.03
    }
    bias_filler {
      type: "constant"
      value: 0.2
    }
  }
}
layer {
  name: "inception_4b/relu_5x5"
  type: "ReLU"
  bottom: "inception_4b/5x5"
  top: "inception_4b/5x5"
}
layer {
  name: "inception_4b/pool"
  type: "Pooling"
  bottom: "inception_4a/output"
  top: "inception_4b/pool"
  pooling_param {
    pool: MAX
    kernel_size: 3
    stride: 1
    pad: 1
  }
}
layer {
  name: "inception_4b/pool_proj"
  type: "Convolution"
  bottom: "inception_4b/pool"
  top: "inception_4b/pool_proj"
  param {
    lr_mult: 1
    decay_mult: 1
  }
  param {
    lr_mult: 2
    decay_mult: 0
  }
  convolution_param {
    num_output: 64
    kernel_size: 1
    weight_filler {
      type: "xavier"
      std: 0.1
    }
    bias_filler {
      type: "constant"
      value: 0.2
    }
  }
}
layer {
  name: "inception_4b/relu_pool_proj"
  type: "ReLU"
  bottom: "inception_4b/pool_proj"
  top: "inception_4b/pool_proj"
}
layer {
  name: "inception_4b/output"
  type: "Concat"
  bottom: "inception_4b/1x1"
  bottom: "inception_4b/3x3"
  bottom: "inception_4b/5x5"
  bottom: "inception_4b/pool_proj"
  top: "inception_4b/output"
}
layer {
  name: "inception_4c/1x1"
  type: "Convolution"
  bottom: "inception_4b/output"
  top: "inception_4c/1x1"
  param {
    lr_mult: 1
    decay_mult: 1
  }
  param {
    lr_mult: 2
    decay_mult: 0
  }
  convolution_param {
    num_output: 128
    kernel_size: 1
    weight_filler {
      type: "xavier"
      std: 0.03
    }
    bias_filler {
      type: "constant"
      value: 0.2
    }
  }
}
layer {
  name: "inception_4c/relu_1x1"
  type: "ReLU"
  bottom: "inception_4c/1x1"
  top: "inception_4c/1x1"
}
layer {
  name: "inception_4c/3x3_reduce"
  type: "Convolution"
  bottom: "inception_4b/output"
  top: "inception_4c/3x3_reduce"
  param {
    lr_mult: 1
    decay_mult: 1
  }
  param {
    lr_mult: 2
    decay_mult: 0
  }
  convolution_param {
    num_output: 128
    kernel_size: 1
    weight_filler {
      type: "xavier"
      std: 0.09
    }
    bias_filler {
      type: "constant"
      value: 0.2
    }
  }
}
layer {
  name: "inception_4c/relu_3x3_reduce"
  type: "ReLU"
  bottom: "inception_4c/3x3_reduce"
  top: "inception_4c/3x3_reduce"
}
layer {
  name: "inception_4c/3x3"
  type: "Convolution"
  bottom: "inception_4c/3x3_reduce"
  top: "inception_4c/3x3"
  param {
    lr_mult: 1
    decay_mult: 1
  }
  param {
    lr_mult: 2
    decay_mult: 0
  }
  convolution_param {
    num_output: 256
    pad: 1
    kernel_size: 3
    weight_filler {
      type: "xavier"
      std: 0.03
    }
    bias_filler {
      type: "constant"
      value: 0.2
    }
  }
}
layer {
  name: "inception_4c/relu_3x3"
  type: "ReLU"
  bottom: "inception_4c/3x3"
  top: "inception_4c/3x3"
}
layer {
  name: "inception_4c/5x5_reduce"
  type: "Convolution"
  bottom: "inception_4b/output"
  top: "inception_4c/5x5_reduce"
  param {
    lr_mult: 1
    decay_mult: 1
  }
  param {
    lr_mult: 2
    decay_mult: 0
  }
  convolution_param {
    num_output: 24
    kernel_size: 1
    weight_filler {
      type: "xavier"
      std: 0.2
    }
    bias_filler {
      type: "constant"
      value: 0.2
    }
  }
}
layer {
  name: "inception_4c/relu_5x5_reduce"
  type: "ReLU"
  bottom: "inception_4c/5x5_reduce"
  top: "inception_4c/5x5_reduce"
}
layer {
  name: "inception_4c/5x5"
  type: "Convolution"
  bottom: "inception_4c/5x5_reduce"
  top: "inception_4c/5x5"
  param {
    lr_mult: 1
    decay_mult: 1
  }
  param {
    lr_mult: 2
    decay_mult: 0
  }
  convolution_param {
    num_output: 64
    pad: 2
    kernel_size: 5
    weight_filler {
      type: "xavier"
      std: 0.03
    }
    bias_filler {
      type: "constant"
      value: 0.2
    }
  }
}
layer {
  name: "inception_4c/relu_5x5"
  type: "ReLU"
  bottom: "inception_4c/5x5"
  top: "inception_4c/5x5"
}
layer {
  name: "inception_4c/pool"
  type: "Pooling"
  bottom: "inception_4b/output"
  top: "inception_4c/pool"
  pooling_param {
    pool: MAX
    kernel_size: 3
    stride: 1
    pad: 1
  }
}
layer {
  name: "inception_4c/pool_proj"
  type: "Convolution"
  bottom: "inception_4c/pool"
  top: "inception_4c/pool_proj"
  param {
    lr_mult: 1
    decay_mult: 1
  }
  param {
    lr_mult: 2
    decay_mult: 0
  }
  convolution_param {
    num_output: 64
    kernel_size: 1
    weight_filler {
      type: "xavier"
      std: 0.1
    }
    bias_filler {
      type: "constant"
      value: 0.2
    }
  }
}
layer {
  name: "inception_4c/relu_pool_proj"
  type: "ReLU"
  bottom: "inception_4c/pool_proj"
  top: "inception_4c/pool_proj"
}
layer {
  name: "inception_4c/output"
  type: "Concat"
  bottom: "inception_4c/1x1"
  bottom: "inception_4c/3x3"
  bottom: "inception_4c/5x5"
  bottom: "inception_4c/pool_proj"
  top: "inception_4c/output"
}
layer {
  name: "inception_4d/1x1"
  type: "Convolution"
  bottom: "inception_4c/output"
  top: "inception_4d/1x1"
  param {
    lr_mult: 1
    decay_mult: 1
  }
  param {
    lr_mult: 2
    decay_mult: 0
  }
  convolution_param {
    num_output: 112
    kernel_size: 1
    weight_filler {
      type: "xavier"
      std: 0.03
    }
    bias_filler {
      type: "constant"
      value: 0.2
    }
  }
}
layer {
  name: "inception_4d/relu_1x1"
  type: "ReLU"
  bottom: "inception_4d/1x1"
  top: "inception_4d/1x1"
}
layer {
  name: "inception_4d/3x3_reduce"
  type: "Convolution"
  bottom: "inception_4c/output"
  top: "inception_4d/3x3_reduce"
  param {
    lr_mult: 1
    decay_mult: 1
  }
  param {
    lr_mult: 2
    decay_mult: 0
  }
  convolution_param {
    num_output: 144
    kernel_size: 1
    weight_filler {
      type: "xavier"
      std: 0.09
    }
    bias_filler {
      type: "constant"
      value: 0.2
    }
  }
}
layer {
  name: "inception_4d/relu_3x3_reduce"
  type: "ReLU"
  bottom: "inception_4d/3x3_reduce"
  top: "inception_4d/3x3_reduce"
}
layer {
  name: "inception_4d/3x3"
  type: "Convolution"
  bottom: "inception_4d/3x3_reduce"
  top: "inception_4d/3x3"
  param {
    lr_mult: 1
    decay_mult: 1
  }
  param {
    lr_mult: 2
    decay_mult: 0
  }
  convolution_param {
    num_output: 288
    pad: 1
    kernel_size: 3
    weight_filler {
      type: "xavier"
      std: 0.03
    }
    bias_filler {
      type: "constant"
      value: 0.2
    }
  }
}
layer {
  name: "inception_4d/relu_3x3"
  type: "ReLU"
  bottom: "inception_4d/3x3"
  top: "inception_4d/3x3"
}
layer {
  name: "inception_4d/5x5_reduce"
  type: "Convolution"
  bottom: "inception_4c/output"
  top: "inception_4d/5x5_reduce"
  param {
    lr_mult: 1
    decay_mult: 1
  }
  param {
    lr_mult: 2
    decay_mult: 0
  }
  convolution_param {
    num_output: 32
    kernel_size: 1
    weight_filler {
      type: "xavier"
      std: 0.2
    }
    bias_filler {
      type: "constant"
      value: 0.2
    }
  }
}
layer {
  name: "inception_4d/relu_5x5_reduce"
  type: "ReLU"
  bottom: "inception_4d/5x5_reduce"
  top: "inception_4d/5x5_reduce"
}
layer {
  name: "inception_4d/5x5"
  type: "Convolution"
  bottom: "inception_4d/5x5_reduce"
  top: "inception_4d/5x5"
  param {
    lr_mult: 1
    decay_mult: 1
  }
  param {
    lr_mult: 2
    decay_mult: 0
  }
  convolution_param {
    num_output: 64
    pad: 2
    kernel_size: 5
    weight_filler {
      type: "xavier"
      std: 0.03
    }
    bias_filler {
      type: "constant"
      value: 0.2
    }
  }
}
layer {
  name: "inception_4d/relu_5x5"
  type: "ReLU"
  bottom: "inception_4d/5x5"
  top: "inception_4d/5x5"
}
layer {
  name: "inception_4d/pool"
  type: "Pooling"
  bottom: "inception_4c/output"
  top: "inception_4d/pool"
  pooling_param {
    pool: MAX
    kernel_size: 3
    stride: 1
    pad: 1
  }
}
layer {
  name: "inception_4d/pool_proj"
  type: "Convolution"
  bottom: "inception_4d/pool"
  top: "inception_4d/pool_proj"
  param {
    lr_mult: 1
    decay_mult: 1
  }
  param {
    lr_mult: 2
    decay_mult: 0
  }
  convolution_param {
    num_output: 64
    kernel_size: 1
    weight_filler {
      type: "xavier"
      std: 0.1
    }
    bias_filler {
      type: "constant"
      value: 0.2
    }
  }
}
layer {
  name: "inception_4d/relu_pool_proj"
  type: "ReLU"
  bottom: "inception_4d/pool_proj"
  top: "inception_4d/pool_proj"
}
layer {
  name: "inception_4d/output"
  type: "Concat"
  bottom: "inception_4d/1x1"
  bottom: "inception_4d/3x3"
  bottom: "inception_4d/5x5"
  bottom: "inception_4d/pool_proj"
  top: "inception_4d/output"
}
layer {
  name: "inception_4e/1x1"
  type: "Convolution"
  bottom: "inception_4d/output"
  top: "inception_4e/1x1"
  param {
    lr_mult: 1
    decay_mult: 1
  }
  param {
    lr_mult: 2
    decay_mult: 0
  }
  convolution_param {
    num_output: 256
    kernel_size: 1
    weight_filler {
      type: "xavier"
      std: 0.03
    }
    bias_filler {
      type: "constant"
      value: 0.2
    }
  }
}
layer {
  name: "inception_4e/relu_1x1"
  type: "ReLU"
  bottom: "inception_4e/1x1"
  top: "inception_4e/1x1"
}
layer {
  name: "inception_4e/3x3_reduce"
  type: "Convolution"
  bottom: "inception_4d/output"
  top: "inception_4e/3x3_reduce"
  param {
    lr_mult: 1
    decay_mult: 1
  }
  param {
    lr_mult: 2
    decay_mult: 0
  }
  convolution_param {
    num_output: 160
    kernel_size: 1
    weight_filler {
      type: "xavier"
      std: 0.09
    }
    bias_filler {
      type: "constant"
      value: 0.2
    }
  }
}
layer {
  name: "inception_4e/relu_3x3_reduce"
  type: "ReLU"
  bottom: "inception_4e/3x3_reduce"
  top: "inception_4e/3x3_reduce"
}
layer {
  name: "inception_4e/3x3"
  type: "Convolution"
  bottom: "inception_4e/3x3_reduce"
  top: "inception_4e/3x3"
  param {
    lr_mult: 1
    decay_mult: 1
  }
  param {
    lr_mult: 2
    decay_mult: 0
  }
  convolution_param {
    num_output: 320
    pad: 1
    kernel_size: 3
    weight_filler {
      type: "xavier"
      std: 0.03
    }
    bias_filler {
      type: "constant"
      value: 0.2
    }
  }
}
layer {
  name: "inception_4e/relu_3x3"
  type: "ReLU"
  bottom: "inception_4e/3x3"
  top: "inception_4e/3x3"
}
layer {
  name: "inception_4e/5x5_reduce"
  type: "Convolution"
  bottom: "inception_4d/output"
  top: "inception_4e/5x5_reduce"
  param {
    lr_mult: 1
    decay_mult: 1
  }
  param {
    lr_mult: 2
    decay_mult: 0
  }
  convolution_param {
    num_output: 32
    kernel_size: 1
    weight_filler {
      type: "xavier"
      std: 0.2
    }
    bias_filler {
      type: "constant"
      value: 0.2
    }
  }
}
layer {
  name: "inception_4e/relu_5x5_reduce"
  type: "ReLU"
  bottom: "inception_4e/5x5_reduce"
  top: "inception_4e/5x5_reduce"
}
layer {
  name: "inception_4e/5x5"
  type: "Convolution"
  bottom: "inception_4e/5x5_reduce"
  top: "inception_4e/5x5"
  param {
    lr_mult: 1
    decay_mult: 1
  }
  param {
    lr_mult: 2
    decay_mult: 0
  }
  convolution_param {
    num_output: 128
    pad: 2
    kernel_size: 5
    weight_filler {
      type: "xavier"
      std: 0.03
    }
    bias_filler {
      type: "constant"
      value: 0.2
    }
  }
}
layer {
  name: "inception_4e/relu_5x5"
  type: "ReLU"
  bottom: "inception_4e/5x5"
  top: "inception_4e/5x5"
}
layer {
  name: "inception_4e/pool"
  type: "Pooling"
  bottom: "inception_4d/output"
  top: "inception_4e/pool"
  pooling_param {
    pool: MAX
    kernel_size: 3
    stride: 1
    pad: 1
  }
}
layer {
  name: "inception_4e/pool_proj"
  type: "Convolution"
  bottom: "inception_4e/pool"
  top: "inception_4e/pool_proj"
  param {
    lr_mult: 1
    decay_mult: 1
  }
  param {
    lr_mult: 2
    decay_mult: 0
  }
  convolution_param {
    num_output: 128
    kernel_size: 1
    weight_filler {
      type: "xavier"
      std: 0.1
    }
    bias_filler {
      type: "constant"
      value: 0.2
    }
  }
}
layer {
  name: "inception_4e/relu_pool_proj"
  type: "ReLU"
  bottom: "inception_4e/pool_proj"
  top: "inception_4e/pool_proj"
}
layer {
  name: "inception_4e/output"
  type: "Concat"
  bottom: "inception_4e/1x1"
  bottom: "inception_4e/3x3"
  bottom: "inception_4e/5x5"
  bottom: "inception_4e/pool_proj"
  top: "inception_4e/output"
}
layer {
  name: "pool4/3x3_s2"
  type: "Pooling"
  bottom: "inception_4e/output"
  top: "pool4/3x3_s2"
  pooling_param {
    pool: MAX
    kernel_size: 3
    stride: 2
  }
}
layer {
  name: "inception_5a/1x1"
  type: "Convolution"
  bottom: "pool4/3x3_s2"
  top: "inception_5a/1x1"
  param {
    lr_mult: 1
    decay_mult: 1
  }
  param {
    lr_mult: 2
    decay_mult: 0
  }
  convolution_param {
    num_output: 256
    kernel_size: 1
    weight_filler {
      type: "xavier"
      std: 0.03
    }
    bias_filler {
      type: "constant"
      value: 0.2
    }
  }
}
layer {
  name: "inception_5a/relu_1x1"
  type: "ReLU"
  bottom: "inception_5a/1x1"
  top: "inception_5a/1x1"
}
layer {
  name: "inception_5a/3x3_reduce"
  type: "Convolution"
  bottom: "pool4/3x3_s2"
  top: "inception_5a/3x3_reduce"
  param {
    lr_mult: 1
    decay_mult: 1
  }
  param {
    lr_mult: 2
    decay_mult: 0
  }
  convolution_param {
    num_output: 160
    kernel_size: 1
    weight_filler {
      type: "xavier"
      std: 0.09
    }
    bias_filler {
      type: "constant"
      value: 0.2
    }
  }
}
layer {
  name: "inception_5a/relu_3x3_reduce"
  type: "ReLU"
  bottom: "inception_5a/3x3_reduce"
  top: "inception_5a/3x3_reduce"
}
layer {
  name: "inception_5a/3x3"
  type: "Convolution"
  bottom: "inception_5a/3x3_reduce"
  top: "inception_5a/3x3"
  param {
    lr_mult: 1
    decay_mult: 1
  }
  param {
    lr_mult: 2
    decay_mult: 0
  }
  convolution_param {
    num_output: 320
    pad: 1
    kernel_size: 3
    weight_filler {
      type: "xavier"
      std: 0.03
    }
    bias_filler {
      type: "constant"
      value: 0.2
    }
  }
}
layer {
  name: "inception_5a/relu_3x3"
  type: "ReLU"
  bottom: "inception_5a/3x3"
  top: "inception_5a/3x3"
}
layer {
  name: "inception_5a/5x5_reduce"
  type: "Convolution"
  bottom: "pool4/3x3_s2"
  top: "inception_5a/5x5_reduce"
  param {
    lr_mult: 1
    decay_mult: 1
  }
  param {
    lr_mult: 2
    decay_mult: 0
  }
  convolution_param {
    num_output: 32
    kernel_size: 1
    weight_filler {
      type: "xavier"
      std: 0.2
    }
    bias_filler {
      type: "constant"
      value: 0.2
    }
  }
}
layer {
  name: "inception_5a/relu_5x5_reduce"
  type: "ReLU"
  bottom: "inception_5a/5x5_reduce"
  top: "inception_5a/5x5_reduce"
}
layer {
  name: "inception_5a/5x5"
  type: "Convolution"
  bottom: "inception_5a/5x5_reduce"
  top: "inception_5a/5x5"
  param {
    lr_mult: 1
    decay_mult: 1
  }
  param {
    lr_mult: 2
    decay_mult: 0
  }
  convolution_param {
    num_output: 128
    pad: 2
    kernel_size: 5
    weight_filler {
      type: "xavier"
      std: 0.03
    }
    bias_filler 
I0822 16:52:29.081349  9939 net.cpp:440] Input 0 -> data
I0822 16:52:29.081393  9939 layer_factory.hpp:76] Creating layer conv1/7x7_s2
I0822 16:52:29.081408  9939 net.cpp:110] Creating Layer conv1/7x7_s2
I0822 16:52:29.081413  9939 net.cpp:485] conv1/7x7_s2 <- data
I0822 16:52:29.081419  9939 net.cpp:438] conv1/7x7_s2 -> conv1/7x7_s2
I0822 16:52:29.081884  9939 net.cpp:155] Setting up conv1/7x7_s2
I0822 16:52:29.081894  9939 net.cpp:163] Top shape: 128 64 112 112 (102760448)
I0822 16:52:29.081912  9939 layer_factory.hpp:76] Creating layer conv1/relu_7x7
I0822 16:52:29.081919  9939 net.cpp:110] Creating Layer conv1/relu_7x7
I0822 16:52:29.081923  9939 net.cpp:485] conv1/relu_7x7 <- conv1/7x7_s2
I0822 16:52:29.081926  9939 net.cpp:425] conv1/relu_7x7 -> conv1/7x7_s2 (in-place)
I0822 16:52:29.081934  9939 net.cpp:155] Setting up conv1/relu_7x7
I0822 16:52:29.081938  9939 net.cpp:163] Top shape: 128 64 112 112 (102760448)
I0822 16:52:29.081941  9939 layer_factory.hpp:76] Creating layer pool1/3x3_s2
I0822 16:52:29.081948  9939 net.cpp:110] Creating Layer pool1/3x3_s2
I0822 16:52:29.081950  9939 net.cpp:485] pool1/3x3_s2 <- conv1/7x7_s2
I0822 16:52:29.081954  9939 net.cpp:438] pool1/3x3_s2 -> pool1/3x3_s2
I0822 16:52:29.081969  9939 net.cpp:155] Setting up pool1/3x3_s2
I0822 16:52:29.081974  9939 net.cpp:163] Top shape: 128 64 56 56 (25690112)
I0822 16:52:29.081977  9939 layer_factory.hpp:76] Creating layer conv2/3x3_reduce
I0822 16:52:29.081982  9939 net.cpp:110] Creating Layer conv2/3x3_reduce
I0822 16:52:29.081985  9939 net.cpp:485] conv2/3x3_reduce <- pool1/3x3_s2
I0822 16:52:29.081990  9939 net.cpp:438] conv2/3x3_reduce -> conv2/3x3_reduce
I0822 16:52:29.082044  9939 net.cpp:155] Setting up conv2/3x3_reduce
I0822 16:52:29.082048  9939 net.cpp:163] Top shape: 128 64 56 56 (25690112)
I0822 16:52:29.082056  9939 layer_factory.hpp:76] Creating layer conv2/relu_3x3_reduce
I0822 16:52:29.082061  9939 net.cpp:110] Creating Layer conv2/relu_3x3_reduce
I0822 16:52:29.082063  9939 net.cpp:485] conv2/relu_3x3_reduce <- conv2/3x3_reduce
I0822 16:52:29.082067  9939 net.cpp:425] conv2/relu_3x3_reduce -> conv2/3x3_reduce (in-place)
I0822 16:52:29.082072  9939 net.cpp:155] Setting up conv2/relu_3x3_reduce
I0822 16:52:29.082077  9939 net.cpp:163] Top shape: 128 64 56 56 (25690112)
I0822 16:52:29.082079  9939 layer_factory.hpp:76] Creating layer conv2/3x3
I0822 16:52:29.082084  9939 net.cpp:110] Creating Layer conv2/3x3
I0822 16:52:29.082090  9939 net.cpp:485] conv2/3x3 <- conv2/3x3_reduce
I0822 16:52:29.082095  9939 net.cpp:438] conv2/3x3 -> conv2/3x3
I0822 16:52:29.082804  9939 net.cpp:155] Setting up conv2/3x3
I0822 16:52:29.082813  9939 net.cpp:163] Top shape: 128 192 56 56 (77070336)
I0822 16:52:29.082819  9939 layer_factory.hpp:76] Creating layer conv2/relu_3x3
I0822 16:52:29.082823  9939 net.cpp:110] Creating Layer conv2/relu_3x3
I0822 16:52:29.082826  9939 net.cpp:485] conv2/relu_3x3 <- conv2/3x3
I0822 16:52:29.082830  9939 net.cpp:425] conv2/relu_3x3 -> conv2/3x3 (in-place)
I0822 16:52:29.082836  9939 net.cpp:155] Setting up conv2/relu_3x3
I0822 16:52:29.082840  9939 net.cpp:163] Top shape: 128 192 56 56 (77070336)
I0822 16:52:29.082842  9939 layer_factory.hpp:76] Creating layer pool2/3x3_s2
I0822 16:52:29.082847  9939 net.cpp:110] Creating Layer pool2/3x3_s2
I0822 16:52:29.082850  9939 net.cpp:485] pool2/3x3_s2 <- conv2/3x3
I0822 16:52:29.082854  9939 net.cpp:438] pool2/3x3_s2 -> pool2/3x3_s2
I0822 16:52:29.082864  9939 net.cpp:155] Setting up pool2/3x3_s2
I0822 16:52:29.082869  9939 net.cpp:163] Top shape: 128 192 28 28 (19267584)
I0822 16:52:29.082871  9939 layer_factory.hpp:76] Creating layer pool2/3x3_s2_pool2/3x3_s2_0_split
I0822 16:52:29.082876  9939 net.cpp:110] Creating Layer pool2/3x3_s2_pool2/3x3_s2_0_split
I0822 16:52:29.082880  9939 net.cpp:485] pool2/3x3_s2_pool2/3x3_s2_0_split <- pool2/3x3_s2
I0822 16:52:29.082883  9939 net.cpp:438] pool2/3x3_s2_pool2/3x3_s2_0_split -> pool2/3x3_s2_pool2/3x3_s2_0_split_0
I0822 16:52:29.082888  9939 net.cpp:438] pool2/3x3_s2_pool2/3x3_s2_0_split -> pool2/3x3_s2_pool2/3x3_s2_0_split_1
I0822 16:52:29.082893  9939 net.cpp:438] pool2/3x3_s2_pool2/3x3_s2_0_split -> pool2/3x3_s2_pool2/3x3_s2_0_split_2
I0822 16:52:29.082900  9939 net.cpp:438] pool2/3x3_s2_pool2/3x3_s2_0_split -> pool2/3x3_s2_pool2/3x3_s2_0_split_3
I0822 16:52:29.082913  9939 net.cpp:155] Setting up pool2/3x3_s2_pool2/3x3_s2_0_split
I0822 16:52:29.082917  9939 net.cpp:163] Top shape: 128 192 28 28 (19267584)
I0822 16:52:29.082921  9939 net.cpp:163] Top shape: 128 192 28 28 (19267584)
I0822 16:52:29.082926  9939 net.cpp:163] Top shape: 128 192 28 28 (19267584)
I0822 16:52:29.082928  9939 net.cpp:163] Top shape: 128 192 28 28 (19267584)
I0822 16:52:29.082931  9939 layer_factory.hpp:76] Creating layer inception_3a/1x1
I0822 16:52:29.082937  9939 net.cpp:110] Creating Layer inception_3a/1x1
I0822 16:52:29.082940  9939 net.cpp:485] inception_3a/1x1 <- pool2/3x3_s2_pool2/3x3_s2_0_split_0
I0822 16:52:29.082947  9939 net.cpp:438] inception_3a/1x1 -> inception_3a/1x1
I0822 16:52:29.083057  9939 net.cpp:155] Setting up inception_3a/1x1
I0822 16:52:29.083062  9939 net.cpp:163] Top shape: 128 64 28 28 (6422528)
I0822 16:52:29.083067  9939 layer_factory.hpp:76] Creating layer inception_3a/relu_1x1
I0822 16:52:29.083071  9939 net.cpp:110] Creating Layer inception_3a/relu_1x1
I0822 16:52:29.083075  9939 net.cpp:485] inception_3a/relu_1x1 <- inception_3a/1x1
I0822 16:52:29.083078  9939 net.cpp:425] inception_3a/relu_1x1 -> inception_3a/1x1 (in-place)
I0822 16:52:29.083083  9939 net.cpp:155] Setting up inception_3a/relu_1x1
I0822 16:52:29.083087  9939 net.cpp:163] Top shape: 128 64 28 28 (6422528)
I0822 16:52:29.083089  9939 layer_factory.hpp:76] Creating layer inception_3a/3x3_reduce
I0822 16:52:29.083094  9939 net.cpp:110] Creating Layer inception_3a/3x3_reduce
I0822 16:52:29.083097  9939 net.cpp:485] inception_3a/3x3_reduce <- pool2/3x3_s2_pool2/3x3_s2_0_split_1
I0822 16:52:29.083101  9939 net.cpp:438] inception_3a/3x3_reduce -> inception_3a/3x3_reduce
I0822 16:52:29.083149  9939 net.cpp:155] Setting up inception_3a/3x3_reduce
I0822 16:52:29.083154  9939 net.cpp:163] Top shape: 128 96 28 28 (9633792)
I0822 16:52:29.083161  9939 layer_factory.hpp:76] Creating layer inception_3a/relu_3x3_reduce
I0822 16:52:29.083165  9939 net.cpp:110] Creating Layer inception_3a/relu_3x3_reduce
I0822 16:52:29.083168  9939 net.cpp:485] inception_3a/relu_3x3_reduce <- inception_3a/3x3_reduce
I0822 16:52:29.083173  9939 net.cpp:425] inception_3a/relu_3x3_reduce -> inception_3a/3x3_reduce (in-place)
I0822 16:52:29.083181  9939 net.cpp:155] Setting up inception_3a/relu_3x3_reduce
I0822 16:52:29.083185  9939 net.cpp:163] Top shape: 128 96 28 28 (9633792)
I0822 16:52:29.083189  9939 layer_factory.hpp:76] Creating layer inception_3a/3x3
I0822 16:52:29.083194  9939 net.cpp:110] Creating Layer inception_3a/3x3
I0822 16:52:29.083196  9939 net.cpp:485] inception_3a/3x3 <- inception_3a/3x3_reduce
I0822 16:52:29.083201  9939 net.cpp:438] inception_3a/3x3 -> inception_3a/3x3
I0822 16:52:29.083878  9939 net.cpp:155] Setting up inception_3a/3x3
I0822 16:52:29.083884  9939 net.cpp:163] Top shape: 128 128 28 28 (12845056)
I0822 16:52:29.083889  9939 layer_factory.hpp:76] Creating layer inception_3a/relu_3x3
I0822 16:52:29.083892  9939 net.cpp:110] Creating Layer inception_3a/relu_3x3
I0822 16:52:29.083896  9939 net.cpp:485] inception_3a/relu_3x3 <- inception_3a/3x3
I0822 16:52:29.083899  9939 net.cpp:425] inception_3a/relu_3x3 -> inception_3a/3x3 (in-place)
I0822 16:52:29.083905  9939 net.cpp:155] Setting up inception_3a/relu_3x3
I0822 16:52:29.083909  9939 net.cpp:163] Top shape: 128 128 28 28 (12845056)
I0822 16:52:29.083911  9939 layer_factory.hpp:76] Creating layer inception_3a/5x5_reduce
I0822 16:52:29.083915  9939 net.cpp:110] Creating Layer inception_3a/5x5_reduce
I0822 16:52:29.083919  9939 net.cpp:485] inception_3a/5x5_reduce <- pool2/3x3_s2_pool2/3x3_s2_0_split_2
I0822 16:52:29.083923  9939 net.cpp:438] inception_3a/5x5_reduce -> inception_3a/5x5_reduce
I0822 16:52:29.083966  9939 net.cpp:155] Setting up inception_3a/5x5_reduce
I0822 16:52:29.083969  9939 net.cpp:163] Top shape: 128 16 28 28 (1605632)
I0822 16:52:29.083974  9939 layer_factory.hpp:76] Creating layer inception_3a/relu_5x5_reduce
I0822 16:52:29.083978  9939 net.cpp:110] Creating Layer inception_3a/relu_5x5_reduce
I0822 16:52:29.083981  9939 net.cpp:485] inception_3a/relu_5x5_reduce <- inception_3a/5x5_reduce
I0822 16:52:29.083986  9939 net.cpp:425] inception_3a/relu_5x5_reduce -> inception_3a/5x5_reduce (in-place)
I0822 16:52:29.083991  9939 net.cpp:155] Setting up inception_3a/relu_5x5_reduce
I0822 16:52:29.083994  9939 net.cpp:163] Top shape: 128 16 28 28 (1605632)
I0822 16:52:29.083997  9939 layer_factory.hpp:76] Creating layer inception_3a/5x5
I0822 16:52:29.084002  9939 net.cpp:110] Creating Layer inception_3a/5x5
I0822 16:52:29.084004  9939 net.cpp:485] inception_3a/5x5 <- inception_3a/5x5_reduce
I0822 16:52:29.084009  9939 net.cpp:438] inception_3a/5x5 -> inception_3a/5x5
I0822 16:52:29.084110  9939 net.cpp:155] Setting up inception_3a/5x5
I0822 16:52:29.084115  9939 net.cpp:163] Top shape: 128 32 28 28 (3211264)
I0822 16:52:29.084120  9939 layer_factory.hpp:76] Creating layer inception_3a/relu_5x5
I0822 16:52:29.084123  9939 net.cpp:110] Creating Layer inception_3a/relu_5x5
I0822 16:52:29.084126  9939 net.cpp:485] inception_3a/relu_5x5 <- inception_3a/5x5
I0822 16:52:29.084131  9939 net.cpp:425] inception_3a/relu_5x5 -> inception_3a/5x5 (in-place)
I0822 16:52:29.084136  9939 net.cpp:155] Setting up inception_3a/relu_5x5
I0822 16:52:29.084138  9939 net.cpp:163] Top shape: 128 32 28 28 (3211264)
I0822 16:52:29.084141  9939 layer_factory.hpp:76] Creating layer inception_3a/pool
I0822 16:52:29.084146  9939 net.cpp:110] Creating Layer inception_3a/pool
I0822 16:52:29.084148  9939 net.cpp:485] inception_3a/pool <- pool2/3x3_s2_pool2/3x3_s2_0_split_3
I0822 16:52:29.084152  9939 net.cpp:438] inception_3a/pool -> inception_3a/pool
I0822 16:52:29.084164  9939 net.cpp:155] Setting up inception_3a/pool
I0822 16:52:29.084168  9939 net.cpp:163] Top shape: 128 192 28 28 (19267584)
I0822 16:52:29.084172  9939 layer_factory.hpp:76] Creating layer inception_3a/pool_proj
I0822 16:52:29.084177  9939 net.cpp:110] Creating Layer inception_3a/pool_proj
I0822 16:52:29.084179  9939 net.cpp:485] inception_3a/pool_proj <- inception_3a/pool
I0822 16:52:29.084183  9939 net.cpp:438] inception_3a/pool_proj -> inception_3a/pool_proj
I0822 16:52:29.084242  9939 net.cpp:155] Setting up inception_3a/pool_proj
I0822 16:52:29.084250  9939 net.cpp:163] Top shape: 128 32 28 28 (3211264)
I0822 16:52:29.084257  9939 layer_factory.hpp:76] Creating layer inception_3a/relu_pool_proj
I0822 16:52:29.084261  9939 net.cpp:110] Creating Layer inception_3a/relu_pool_proj
I0822 16:52:29.084264  9939 net.cpp:485] inception_3a/relu_pool_proj <- inception_3a/pool_proj
I0822 16:52:29.084269  9939 net.cpp:425] inception_3a/relu_pool_proj -> inception_3a/pool_proj (in-place)
I0822 16:52:29.084275  9939 net.cpp:155] Setting up inception_3a/relu_pool_proj
I0822 16:52:29.084277  9939 net.cpp:163] Top shape: 128 32 28 28 (3211264)
I0822 16:52:29.084280  9939 layer_factory.hpp:76] Creating layer inception_3a/output
I0822 16:52:29.084288  9939 net.cpp:110] Creating Layer inception_3a/output
I0822 16:52:29.084291  9939 net.cpp:485] inception_3a/output <- inception_3a/1x1
I0822 16:52:29.084295  9939 net.cpp:485] inception_3a/output <- inception_3a/3x3
I0822 16:52:29.084297  9939 net.cpp:485] inception_3a/output <- inception_3a/5x5
I0822 16:52:29.084300  9939 net.cpp:485] inception_3a/output <- inception_3a/pool_proj
I0822 16:52:29.084305  9939 net.cpp:438] inception_3a/output -> inception_3a/output
I0822 16:52:29.084313  9939 net.cpp:155] Setting up inception_3a/output
I0822 16:52:29.084317  9939 net.cpp:163] Top shape: 128 256 28 28 (25690112)
I0822 16:52:29.084321  9939 layer_factory.hpp:76] Creating layer inception_3a/output_inception_3a/output_0_split
I0822 16:52:29.084324  9939 net.cpp:110] Creating Layer inception_3a/output_inception_3a/output_0_split
I0822 16:52:29.084327  9939 net.cpp:485] inception_3a/output_inception_3a/output_0_split <- inception_3a/output
I0822 16:52:29.084331  9939 net.cpp:438] inception_3a/output_inception_3a/output_0_split -> inception_3a/output_inception_3a/output_0_split_0
I0822 16:52:29.084336  9939 net.cpp:438] inception_3a/output_inception_3a/output_0_split -> inception_3a/output_inception_3a/output_0_split_1
I0822 16:52:29.084342  9939 net.cpp:438] inception_3a/output_inception_3a/output_0_split -> inception_3a/output_inception_3a/output_0_split_2
I0822 16:52:29.084347  9939 net.cpp:438] inception_3a/output_inception_3a/output_0_split -> inception_3a/output_inception_3a/output_0_split_3
I0822 16:52:29.084358  9939 net.cpp:155] Setting up inception_3a/output_inception_3a/output_0_split
I0822 16:52:29.084362  9939 net.cpp:163] Top shape: 128 256 28 28 (25690112)
I0822 16:52:29.084365  9939 net.cpp:163] Top shape: 128 256 28 28 (25690112)
I0822 16:52:29.084368  9939 net.cpp:163] Top shape: 128 256 28 28 (25690112)
I0822 16:52:29.084372  9939 net.cpp:163] Top shape: 128 256 28 28 (25690112)
I0822 16:52:29.084374  9939 layer_factory.hpp:76] Creating layer inception_3b/1x1
I0822 16:52:29.084379  9939 net.cpp:110] Creating Layer inception_3b/1x1
I0822 16:52:29.084383  9939 net.cpp:485] inception_3b/1x1 <- inception_3a/output_inception_3a/output_0_split_0
I0822 16:52:29.084388  9939 net.cpp:438] inception_3b/1x1 -> inception_3b/1x1
I0822 16:52:29.084605  9939 net.cpp:155] Setting up inception_3b/1x1
I0822 16:52:29.084611  9939 net.cpp:163] Top shape: 128 128 28 28 (12845056)
I0822 16:52:29.084616  9939 layer_factory.hpp:76] Creating layer inception_3b/relu_1x1
I0822 16:52:29.084620  9939 net.cpp:110] Creating Layer inception_3b/relu_1x1
I0822 16:52:29.084624  9939 net.cpp:485] inception_3b/relu_1x1 <- inception_3b/1x1
I0822 16:52:29.084627  9939 net.cpp:425] inception_3b/relu_1x1 -> inception_3b/1x1 (in-place)
I0822 16:52:29.084632  9939 net.cpp:155] Setting up inception_3b/relu_1x1
I0822 16:52:29.084636  9939 net.cpp:163] Top shape: 128 128 28 28 (12845056)
I0822 16:52:29.084640  9939 layer_factory.hpp:76] Creating layer inception_3b/3x3_reduce
I0822 16:52:29.084643  9939 net.cpp:110] Creating Layer inception_3b/3x3_reduce
I0822 16:52:29.084646  9939 net.cpp:485] inception_3b/3x3_reduce <- inception_3a/output_inception_3a/output_0_split_1
I0822 16:52:29.084651  9939 net.cpp:438] inception_3b/3x3_reduce -> inception_3b/3x3_reduce
I0822 16:52:29.084869  9939 net.cpp:155] Setting up inception_3b/3x3_reduce
I0822 16:52:29.084874  9939 net.cpp:163] Top shape: 128 128 28 28 (12845056)
I0822 16:52:29.084882  9939 layer_factory.hpp:76] Creating layer inception_3b/relu_3x3_reduce
I0822 16:52:29.084887  9939 net.cpp:110] Creating Layer inception_3b/relu_3x3_reduce
I0822 16:52:29.084889  9939 net.cpp:485] inception_3b/relu_3x3_reduce <- inception_3b/3x3_reduce
I0822 16:52:29.084893  9939 net.cpp:425] inception_3b/relu_3x3_reduce -> inception_3b/3x3_reduce (in-place)
I0822 16:52:29.084899  9939 net.cpp:155] Setting up inception_3b/relu_3x3_reduce
I0822 16:52:29.084903  9939 net.cpp:163] Top shape: 128 128 28 28 (12845056)
I0822 16:52:29.084905  9939 layer_factory.hpp:76] Creating layer inception_3b/3x3
I0822 16:52:29.084909  9939 net.cpp:110] Creating Layer inception_3b/3x3
I0822 16:52:29.084913  9939 net.cpp:485] inception_3b/3x3 <- inception_3b/3x3_reduce
I0822 16:52:29.084918  9939 net.cpp:438] inception_3b/3x3 -> inception_3b/3x3
I0822 16:52:29.086242  9939 net.cpp:155] Setting up inception_3b/3x3
I0822 16:52:29.086248  9939 net.cpp:163] Top shape: 128 192 28 28 (19267584)
I0822 16:52:29.086253  9939 layer_factory.hpp:76] Creating layer inception_3b/relu_3x3
I0822 16:52:29.086257  9939 net.cpp:110] Creating Layer inception_3b/relu_3x3
I0822 16:52:29.086261  9939 net.cpp:485] inception_3b/relu_3x3 <- inception_3b/3x3
I0822 16:52:29.086264  9939 net.cpp:425] inception_3b/relu_3x3 -> inception_3b/3x3 (in-place)
I0822 16:52:29.086269  9939 net.cpp:155] Setting up inception_3b/relu_3x3
I0822 16:52:29.086273  9939 net.cpp:163] Top shape: 128 192 28 28 (19267584)
I0822 16:52:29.086277  9939 layer_factory.hpp:76] Creating layer inception_3b/5x5_reduce
I0822 16:52:29.086280  9939 net.cpp:110] Creating Layer inception_3b/5x5_reduce
I0822 16:52:29.086283  9939 net.cpp:485] inception_3b/5x5_reduce <- inception_3a/output_inception_3a/output_0_split_2
I0822 16:52:29.086287  9939 net.cpp:438] inception_3b/5x5_reduce -> inception_3b/5x5_reduce
I0822 16:52:29.086361  9939 net.cpp:155] Setting up inception_3b/5x5_reduce
I0822 16:52:29.086366  9939 net.cpp:163] Top shape: 128 32 28 28 (3211264)
I0822 16:52:29.086370  9939 layer_factory.hpp:76] Creating layer inception_3b/relu_5x5_reduce
I0822 16:52:29.086374  9939 net.cpp:110] Creating Layer inception_3b/relu_5x5_reduce
I0822 16:52:29.086377  9939 net.cpp:485] inception_3b/relu_5x5_reduce <- inception_3b/5x5_reduce
I0822 16:52:29.086381  9939 net.cpp:425] inception_3b/relu_5x5_reduce -> inception_3b/5x5_reduce (in-place)
I0822 16:52:29.086386  9939 net.cpp:155] Setting up inception_3b/relu_5x5_reduce
I0822 16:52:29.086390  9939 net.cpp:163] Top shape: 128 32 28 28 (3211264)
I0822 16:52:29.086392  9939 layer_factory.hpp:76] Creating layer inception_3b/5x5
I0822 16:52:29.086397  9939 net.cpp:110] Creating Layer inception_3b/5x5
I0822 16:52:29.086400  9939 net.cpp:485] inception_3b/5x5 <- inception_3b/5x5_reduce
I0822 16:52:29.086405  9939 net.cpp:438] inception_3b/5x5 -> inception_3b/5x5
I0822 16:52:29.086905  9939 net.cpp:155] Setting up inception_3b/5x5
I0822 16:52:29.086912  9939 net.cpp:163] Top shape: 128 96 28 28 (9633792)
I0822 16:52:29.086917  9939 layer_factory.hpp:76] Creating layer inception_3b/relu_5x5
I0822 16:52:29.086921  9939 net.cpp:110] Creating Layer inception_3b/relu_5x5
I0822 16:52:29.086925  9939 net.cpp:485] inception_3b/relu_5x5 <- inception_3b/5x5
I0822 16:52:29.086928  9939 net.cpp:425] inception_3b/relu_5x5 -> inception_3b/5x5 (in-place)
I0822 16:52:29.086935  9939 net.cpp:155] Setting up inception_3b/relu_5x5
I0822 16:52:29.086937  9939 net.cpp:163] Top shape: 128 96 28 28 (9633792)
I0822 16:52:29.086941  9939 layer_factory.hpp:76] Creating layer inception_3b/pool
I0822 16:52:29.086944  9939 net.cpp:110] Creating Layer inception_3b/pool
I0822 16:52:29.086947  9939 net.cpp:485] inception_3b/pool <- inception_3a/output_inception_3a/output_0_split_3
I0822 16:52:29.086952  9939 net.cpp:438] inception_3b/pool -> inception_3b/pool
I0822 16:52:29.086962  9939 net.cpp:155] Setting up inception_3b/pool
I0822 16:52:29.086967  9939 net.cpp:163] Top shape: 128 256 28 28 (25690112)
I0822 16:52:29.086971  9939 layer_factory.hpp:76] Creating layer inception_3b/pool_proj
I0822 16:52:29.086977  9939 net.cpp:110] Creating Layer inception_3b/pool_proj
I0822 16:52:29.086982  9939 net.cpp:485] inception_3b/pool_proj <- inception_3b/pool
I0822 16:52:29.086985  9939 net.cpp:438] inception_3b/pool_proj -> inception_3b/pool_proj
I0822 16:52:29.087119  9939 net.cpp:155] Setting up inception_3b/pool_proj
I0822 16:52:29.087124  9939 net.cpp:163] Top shape: 128 64 28 28 (6422528)
I0822 16:52:29.087129  9939 layer_factory.hpp:76] Creating layer inception_3b/relu_pool_proj
I0822 16:52:29.087133  9939 net.cpp:110] Creating Layer inception_3b/relu_pool_proj
I0822 16:52:29.087136  9939 net.cpp:485] inception_3b/relu_pool_proj <- inception_3b/pool_proj
I0822 16:52:29.087141  9939 net.cpp:425] inception_3b/relu_pool_proj -> inception_3b/pool_proj (in-place)
I0822 16:52:29.087146  9939 net.cpp:155] Setting up inception_3b/relu_pool_proj
I0822 16:52:29.087148  9939 net.cpp:163] Top shape: 128 64 28 28 (6422528)
I0822 16:52:29.087152  9939 layer_factory.hpp:76] Creating layer inception_3b/output
I0822 16:52:29.087155  9939 net.cpp:110] Creating Layer inception_3b/output
I0822 16:52:29.087158  9939 net.cpp:485] inception_3b/output <- inception_3b/1x1
I0822 16:52:29.087162  9939 net.cpp:485] inception_3b/output <- inception_3b/3x3
I0822 16:52:29.087164  9939 net.cpp:485] inception_3b/output <- inception_3b/5x5
I0822 16:52:29.087168  9939 net.cpp:485] inception_3b/output <- inception_3b/pool_proj
I0822 16:52:29.087172  9939 net.cpp:438] inception_3b/output -> inception_3b/output
I0822 16:52:29.087178  9939 net.cpp:155] Setting up inception_3b/output
I0822 16:52:29.087182  9939 net.cpp:163] Top shape: 128 480 28 28 (48168960)
I0822 16:52:29.087185  9939 layer_factory.hpp:76] Creating layer pool3/3x3_s2
I0822 16:52:29.087189  9939 net.cpp:110] Creating Layer pool3/3x3_s2
I0822 16:52:29.087193  9939 net.cpp:485] pool3/3x3_s2 <- inception_3b/output
I0822 16:52:29.087196  9939 net.cpp:438] pool3/3x3_s2 -> pool3/3x3_s2
I0822 16:52:29.087206  9939 net.cpp:155] Setting up pool3/3x3_s2
I0822 16:52:29.087210  9939 net.cpp:163] Top shape: 128 480 14 14 (12042240)
I0822 16:52:29.087213  9939 layer_factory.hpp:76] Creating layer pool3/3x3_s2_pool3/3x3_s2_0_split
I0822 16:52:29.087218  9939 net.cpp:110] Creating Layer pool3/3x3_s2_pool3/3x3_s2_0_split
I0822 16:52:29.087220  9939 net.cpp:485] pool3/3x3_s2_pool3/3x3_s2_0_split <- pool3/3x3_s2
I0822 16:52:29.087224  9939 net.cpp:438] pool3/3x3_s2_pool3/3x3_s2_0_split -> pool3/3x3_s2_pool3/3x3_s2_0_split_0
I0822 16:52:29.087229  9939 net.cpp:438] pool3/3x3_s2_pool3/3x3_s2_0_split -> pool3/3x3_s2_pool3/3x3_s2_0_split_1
I0822 16:52:29.087234  9939 net.cpp:438] pool3/3x3_s2_pool3/3x3_s2_0_split -> pool3/3x3_s2_pool3/3x3_s2_0_split_2
I0822 16:52:29.087239  9939 net.cpp:438] pool3/3x3_s2_pool3/3x3_s2_0_split -> pool3/3x3_s2_pool3/3x3_s2_0_split_3
I0822 16:52:29.087250  9939 net.cpp:155] Setting up pool3/3x3_s2_pool3/3x3_s2_0_split
I0822 16:52:29.087255  9939 net.cpp:163] Top shape: 128 480 14 14 (12042240)
I0822 16:52:29.087258  9939 net.cpp:163] Top shape: 128 480 14 14 (12042240)
I0822 16:52:29.087261  9939 net.cpp:163] Top shape: 128 480 14 14 (12042240)
I0822 16:52:29.087265  9939 net.cpp:163] Top shape: 128 480 14 14 (12042240)
I0822 16:52:29.087268  9939 layer_factory.hpp:76] Creating layer inception_4a/1x1
I0822 16:52:29.087272  9939 net.cpp:110] Creating Layer inception_4a/1x1
I0822 16:52:29.087275  9939 net.cpp:485] inception_4a/1x1 <- pool3/3x3_s2_pool3/3x3_s2_0_split_0
I0822 16:52:29.087280  9939 net.cpp:438] inception_4a/1x1 -> inception_4a/1x1
I0822 16:52:29.087848  9939 net.cpp:155] Setting up inception_4a/1x1
I0822 16:52:29.087854  9939 net.cpp:163] Top shape: 128 192 14 14 (4816896)
I0822 16:52:29.087859  9939 layer_factory.hpp:76] Creating layer inception_4a/relu_1x1
I0822 16:52:29.087864  9939 net.cpp:110] Creating Layer inception_4a/relu_1x1
I0822 16:52:29.087867  9939 net.cpp:485] inception_4a/relu_1x1 <- inception_4a/1x1
I0822 16:52:29.087870  9939 net.cpp:425] inception_4a/relu_1x1 -> inception_4a/1x1 (in-place)
I0822 16:52:29.087880  9939 net.cpp:155] Setting up inception_4a/relu_1x1
I0822 16:52:29.087883  9939 net.cpp:163] Top shape: 128 192 14 14 (4816896)
I0822 16:52:29.087887  9939 layer_factory.hpp:76] Creating layer inception_4a/3x3_reduce
I0822 16:52:29.087891  9939 net.cpp:110] Creating Layer inception_4a/3x3_reduce
I0822 16:52:29.087894  9939 net.cpp:485] inception_4a/3x3_reduce <- pool3/3x3_s2_pool3/3x3_s2_0_split_1
I0822 16:52:29.087899  9939 net.cpp:438] inception_4a/3x3_reduce -> inception_4a/3x3_reduce
I0822 16:52:29.088193  9939 net.cpp:155] Setting up inception_4a/3x3_reduce
I0822 16:52:29.088199  9939 net.cpp:163] Top shape: 128 96 14 14 (2408448)
I0822 16:52:29.088207  9939 layer_factory.hpp:76] Creating layer inception_4a/relu_3x3_reduce
I0822 16:52:29.088210  9939 net.cpp:110] Creating Layer inception_4a/relu_3x3_reduce
I0822 16:52:29.088213  9939 net.cpp:485] inception_4a/relu_3x3_reduce <- inception_4a/3x3_reduce
I0822 16:52:29.088217  9939 net.cpp:425] inception_4a/relu_3x3_reduce -> inception_4a/3x3_reduce (in-place)
I0822 16:52:29.088223  9939 net.cpp:155] Setting up inception_4a/relu_3x3_reduce
I0822 16:52:29.088227  9939 net.cpp:163] Top shape: 128 96 14 14 (2408448)
I0822 16:52:29.088229  9939 layer_factory.hpp:76] Creating layer inception_4a/3x3
I0822 16:52:29.088234  9939 net.cpp:110] Creating Layer inception_4a/3x3
I0822 16:52:29.088238  9939 net.cpp:485] inception_4a/3x3 <- inception_4a/3x3_reduce
I0822 16:52:29.088242  9939 net.cpp:438] inception_4a/3x3 -> inception_4a/3x3
I0822 16:52:29.089323  9939 net.cpp:155] Setting up inception_4a/3x3
I0822 16:52:29.089329  9939 net.cpp:163] Top shape: 128 208 14 14 (5218304)
I0822 16:52:29.089334  9939 layer_factory.hpp:76] Creating layer inception_4a/relu_3x3
I0822 16:52:29.089339  9939 net.cpp:110] Creating Layer inception_4a/relu_3x3
I0822 16:52:29.089342  9939 net.cpp:485] inception_4a/relu_3x3 <- inception_4a/3x3
I0822 16:52:29.089346  9939 net.cpp:425] inception_4a/relu_3x3 -> inception_4a/3x3 (in-place)
I0822 16:52:29.089351  9939 net.cpp:155] Setting up inception_4a/relu_3x3
I0822 16:52:29.089355  9939 net.cpp:163] Top shape: 128 208 14 14 (5218304)
I0822 16:52:29.089359  9939 layer_factory.hpp:76] Creating layer inception_4a/5x5_reduce
I0822 16:52:29.089364  9939 net.cpp:110] Creating Layer inception_4a/5x5_reduce
I0822 16:52:29.089366  9939 net.cpp:485] inception_4a/5x5_reduce <- pool3/3x3_s2_pool3/3x3_s2_0_split_2
I0822 16:52:29.089370  9939 net.cpp:438] inception_4a/5x5_reduce -> inception_4a/5x5_reduce
I0822 16:52:29.089442  9939 net.cpp:155] Setting up inception_4a/5x5_reduce
I0822 16:52:29.089445  9939 net.cpp:163] Top shape: 128 16 14 14 (401408)
I0822 16:52:29.089450  9939 layer_factory.hpp:76] Creating layer inception_4a/relu_5x5_reduce
I0822 16:52:29.089454  9939 net.cpp:110] Creating Layer inception_4a/relu_5x5_reduce
I0822 16:52:29.089457  9939 net.cpp:485] inception_4a/relu_5x5_reduce <- inception_4a/5x5_reduce
I0822 16:52:29.089462  9939 net.cpp:425] inception_4a/relu_5x5_reduce -> inception_4a/5x5_reduce (in-place)
I0822 16:52:29.089467  9939 net.cpp:155] Setting up inception_4a/relu_5x5_reduce
I0822 16:52:29.089469  9939 net.cpp:163] Top shape: 128 16 14 14 (401408)
I0822 16:52:29.089473  9939 layer_factory.hpp:76] Creating layer inception_4a/5x5
I0822 16:52:29.089478  9939 net.cpp:110] Creating Layer inception_4a/5x5
I0822 16:52:29.089480  9939 net.cpp:485] inception_4a/5x5 <- inception_4a/5x5_reduce
I0822 16:52:29.089484  9939 net.cpp:438] inception_4a/5x5 -> inception_4a/5x5
I0822 16:52:29.089619  9939 net.cpp:155] Setting up inception_4a/5x5
I0822 16:52:29.089624  9939 net.cpp:163] Top shape: 128 48 14 14 (1204224)
I0822 16:52:29.089629  9939 layer_factory.hpp:76] Creating layer inception_4a/relu_5x5
I0822 16:52:29.089633  9939 net.cpp:110] Creating Layer inception_4a/relu_5x5
I0822 16:52:29.089637  9939 net.cpp:485] inception_4a/relu_5x5 <- inception_4a/5x5
I0822 16:52:29.089640  9939 net.cpp:425] inception_4a/relu_5x5 -> inception_4a/5x5 (in-place)
I0822 16:52:29.089645  9939 net.cpp:155] Setting up inception_4a/relu_5x5
I0822 16:52:29.089653  9939 net.cpp:163] Top shape: 128 48 14 14 (1204224)
I0822 16:52:29.089655  9939 layer_factory.hpp:76] Creating layer inception_4a/pool
I0822 16:52:29.089659  9939 net.cpp:110] Creating Layer inception_4a/pool
I0822 16:52:29.089663  9939 net.cpp:485] inception_4a/pool <- pool3/3x3_s2_pool3/3x3_s2_0_split_3
I0822 16:52:29.089668  9939 net.cpp:438] inception_4a/pool -> inception_4a/pool
I0822 16:52:29.089680  9939 net.cpp:155] Setting up inception_4a/pool
I0822 16:52:29.089684  9939 net.cpp:163] Top shape: 128 480 14 14 (12042240)
I0822 16:52:29.089687  9939 layer_factory.hpp:76] Creating layer inception_4a/pool_proj
I0822 16:52:29.089691  9939 net.cpp:110] Creating Layer inception_4a/pool_proj
I0822 16:52:29.089694  9939 net.cpp:485] inception_4a/pool_proj <- inception_4a/pool
I0822 16:52:29.089699  9939 net.cpp:438] inception_4a/pool_proj -> inception_4a/pool_proj
I0822 16:52:29.089905  9939 net.cpp:155] Setting up inception_4a/pool_proj
I0822 16:52:29.089910  9939 net.cpp:163] Top shape: 128 64 14 14 (1605632)
I0822 16:52:29.089915  9939 layer_factory.hpp:76] Creating layer inception_4a/relu_pool_proj
I0822 16:52:29.089918  9939 net.cpp:110] Creating Layer inception_4a/relu_pool_proj
I0822 16:52:29.089921  9939 net.cpp:485] inception_4a/relu_pool_proj <- inception_4a/pool_proj
I0822 16:52:29.089926  9939 net.cpp:425] inception_4a/relu_pool_proj -> inception_4a/pool_proj (in-place)
I0822 16:52:29.089931  9939 net.cpp:155] Setting up inception_4a/relu_pool_proj
I0822 16:52:29.089933  9939 net.cpp:163] Top shape: 128 64 14 14 (1605632)
I0822 16:52:29.089936  9939 layer_factory.hpp:76] Creating layer inception_4a/output
I0822 16:52:29.089941  9939 net.cpp:110] Creating Layer inception_4a/output
I0822 16:52:29.089943  9939 net.cpp:485] inception_4a/output <- inception_4a/1x1
I0822 16:52:29.089946  9939 net.cpp:485] inception_4a/output <- inception_4a/3x3
I0822 16:52:29.089951  9939 net.cpp:485] inception_4a/output <- inception_4a/5x5
I0822 16:52:29.089953  9939 net.cpp:485] inception_4a/output <- inception_4a/pool_proj
I0822 16:52:29.089957  9939 net.cpp:438] inception_4a/output -> inception_4a/output
I0822 16:52:29.089965  9939 net.cpp:155] Setting up inception_4a/output
I0822 16:52:29.089968  9939 net.cpp:163] Top shape: 128 512 14 14 (12845056)
I0822 16:52:29.089972  9939 layer_factory.hpp:76] Creating layer inception_4a/output_inception_4a/output_0_split
I0822 16:52:29.089975  9939 net.cpp:110] Creating Layer inception_4a/output_inception_4a/output_0_split
I0822 16:52:29.089978  9939 net.cpp:485] inception_4a/output_inception_4a/output_0_split <- inception_4a/output
I0822 16:52:29.089982  9939 net.cpp:438] inception_4a/output_inception_4a/output_0_split -> inception_4a/output_inception_4a/output_0_split_0
I0822 16:52:29.089987  9939 net.cpp:438] inception_4a/output_inception_4a/output_0_split -> inception_4a/output_inception_4a/output_0_split_1
I0822 16:52:29.089993  9939 net.cpp:438] inception_4a/output_inception_4a/output_0_split -> inception_4a/output_inception_4a/output_0_split_2
I0822 16:52:29.089998  9939 net.cpp:438] inception_4a/output_inception_4a/output_0_split -> inception_4a/output_inception_4a/output_0_split_3
I0822 16:52:29.090008  9939 net.cpp:155] Setting up inception_4a/output_inception_4a/output_0_split
I0822 16:52:29.090013  9939 net.cpp:163] Top shape: 128 512 14 14 (12845056)
I0822 16:52:29.090016  9939 net.cpp:163] Top shape: 128 512 14 14 (12845056)
I0822 16:52:29.090019  9939 net.cpp:163] Top shape: 128 512 14 14 (12845056)
I0822 16:52:29.090023  9939 net.cpp:163] Top shape: 128 512 14 14 (12845056)
I0822 16:52:29.090025  9939 layer_factory.hpp:76] Creating layer inception_4b/1x1
I0822 16:52:29.090030  9939 net.cpp:110] Creating Layer inception_4b/1x1
I0822 16:52:29.090034  9939 net.cpp:485] inception_4b/1x1 <- inception_4a/output_inception_4a/output_0_split_0
I0822 16:52:29.090037  9939 net.cpp:438] inception_4b/1x1 -> inception_4b/1x1
I0822 16:52:29.090546  9939 net.cpp:155] Setting up inception_4b/1x1
I0822 16:52:29.090551  9939 net.cpp:163] Top shape: 128 160 14 14 (4014080)
I0822 16:52:29.090559  9939 layer_factory.hpp:76] Creating layer inception_4b/relu_1x1
I0822 16:52:29.090564  9939 net.cpp:110] Creating Layer inception_4b/relu_1x1
I0822 16:52:29.090567  9939 net.cpp:485] inception_4b/relu_1x1 <- inception_4b/1x1
I0822 16:52:29.090571  9939 net.cpp:425] inception_4b/relu_1x1 -> inception_4b/1x1 (in-place)
I0822 16:52:29.090576  9939 net.cpp:155] Setting up inception_4b/relu_1x1
I0822 16:52:29.090580  9939 net.cpp:163] Top shape: 128 160 14 14 (4014080)
I0822 16:52:29.090582  9939 layer_factory.hpp:76] Creating layer inception_4b/3x3_reduce
I0822 16:52:29.090587  9939 net.cpp:110] Creating Layer inception_4b/3x3_reduce
I0822 16:52:29.090590  9939 net.cpp:485] inception_4b/3x3_reduce <- inception_4a/output_inception_4a/output_0_split_1
I0822 16:52:29.090595  9939 net.cpp:438] inception_4b/3x3_reduce -> inception_4b/3x3_reduce
I0822 16:52:29.090980  9939 net.cpp:155] Setting up inception_4b/3x3_reduce
I0822 16:52:29.090986  9939 net.cpp:163] Top shape: 128 112 14 14 (2809856)
I0822 16:52:29.090991  9939 layer_factory.hpp:76] Creating layer inception_4b/relu_3x3_reduce
I0822 16:52:29.090996  9939 net.cpp:110] Creating Layer inception_4b/relu_3x3_reduce
I0822 16:52:29.090998  9939 net.cpp:485] inception_4b/relu_3x3_reduce <- inception_4b/3x3_reduce
I0822 16:52:29.091002  9939 net.cpp:425] inception_4b/relu_3x3_reduce -> inception_4b/3x3_reduce (in-place)
I0822 16:52:29.091007  9939 net.cpp:155] Setting up inception_4b/relu_3x3_reduce
I0822 16:52:29.091012  9939 net.cpp:163] Top shape: 128 112 14 14 (2809856)
I0822 16:52:29.091014  9939 layer_factory.hpp:76] Creating layer inception_4b/3x3
I0822 16:52:29.091029  9939 net.cpp:110] Creating Layer inception_4b/3x3
I0822 16:52:29.091032  9939 net.cpp:485] inception_4b/3x3 <- inception_4b/3x3_reduce
I0822 16:52:29.091037  9939 net.cpp:438] inception_4b/3x3 -> inception_4b/3x3
I0822 16:52:29.092389  9939 net.cpp:155] Setting up inception_4b/3x3
I0822 16:52:29.092396  9939 net.cpp:163] Top shape: 128 224 14 14 (5619712)
I0822 16:52:29.092401  9939 layer_factory.hpp:76] Creating layer inception_4b/relu_3x3
I0822 16:52:29.092404  9939 net.cpp:110] Creating Layer inception_4b/relu_3x3
I0822 16:52:29.092408  9939 net.cpp:485] inception_4b/relu_3x3 <- inception_4b/3x3
I0822 16:52:29.092411  9939 net.cpp:425] inception_4b/relu_3x3 -> inception_4b/3x3 (in-place)
I0822 16:52:29.092417  9939 net.cpp:155] Setting up inception_4b/relu_3x3
I0822 16:52:29.092420  9939 net.cpp:163] Top shape: 128 224 14 14 (5619712)
I0822 16:52:29.092423  9939 layer_factory.hpp:76] Creating layer inception_4b/5x5_reduce
I0822 16:52:29.092428  9939 net.cpp:110] Creating Layer inception_4b/5x5_reduce
I0822 16:52:29.092432  9939 net.cpp:485] inception_4b/5x5_reduce <- inception_4a/output_inception_4a/output_0_split_2
I0822 16:52:29.092435  9939 net.cpp:438] inception_4b/5x5_reduce -> inception_4b/5x5_reduce
I0822 16:52:29.092533  9939 net.cpp:155] Setting up inception_4b/5x5_reduce
I0822 16:52:29.092538  9939 net.cpp:163] Top shape: 128 24 14 14 (602112)
I0822 16:52:29.092542  9939 layer_factory.hpp:76] Creating layer inception_4b/relu_5x5_reduce
I0822 16:52:29.092546  9939 net.cpp:110] Creating Layer inception_4b/relu_5x5_reduce
I0822 16:52:29.092550  9939 net.cpp:485] inception_4b/relu_5x5_reduce <- inception_4b/5x5_reduce
I0822 16:52:29.092553  9939 net.cpp:425] inception_4b/relu_5x5_reduce -> inception_4b/5x5_reduce (in-place)
I0822 16:52:29.092558  9939 net.cpp:155] Setting up inception_4b/relu_5x5_reduce
I0822 16:52:29.092562  9939 net.cpp:163] Top shape: 128 24 14 14 (602112)
I0822 16:52:29.092564  9939 layer_factory.hpp:76] Creating layer inception_4b/5x5
I0822 16:52:29.092569  9939 net.cpp:110] Creating Layer inception_4b/5x5
I0822 16:52:29.092572  9939 net.cpp:485] inception_4b/5x5 <- inception_4b/5x5_reduce
I0822 16:52:29.092576  9939 net.cpp:438] inception_4b/5x5 -> inception_4b/5x5
I0822 16:52:29.092828  9939 net.cpp:155] Setting up inception_4b/5x5
I0822 16:52:29.092833  9939 net.cpp:163] Top shape: 128 64 14 14 (1605632)
I0822 16:52:29.092838  9939 layer_factory.hpp:76] Creating layer inception_4b/relu_5x5
I0822 16:52:29.092845  9939 net.cpp:110] Creating Layer inception_4b/relu_5x5
I0822 16:52:29.092849  9939 net.cpp:485] inception_4b/relu_5x5 <- inception_4b/5x5
I0822 16:52:29.092854  9939 net.cpp:425] inception_4b/relu_5x5 -> inception_4b/5x5 (in-place)
I0822 16:52:29.092859  9939 net.cpp:155] Setting up inception_4b/relu_5x5
I0822 16:52:29.092861  9939 net.cpp:163] Top shape: 128 64 14 14 (1605632)
I0822 16:52:29.092864  9939 layer_factory.hpp:76] Creating layer inception_4b/pool
I0822 16:52:29.092869  9939 net.cpp:110] Creating Layer inception_4b/pool
I0822 16:52:29.092872  9939 net.cpp:485] inception_4b/pool <- inception_4a/output_inception_4a/output_0_split_3
I0822 16:52:29.092876  9939 net.cpp:438] inception_4b/pool -> inception_4b/pool
I0822 16:52:29.092887  9939 net.cpp:155] Setting up inception_4b/pool
I0822 16:52:29.092891  9939 net.cpp:163] Top shape: 128 512 14 14 (12845056)
I0822 16:52:29.092895  9939 layer_factory.hpp:76] Creating layer inception_4b/pool_proj
I0822 16:52:29.092898  9939 net.cpp:110] Creating Layer inception_4b/pool_proj
I0822 16:52:29.092901  9939 net.cpp:485] inception_4b/pool_proj <- inception_4b/pool
I0822 16:52:29.092906  9939 net.cpp:438] inception_4b/pool_proj -> inception_4b/pool_proj
I0822 16:52:29.093124  9939 net.cpp:155] Setting up inception_4b/pool_proj
I0822 16:52:29.093130  9939 net.cpp:163] Top shape: 128 64 14 14 (1605632)
I0822 16:52:29.093135  9939 layer_factory.hpp:76] Creating layer inception_4b/relu_pool_proj
I0822 16:52:29.093139  9939 net.cpp:110] Creating Layer inception_4b/relu_pool_proj
I0822 16:52:29.093142  9939 net.cpp:485] inception_4b/relu_pool_proj <- inception_4b/pool_proj
I0822 16:52:29.093147  9939 net.cpp:425] inception_4b/relu_pool_proj -> inception_4b/pool_proj (in-place)
I0822 16:52:29.093152  9939 net.cpp:155] Setting up inception_4b/relu_pool_proj
I0822 16:52:29.093155  9939 net.cpp:163] Top shape: 128 64 14 14 (1605632)
I0822 16:52:29.093158  9939 layer_factory.hpp:76] Creating layer inception_4b/output
I0822 16:52:29.093163  9939 net.cpp:110] Creating Layer inception_4b/output
I0822 16:52:29.093165  9939 net.cpp:485] inception_4b/output <- inception_4b/1x1
I0822 16:52:29.093169  9939 net.cpp:485] inception_4b/output <- inception_4b/3x3
I0822 16:52:29.093173  9939 net.cpp:485] inception_4b/output <- inception_4b/5x5
I0822 16:52:29.093175  9939 net.cpp:485] inception_4b/output <- inception_4b/pool_proj
I0822 16:52:29.093179  9939 net.cpp:438] inception_4b/output -> inception_4b/output
I0822 16:52:29.093188  9939 net.cpp:155] Setting up inception_4b/output
I0822 16:52:29.093191  9939 net.cpp:163] Top shape: 128 512 14 14 (12845056)
I0822 16:52:29.093194  9939 layer_factory.hpp:76] Creating layer inception_4b/output_inception_4b/output_0_split
I0822 16:52:29.093199  9939 net.cpp:110] Creating Layer inception_4b/output_inception_4b/output_0_split
I0822 16:52:29.093200  9939 net.cpp:485] inception_4b/output_inception_4b/output_0_split <- inception_4b/output
I0822 16:52:29.093205  9939 net.cpp:438] inception_4b/output_inception_4b/output_0_split -> inception_4b/output_inception_4b/output_0_split_0
I0822 16:52:29.093210  9939 net.cpp:438] inception_4b/output_inception_4b/output_0_split -> inception_4b/output_inception_4b/output_0_split_1
I0822 16:52:29.093215  9939 net.cpp:438] inception_4b/output_inception_4b/output_0_split -> inception_4b/output_inception_4b/output_0_split_2
I0822 16:52:29.093219  9939 net.cpp:438] inception_4b/output_inception_4b/output_0_split -> inception_4b/output_inception_4b/output_0_split_3
I0822 16:52:29.093231  9939 net.cpp:155] Setting up inception_4b/output_inception_4b/output_0_split
I0822 16:52:29.093235  9939 net.cpp:163] Top shape: 128 512 14 14 (12845056)
I0822 16:52:29.093238  9939 net.cpp:163] Top shape: 128 512 14 14 (12845056)
I0822 16:52:29.093241  9939 net.cpp:163] Top shape: 128 512 14 14 (12845056)
I0822 16:52:29.093245  9939 net.cpp:163] Top shape: 128 512 14 14 (12845056)
I0822 16:52:29.093248  9939 layer_factory.hpp:76] Creating layer inception_4c/1x1
I0822 16:52:29.093253  9939 net.cpp:110] Creating Layer inception_4c/1x1
I0822 16:52:29.093258  9939 net.cpp:485] inception_4c/1x1 <- inception_4b/output_inception_4b/output_0_split_0
I0822 16:52:29.093263  9939 net.cpp:438] inception_4c/1x1 -> inception_4c/1x1
I0822 16:52:29.093675  9939 net.cpp:155] Setting up inception_4c/1x1
I0822 16:52:29.093682  9939 net.cpp:163] Top shape: 128 128 14 14 (3211264)
I0822 16:52:29.093686  9939 layer_factory.hpp:76] Creating layer inception_4c/relu_1x1
I0822 16:52:29.093690  9939 net.cpp:110] Creating Layer inception_4c/relu_1x1
I0822 16:52:29.093693  9939 net.cpp:485] inception_4c/relu_1x1 <- inception_4c/1x1
I0822 16:52:29.093698  9939 net.cpp:425] inception_4c/relu_1x1 -> inception_4c/1x1 (in-place)
I0822 16:52:29.093703  9939 net.cpp:155] Setting up inception_4c/relu_1x1
I0822 16:52:29.093706  9939 net.cpp:163] Top shape: 128 128 14 14 (3211264)
I0822 16:52:29.093709  9939 layer_factory.hpp:76] Creating layer inception_4c/3x3_reduce
I0822 16:52:29.093713  9939 net.cpp:110] Creating Layer inception_4c/3x3_reduce
I0822 16:52:29.093716  9939 net.cpp:485] inception_4c/3x3_reduce <- inception_4b/output_inception_4b/output_0_split_1
I0822 16:52:29.093721  9939 net.cpp:438] inception_4c/3x3_reduce -> inception_4c/3x3_reduce
I0822 16:52:29.094131  9939 net.cpp:155] Setting up inception_4c/3x3_reduce
I0822 16:52:29.094137  9939 net.cpp:163] Top shape: 128 128 14 14 (3211264)
I0822 16:52:29.094141  9939 layer_factory.hpp:76] Creating layer inception_4c/relu_3x3_reduce
I0822 16:52:29.094146  9939 net.cpp:110] Creating Layer inception_4c/relu_3x3_reduce
I0822 16:52:29.094149  9939 net.cpp:485] inception_4c/relu_3x3_reduce <- inception_4c/3x3_reduce
I0822 16:52:29.094153  9939 net.cpp:425] inception_4c/relu_3x3_reduce -> inception_4c/3x3_reduce (in-place)
I0822 16:52:29.094158  9939 net.cpp:155] Setting up inception_4c/relu_3x3_reduce
I0822 16:52:29.094161  9939 net.cpp:163] Top shape: 128 128 14 14 (3211264)
I0822 16:52:29.094164  9939 layer_factory.hpp:76] Creating layer inception_4c/3x3
I0822 16:52:29.094169  9939 net.cpp:110] Creating Layer inception_4c/3x3
I0822 16:52:29.094172  9939 net.cpp:485] inception_4c/3x3 <- inception_4c/3x3_reduce
I0822 16:52:29.094177  9939 net.cpp:438] inception_4c/3x3 -> inception_4c/3x3
I0822 16:52:29.095971  9939 net.cpp:155] Setting up inception_4c/3x3
I0822 16:52:29.095978  9939 net.cpp:163] Top shape: 128 256 14 14 (6422528)
I0822 16:52:29.095983  9939 layer_factory.hpp:76] Creating layer inception_4c/relu_3x3
I0822 16:52:29.095988  9939 net.cpp:110] Creating Layer inception_4c/relu_3x3
I0822 16:52:29.095990  9939 net.cpp:485] inception_4c/relu_3x3 <- inception_4c/3x3
I0822 16:52:29.095994  9939 net.cpp:425] inception_4c/relu_3x3 -> inception_4c/3x3 (in-place)
I0822 16:52:29.096000  9939 net.cpp:155] Setting up inception_4c/relu_3x3
I0822 16:52:29.096004  9939 net.cpp:163] Top shape: 128 256 14 14 (6422528)
I0822 16:52:29.096006  9939 layer_factory.hpp:76] Creating layer inception_4c/5x5_reduce
I0822 16:52:29.096011  9939 net.cpp:110] Creating Layer inception_4c/5x5_reduce
I0822 16:52:29.096014  9939 net.cpp:485] inception_4c/5x5_reduce <- inception_4b/output_inception_4b/output_0_split_2
I0822 16:52:29.096019  9939 net.cpp:438] inception_4c/5x5_reduce -> inception_4c/5x5_reduce
I0822 16:52:29.096117  9939 net.cpp:155] Setting up inception_4c/5x5_reduce
I0822 16:52:29.096122  9939 net.cpp:163] Top shape: 128 24 14 14 (602112)
I0822 16:52:29.096125  9939 layer_factory.hpp:76] Creating layer inception_4c/relu_5x5_reduce
I0822 16:52:29.096129  9939 net.cpp:110] Creating Layer inception_4c/relu_5x5_reduce
I0822 16:52:29.096132  9939 net.cpp:485] inception_4c/relu_5x5_reduce <- inception_4c/5x5_reduce
I0822 16:52:29.096137  9939 net.cpp:425] inception_4c/relu_5x5_reduce -> inception_4c/5x5_reduce (in-place)
I0822 16:52:29.096142  9939 net.cpp:155] Setting up inception_4c/relu_5x5_reduce
I0822 16:52:29.096145  9939 net.cpp:163] Top shape: 128 24 14 14 (602112)
I0822 16:52:29.096148  9939 layer_factory.hpp:76] Creating layer inception_4c/5x5
I0822 16:52:29.096153  9939 net.cpp:110] Creating Layer inception_4c/5x5
I0822 16:52:29.096158  9939 net.cpp:485] inception_4c/5x5 <- inception_4c/5x5_reduce
I0822 16:52:29.096163  9939 net.cpp:438] inception_4c/5x5 -> inception_4c/5x5
I0822 16:52:29.096415  9939 net.cpp:155] Setting up inception_4c/5x5
I0822 16:52:29.096420  9939 net.cpp:163] Top shape: 128 64 14 14 (1605632)
I0822 16:52:29.096424  9939 layer_factory.hpp:76] Creating layer inception_4c/relu_5x5
I0822 16:52:29.096428  9939 net.cpp:110] Creating Layer inception_4c/relu_5x5
I0822 16:52:29.096432  9939 net.cpp:485] inception_4c/relu_5x5 <- inception_4c/5x5
I0822 16:52:29.096436  9939 net.cpp:425] inception_4c/relu_5x5 -> inception_4c/5x5 (in-place)
I0822 16:52:29.096441  9939 net.cpp:155] Setting up inception_4c/relu_5x5
I0822 16:52:29.096444  9939 net.cpp:163] Top shape: 128 64 14 14 (1605632)
I0822 16:52:29.096447  9939 layer_factory.hpp:76] Creating layer inception_4c/pool
I0822 16:52:29.096451  9939 net.cpp:110] Creating Layer inception_4c/pool
I0822 16:52:29.096454  9939 net.cpp:485] inception_4c/pool <- inception_4b/output_inception_4b/output_0_split_3
I0822 16:52:29.096458  9939 net.cpp:438] inception_4c/pool -> inception_4c/pool
I0822 16:52:29.096470  9939 net.cpp:155] Setting up inception_4c/pool
I0822 16:52:29.096475  9939 net.cpp:163] Top shape: 128 512 14 14 (12845056)
I0822 16:52:29.096477  9939 layer_factory.hpp:76] Creating layer inception_4c/pool_proj
I0822 16:52:29.096482  9939 net.cpp:110] Creating Layer inception_4c/pool_proj
I0822 16:52:29.096485  9939 net.cpp:485] inception_4c/pool_proj <- inception_4c/pool
I0822 16:52:29.096490  9939 net.cpp:438] inception_4c/pool_proj -> inception_4c/pool_proj
I0822 16:52:29.096706  9939 net.cpp:155] Setting up inception_4c/pool_proj
I0822 16:52:29.096712  9939 net.cpp:163] Top shape: 128 64 14 14 (1605632)
I0822 16:52:29.096720  9939 layer_factory.hpp:76] Creating layer inception_4c/relu_pool_proj
I0822 16:52:29.096724  9939 net.cpp:110] Creating Layer inception_4c/relu_pool_proj
I0822 16:52:29.096727  9939 net.cpp:485] inception_4c/relu_pool_proj <- inception_4c/pool_proj
I0822 16:52:29.096731  9939 net.cpp:425] inception_4c/relu_pool_proj -> inception_4c/pool_proj (in-place)
I0822 16:52:29.096737  9939 net.cpp:155] Setting up inception_4c/relu_pool_proj
I0822 16:52:29.096740  9939 net.cpp:163] Top shape: 128 64 14 14 (1605632)
I0822 16:52:29.096743  9939 layer_factory.hpp:76] Creating layer inception_4c/output
I0822 16:52:29.096747  9939 net.cpp:110] Creating Layer inception_4c/output
I0822 16:52:29.096750  9939 net.cpp:485] inception_4c/output <- inception_4c/1x1
I0822 16:52:29.096753  9939 net.cpp:485] inception_4c/output <- inception_4c/3x3
I0822 16:52:29.096757  9939 net.cpp:485] inception_4c/output <- inception_4c/5x5
I0822 16:52:29.096760  9939 net.cpp:485] inception_4c/output <- inception_4c/pool_proj
I0822 16:52:29.096765  9939 net.cpp:438] inception_4c/output -> inception_4c/output
I0822 16:52:29.096773  9939 net.cpp:155] Setting up inception_4c/output
I0822 16:52:29.096777  9939 net.cpp:163] Top shape: 128 512 14 14 (12845056)
I0822 16:52:29.096781  9939 layer_factory.hpp:76] Creating layer inception_4c/output_inception_4c/output_0_split
I0822 16:52:29.096784  9939 net.cpp:110] Creating Layer inception_4c/output_inception_4c/output_0_split
I0822 16:52:29.096787  9939 net.cpp:485] inception_4c/output_inception_4c/output_0_split <- inception_4c/output
I0822 16:52:29.096791  9939 net.cpp:438] inception_4c/output_inception_4c/output_0_split -> inception_4c/output_inception_4c/output_0_split_0
I0822 16:52:29.096796  9939 net.cpp:438] inception_4c/output_inception_4c/output_0_split -> inception_4c/output_inception_4c/output_0_split_1
I0822 16:52:29.096801  9939 net.cpp:438] inception_4c/output_inception_4c/output_0_split -> inception_4c/output_inception_4c/output_0_split_2
I0822 16:52:29.096807  9939 net.cpp:438] inception_4c/output_inception_4c/output_0_split -> inception_4c/output_inception_4c/output_0_split_3
I0822 16:52:29.096819  9939 net.cpp:155] Setting up inception_4c/output_inception_4c/output_0_split
I0822 16:52:29.096823  9939 net.cpp:163] Top shape: 128 512 14 14 (12845056)
I0822 16:52:29.096829  9939 net.cpp:163] Top shape: 128 512 14 14 (12845056)
I0822 16:52:29.096833  9939 net.cpp:163] Top shape: 128 512 14 14 (12845056)
I0822 16:52:29.096837  9939 net.cpp:163] Top shape: 128 512 14 14 (12845056)
I0822 16:52:29.096839  9939 layer_factory.hpp:76] Creating layer inception_4d/1x1
I0822 16:52:29.096844  9939 net.cpp:110] Creating Layer inception_4d/1x1
I0822 16:52:29.096848  9939 net.cpp:485] inception_4d/1x1 <- inception_4c/output_inception_4c/output_0_split_0
I0822 16:52:29.096851  9939 net.cpp:438] inception_4d/1x1 -> inception_4d/1x1
I0822 16:52:29.097213  9939 net.cpp:155] Setting up inception_4d/1x1
I0822 16:52:29.097219  9939 net.cpp:163] Top shape: 128 112 14 14 (2809856)
I0822 16:52:29.097224  9939 layer_factory.hpp:76] Creating layer inception_4d/relu_1x1
I0822 16:52:29.097229  9939 net.cpp:110] Creating Layer inception_4d/relu_1x1
I0822 16:52:29.097231  9939 net.cpp:485] inception_4d/relu_1x1 <- inception_4d/1x1
I0822 16:52:29.097235  9939 net.cpp:425] inception_4d/relu_1x1 -> inception_4d/1x1 (in-place)
I0822 16:52:29.097240  9939 net.cpp:155] Setting up inception_4d/relu_1x1
I0822 16:52:29.097244  9939 net.cpp:163] Top shape: 128 112 14 14 (2809856)
I0822 16:52:29.097247  9939 layer_factory.hpp:76] Creating layer inception_4d/3x3_reduce
I0822 16:52:29.097252  9939 net.cpp:110] Creating Layer inception_4d/3x3_reduce
I0822 16:52:29.097255  9939 net.cpp:485] inception_4d/3x3_reduce <- inception_4c/output_inception_4c/output_0_split_1
I0822 16:52:29.097259  9939 net.cpp:438] inception_4d/3x3_reduce -> inception_4d/3x3_reduce
I0822 16:52:29.097718  9939 net.cpp:155] Setting up inception_4d/3x3_reduce
I0822 16:52:29.097724  9939 net.cpp:163] Top shape: 128 144 14 14 (3612672)
I0822 16:52:29.097728  9939 layer_factory.hpp:76] Creating layer inception_4d/relu_3x3_reduce
I0822 16:52:29.097733  9939 net.cpp:110] Creating Layer inception_4d/relu_3x3_reduce
I0822 16:52:29.097736  9939 net.cpp:485] inception_4d/relu_3x3_reduce <- inception_4d/3x3_reduce
I0822 16:52:29.097740  9939 net.cpp:425] inception_4d/relu_3x3_reduce -> inception_4d/3x3_reduce (in-place)
I0822 16:52:29.097745  9939 net.cpp:155] Setting up inception_4d/relu_3x3_reduce
I0822 16:52:29.097749  9939 net.cpp:163] Top shape: 128 144 14 14 (3612672)
I0822 16:52:29.097753  9939 layer_factory.hpp:76] Creating layer inception_4d/3x3
I0822 16:52:29.097757  9939 net.cpp:110] Creating Layer inception_4d/3x3
I0822 16:52:29.097760  9939 net.cpp:485] inception_4d/3x3 <- inception_4d/3x3_reduce
I0822 16:52:29.097764  9939 net.cpp:438] inception_4d/3x3 -> inception_4d/3x3
I0822 16:52:29.100031  9939 net.cpp:155] Setting up inception_4d/3x3
I0822 16:52:29.100039  9939 net.cpp:163] Top shape: 128 288 14 14 (7225344)
I0822 16:52:29.100044  9939 layer_factory.hpp:76] Creating layer inception_4d/relu_3x3
I0822 16:52:29.100049  9939 net.cpp:110] Creating Layer inception_4d/relu_3x3
I0822 16:52:29.100051  9939 net.cpp:485] inception_4d/relu_3x3 <- inception_4d/3x3
I0822 16:52:29.100055  9939 net.cpp:425] inception_4d/relu_3x3 -> inception_4d/3x3 (in-place)
I0822 16:52:29.100061  9939 net.cpp:155] Setting up inception_4d/relu_3x3
I0822 16:52:29.100065  9939 net.cpp:163] Top shape: 128 288 14 14 (7225344)
I0822 16:52:29.100069  9939 layer_factory.hpp:76] Creating layer inception_4d/5x5_reduce
I0822 16:52:29.100074  9939 net.cpp:110] Creating Layer inception_4d/5x5_reduce
I0822 16:52:29.100077  9939 net.cpp:485] inception_4d/5x5_reduce <- inception_4c/output_inception_4c/output_0_split_2
I0822 16:52:29.100081  9939 net.cpp:438] inception_4d/5x5_reduce -> inception_4d/5x5_reduce
I0822 16:52:29.100215  9939 net.cpp:155] Setting up inception_4d/5x5_reduce
I0822 16:52:29.100220  9939 net.cpp:163] Top shape: 128 32 14 14 (802816)
I0822 16:52:29.100225  9939 layer_factory.hpp:76] Creating layer inception_4d/relu_5x5_reduce
I0822 16:52:29.100229  9939 net.cpp:110] Creating Layer inception_4d/relu_5x5_reduce
I0822 16:52:29.100232  9939 net.cpp:485] inception_4d/relu_5x5_reduce <- inception_4d/5x5_reduce
I0822 16:52:29.100239  9939 net.cpp:425] inception_4d/relu_5x5_reduce -> inception_4d/5x5_reduce (in-place)
I0822 16:52:29.100245  9939 net.cpp:155] Setting up inception_4d/relu_5x5_reduce
I0822 16:52:29.100250  9939 net.cpp:163] Top shape: 128 32 14 14 (802816)
I0822 16:52:29.100252  9939 layer_factory.hpp:76] Creating layer inception_4d/5x5
I0822 16:52:29.100257  9939 net.cpp:110] Creating Layer inception_4d/5x5
I0822 16:52:29.100260  9939 net.cpp:485] inception_4d/5x5 <- inception_4d/5x5_reduce
I0822 16:52:29.100265  9939 net.cpp:438] inception_4d/5x5 -> inception_4d/5x5
I0822 16:52:29.100594  9939 net.cpp:155] Setting up inception_4d/5x5
I0822 16:52:29.100599  9939 net.cpp:163] Top shape: 128 64 14 14 (1605632)
I0822 16:52:29.100603  9939 layer_factory.hpp:76] Creating layer inception_4d/relu_5x5
I0822 16:52:29.100608  9939 net.cpp:110] Creating Layer inception_4d/relu_5x5
I0822 16:52:29.100611  9939 net.cpp:485] inception_4d/relu_5x5 <- inception_4d/5x5
I0822 16:52:29.100615  9939 net.cpp:425] inception_4d/relu_5x5 -> inception_4d/5x5 (in-place)
I0822 16:52:29.100620  9939 net.cpp:155] Setting up inception_4d/relu_5x5
I0822 16:52:29.100623  9939 net.cpp:163] Top shape: 128 64 14 14 (1605632)
I0822 16:52:29.100626  9939 layer_factory.hpp:76] Creating layer inception_4d/pool
I0822 16:52:29.100631  9939 net.cpp:110] Creating Layer inception_4d/pool
I0822 16:52:29.100635  9939 net.cpp:485] inception_4d/pool <- inception_4c/output_inception_4c/output_0_split_3
I0822 16:52:29.100638  9939 net.cpp:438] inception_4d/pool -> inception_4d/pool
I0822 16:52:29.100649  9939 net.cpp:155] Setting up inception_4d/pool
I0822 16:52:29.100653  9939 net.cpp:163] Top shape: 128 512 14 14 (12845056)
I0822 16:52:29.100656  9939 layer_factory.hpp:76] Creating layer inception_4d/pool_proj
I0822 16:52:29.100661  9939 net.cpp:110] Creating Layer inception_4d/pool_proj
I0822 16:52:29.100664  9939 net.cpp:485] inception_4d/pool_proj <- inception_4d/pool
I0822 16:52:29.100668  9939 net.cpp:438] inception_4d/pool_proj -> inception_4d/pool_proj
I0822 16:52:29.100885  9939 net.cpp:155] Setting up inception_4d/pool_proj
I0822 16:52:29.100891  9939 net.cpp:163] Top shape: 128 64 14 14 (1605632)
I0822 16:52:29.100895  9939 layer_factory.hpp:76] Creating layer inception_4d/relu_pool_proj
I0822 16:52:29.100900  9939 net.cpp:110] Creating Layer inception_4d/relu_pool_proj
I0822 16:52:29.100903  9939 net.cpp:485] inception_4d/relu_pool_proj <- inception_4d/pool_proj
I0822 16:52:29.100906  9939 net.cpp:425] inception_4d/relu_pool_proj -> inception_4d/pool_proj (in-place)
I0822 16:52:29.100911  9939 net.cpp:155] Setting up inception_4d/relu_pool_proj
I0822 16:52:29.100915  9939 net.cpp:163] Top shape: 128 64 14 14 (1605632)
I0822 16:52:29.100919  9939 layer_factory.hpp:76] Creating layer inception_4d/output
I0822 16:52:29.100922  9939 net.cpp:110] Creating Layer inception_4d/output
I0822 16:52:29.100925  9939 net.cpp:485] inception_4d/output <- inception_4d/1x1
I0822 16:52:29.100929  9939 net.cpp:485] inception_4d/output <- inception_4d/3x3
I0822 16:52:29.100932  9939 net.cpp:485] inception_4d/output <- inception_4d/5x5
I0822 16:52:29.100935  9939 net.cpp:485] inception_4d/output <- inception_4d/pool_proj
I0822 16:52:29.100939  9939 net.cpp:438] inception_4d/output -> inception_4d/output
I0822 16:52:29.100947  9939 net.cpp:155] Setting up inception_4d/output
I0822 16:52:29.100951  9939 net.cpp:163] Top shape: 128 528 14 14 (13246464)
I0822 16:52:29.100955  9939 layer_factory.hpp:76] Creating layer inception_4d/output_inception_4d/output_0_split
I0822 16:52:29.100960  9939 net.cpp:110] Creating Layer inception_4d/output_inception_4d/output_0_split
I0822 16:52:29.100962  9939 net.cpp:485] inception_4d/output_inception_4d/output_0_split <- inception_4d/output
I0822 16:52:29.100965  9939 net.cpp:438] inception_4d/output_inception_4d/output_0_split -> inception_4d/output_inception_4d/output_0_split_0
I0822 16:52:29.100970  9939 net.cpp:438] inception_4d/output_inception_4d/output_0_split -> inception_4d/output_inception_4d/output_0_split_1
I0822 16:52:29.100975  9939 net.cpp:438] inception_4d/output_inception_4d/output_0_split -> inception_4d/output_inception_4d/output_0_split_2
I0822 16:52:29.100983  9939 net.cpp:438] inception_4d/output_inception_4d/output_0_split -> inception_4d/output_inception_4d/output_0_split_3
I0822 16:52:29.100996  9939 net.cpp:155] Setting up inception_4d/output_inception_4d/output_0_split
I0822 16:52:29.100999  9939 net.cpp:163] Top shape: 128 528 14 14 (13246464)
I0822 16:52:29.101002  9939 net.cpp:163] Top shape: 128 528 14 14 (13246464)
I0822 16:52:29.101006  9939 net.cpp:163] Top shape: 128 528 14 14 (13246464)
I0822 16:52:29.101008  9939 net.cpp:163] Top shape: 128 528 14 14 (13246464)
I0822 16:52:29.101011  9939 layer_factory.hpp:76] Creating layer inception_4e/1x1
I0822 16:52:29.101017  9939 net.cpp:110] Creating Layer inception_4e/1x1
I0822 16:52:29.101021  9939 net.cpp:485] inception_4e/1x1 <- inception_4d/output_inception_4d/output_0_split_0
I0822 16:52:29.101024  9939 net.cpp:438] inception_4e/1x1 -> inception_4e/1x1
I0822 16:52:29.101843  9939 net.cpp:155] Setting up inception_4e/1x1
I0822 16:52:29.101850  9939 net.cpp:163] Top shape: 128 256 14 14 (6422528)
I0822 16:52:29.101855  9939 layer_factory.hpp:76] Creating layer inception_4e/relu_1x1
I0822 16:52:29.101858  9939 net.cpp:110] Creating Layer inception_4e/relu_1x1
I0822 16:52:29.101861  9939 net.cpp:485] inception_4e/relu_1x1 <- inception_4e/1x1
I0822 16:52:29.101866  9939 net.cpp:425] inception_4e/relu_1x1 -> inception_4e/1x1 (in-place)
I0822 16:52:29.101871  9939 net.cpp:155] Setting up inception_4e/relu_1x1
I0822 16:52:29.101874  9939 net.cpp:163] Top shape: 128 256 14 14 (6422528)
I0822 16:52:29.101877  9939 layer_factory.hpp:76] Creating layer inception_4e/3x3_reduce
I0822 16:52:29.101882  9939 net.cpp:110] Creating Layer inception_4e/3x3_reduce
I0822 16:52:29.101886  9939 net.cpp:485] inception_4e/3x3_reduce <- inception_4d/output_inception_4d/output_0_split_1
I0822 16:52:29.101889  9939 net.cpp:438] inception_4e/3x3_reduce -> inception_4e/3x3_reduce
I0822 16:52:29.102414  9939 net.cpp:155] Setting up inception_4e/3x3_reduce
I0822 16:52:29.102419  9939 net.cpp:163] Top shape: 128 160 14 14 (4014080)
I0822 16:52:29.102424  9939 layer_factory.hpp:76] Creating layer inception_4e/relu_3x3_reduce
I0822 16:52:29.102429  9939 net.cpp:110] Creating Layer inception_4e/relu_3x3_reduce
I0822 16:52:29.102432  9939 net.cpp:485] inception_4e/relu_3x3_reduce <- inception_4e/3x3_reduce
I0822 16:52:29.102437  9939 net.cpp:425] inception_4e/relu_3x3_reduce -> inception_4e/3x3_reduce (in-place)
I0822 16:52:29.102442  9939 net.cpp:155] Setting up inception_4e/relu_3x3_reduce
I0822 16:52:29.102445  9939 net.cpp:163] Top shape: 128 160 14 14 (4014080)
I0822 16:52:29.102448  9939 layer_factory.hpp:76] Creating layer inception_4e/3x3
I0822 16:52:29.102453  9939 net.cpp:110] Creating Layer inception_4e/3x3
I0822 16:52:29.102457  9939 net.cpp:485] inception_4e/3x3 <- inception_4e/3x3_reduce
I0822 16:52:29.102460  9939 net.cpp:438] inception_4e/3x3 -> inception_4e/3x3
I0822 16:52:29.105226  9939 net.cpp:155] Setting up inception_4e/3x3
I0822 16:52:29.105233  9939 net.cpp:163] Top shape: 128 320 14 14 (8028160)
I0822 16:52:29.105238  9939 layer_factory.hpp:76] Creating layer inception_4e/relu_3x3
I0822 16:52:29.105243  9939 net.cpp:110] Creating Layer inception_4e/relu_3x3
I0822 16:52:29.105247  9939 net.cpp:485] inception_4e/relu_3x3 <- inception_4e/3x3
I0822 16:52:29.105250  9939 net.cpp:425] inception_4e/relu_3x3 -> inception_4e/3x3 (in-place)
I0822 16:52:29.105255  9939 net.cpp:155] Setting up inception_4e/relu_3x3
I0822 16:52:29.105259  9939 net.cpp:163] Top shape: 128 320 14 14 (8028160)
I0822 16:52:29.105262  9939 layer_factory.hpp:76] Creating layer inception_4e/5x5_reduce
I0822 16:52:29.105268  9939 net.cpp:110] Creating Layer inception_4e/5x5_reduce
I0822 16:52:29.105270  9939 net.cpp:485] inception_4e/5x5_reduce <- inception_4d/output_inception_4d/output_0_split_2
I0822 16:52:29.105275  9939 net.cpp:438] inception_4e/5x5_reduce -> inception_4e/5x5_reduce
I0822 16:52:29.105397  9939 net.cpp:155] Setting up inception_4e/5x5_reduce
I0822 16:52:29.105406  9939 net.cpp:163] Top shape: 128 32 14 14 (802816)
I0822 16:52:29.105411  9939 layer_factory.hpp:76] Creating layer inception_4e/relu_5x5_reduce
I0822 16:52:29.105415  9939 net.cpp:110] Creating Layer inception_4e/relu_5x5_reduce
I0822 16:52:29.105418  9939 net.cpp:485] inception_4e/relu_5x5_reduce <- inception_4e/5x5_reduce
I0822 16:52:29.105422  9939 net.cpp:425] inception_4e/relu_5x5_reduce -> inception_4e/5x5_reduce (in-place)
I0822 16:52:29.105427  9939 net.cpp:155] Setting up inception_4e/relu_5x5_reduce
I0822 16:52:29.105432  9939 net.cpp:163] Top shape: 128 32 14 14 (802816)
I0822 16:52:29.105433  9939 layer_factory.hpp:76] Creating layer inception_4e/5x5
I0822 16:52:29.105439  9939 net.cpp:110] Creating Layer inception_4e/5x5
I0822 16:52:29.105442  9939 net.cpp:485] inception_4e/5x5 <- inception_4e/5x5_reduce
I0822 16:52:29.105447  9939 net.cpp:438] inception_4e/5x5 -> inception_4e/5x5
I0822 16:52:29.106076  9939 net.cpp:155] Setting up inception_4e/5x5
I0822 16:52:29.106081  9939 net.cpp:163] Top shape: 128 128 14 14 (3211264)
I0822 16:52:29.106086  9939 layer_factory.hpp:76] Creating layer inception_4e/relu_5x5
I0822 16:52:29.106091  9939 net.cpp:110] Creating Layer inception_4e/relu_5x5
I0822 16:52:29.106094  9939 net.cpp:485] inception_4e/relu_5x5 <- inception_4e/5x5
I0822 16:52:29.106098  9939 net.cpp:425] inception_4e/relu_5x5 -> inception_4e/5x5 (in-place)
I0822 16:52:29.106103  9939 net.cpp:155] Setting up inception_4e/relu_5x5
I0822 16:52:29.106106  9939 net.cpp:163] Top shape: 128 128 14 14 (3211264)
I0822 16:52:29.106109  9939 layer_factory.hpp:76] Creating layer inception_4e/pool
I0822 16:52:29.106114  9939 net.cpp:110] Creating Layer inception_4e/pool
I0822 16:52:29.106117  9939 net.cpp:485] inception_4e/pool <- inception_4d/output_inception_4d/output_0_split_3
I0822 16:52:29.106122  9939 net.cpp:438] inception_4e/pool -> inception_4e/pool
I0822 16:52:29.106132  9939 net.cpp:155] Setting up inception_4e/pool
I0822 16:52:29.106137  9939 net.cpp:163] Top shape: 128 528 14 14 (13246464)
I0822 16:52:29.106139  9939 layer_factory.hpp:76] Creating layer inception_4e/pool_proj
I0822 16:52:29.106145  9939 net.cpp:110] Creating Layer inception_4e/pool_proj
I0822 16:52:29.106148  9939 net.cpp:485] inception_4e/pool_proj <- inception_4e/pool
I0822 16:52:29.106153  9939 net.cpp:438] inception_4e/pool_proj -> inception_4e/pool_proj
I0822 16:52:29.106575  9939 net.cpp:155] Setting up inception_4e/pool_proj
I0822 16:52:29.106580  9939 net.cpp:163] Top shape: 128 128 14 14 (3211264)
I0822 16:52:29.106585  9939 layer_factory.hpp:76] Creating layer inception_4e/relu_pool_proj
I0822 16:52:29.106590  9939 net.cpp:110] Creating Layer inception_4e/relu_pool_proj
I0822 16:52:29.106593  9939 net.cpp:485] inception_4e/relu_pool_proj <- inception_4e/pool_proj
I0822 16:52:29.106597  9939 net.cpp:425] inception_4e/relu_pool_proj -> inception_4e/pool_proj (in-place)
I0822 16:52:29.106602  9939 net.cpp:155] Setting up inception_4e/relu_pool_proj
I0822 16:52:29.106606  9939 net.cpp:163] Top shape: 128 128 14 14 (3211264)
I0822 16:52:29.106608  9939 layer_factory.hpp:76] Creating layer inception_4e/output
I0822 16:52:29.106613  9939 net.cpp:110] Creating Layer inception_4e/output
I0822 16:52:29.106616  9939 net.cpp:485] inception_4e/output <- inception_4e/1x1
I0822 16:52:29.106619  9939 net.cpp:485] inception_4e/output <- inception_4e/3x3
I0822 16:52:29.106622  9939 net.cpp:485] inception_4e/output <- inception_4e/5x5
I0822 16:52:29.106626  9939 net.cpp:485] inception_4e/output <- inception_4e/pool_proj
I0822 16:52:29.106629  9939 net.cpp:438] inception_4e/output -> inception_4e/output
I0822 16:52:29.106638  9939 net.cpp:155] Setting up inception_4e/output
I0822 16:52:29.106642  9939 net.cpp:163] Top shape: 128 832 14 14 (20873216)
I0822 16:52:29.106644  9939 layer_factory.hpp:76] Creating layer pool4/3x3_s2
I0822 16:52:29.106649  9939 net.cpp:110] Creating Layer pool4/3x3_s2
I0822 16:52:29.106652  9939 net.cpp:485] pool4/3x3_s2 <- inception_4e/output
I0822 16:52:29.106657  9939 net.cpp:438] pool4/3x3_s2 -> pool4/3x3_s2
I0822 16:52:29.106669  9939 net.cpp:155] Setting up pool4/3x3_s2
I0822 16:52:29.106674  9939 net.cpp:163] Top shape: 128 832 7 7 (5218304)
I0822 16:52:29.106678  9939 layer_factory.hpp:76] Creating layer pool4/3x3_s2_pool4/3x3_s2_0_split
I0822 16:52:29.106681  9939 net.cpp:110] Creating Layer pool4/3x3_s2_pool4/3x3_s2_0_split
I0822 16:52:29.106684  9939 net.cpp:485] pool4/3x3_s2_pool4/3x3_s2_0_split <- pool4/3x3_s2
I0822 16:52:29.106688  9939 net.cpp:438] pool4/3x3_s2_pool4/3x3_s2_0_split -> pool4/3x3_s2_pool4/3x3_s2_0_split_0
I0822 16:52:29.106693  9939 net.cpp:438] pool4/3x3_s2_pool4/3x3_s2_0_split -> pool4/3x3_s2_pool4/3x3_s2_0_split_1
I0822 16:52:29.106699  9939 net.cpp:438] pool4/3x3_s2_pool4/3x3_s2_0_split -> pool4/3x3_s2_pool4/3x3_s2_0_split_2
I0822 16:52:29.106703  9939 net.cpp:438] pool4/3x3_s2_pool4/3x3_s2_0_split -> pool4/3x3_s2_pool4/3x3_s2_0_split_3
I0822 16:52:29.106731  9939 net.cpp:155] Setting up pool4/3x3_s2_pool4/3x3_s2_0_split
I0822 16:52:29.106736  9939 net.cpp:163] Top shape: 128 832 7 7 (5218304)
I0822 16:52:29.106740  9939 net.cpp:163] Top shape: 128 832 7 7 (5218304)
I0822 16:52:29.106744  9939 net.cpp:163] Top shape: 128 832 7 7 (5218304)
I0822 16:52:29.106747  9939 net.cpp:163] Top shape: 128 832 7 7 (5218304)
I0822 16:52:29.106750  9939 layer_factory.hpp:76] Creating layer inception_5a/1x1
I0822 16:52:29.106756  9939 net.cpp:110] Creating Layer inception_5a/1x1
I0822 16:52:29.106760  9939 net.cpp:485] inception_5a/1x1 <- pool4/3x3_s2_pool4/3x3_s2_0_split_0
I0822 16:52:29.106765  9939 net.cpp:438] inception_5a/1x1 -> inception_5a/1x1
I0822 16:52:29.108057  9939 net.cpp:155] Setting up inception_5a/1x1
I0822 16:52:29.108062  9939 net.cpp:163] Top shape: 128 256 7 7 (1605632)
I0822 16:52:29.108067  9939 layer_factory.hpp:76] Creating layer inception_5a/relu_1x1
I0822 16:52:29.108072  9939 net.cpp:110] Creating Layer inception_5a/relu_1x1
I0822 16:52:29.108075  9939 net.cpp:485] inception_5a/relu_1x1 <- inception_5a/1x1
I0822 16:52:29.108079  9939 net.cpp:425] inception_5a/relu_1x1 -> inception_5a/1x1 (in-place)
I0822 16:52:29.108084  9939 net.cpp:155] Setting up inception_5a/relu_1x1
I0822 16:52:29.108088  9939 net.cpp:163] Top shape: 128 256 7 7 (1605632)
I0822 16:52:29.108091  9939 layer_factory.hpp:76] Creating layer inception_5a/3x3_reduce
I0822 16:52:29.108096  9939 net.cpp:110] Creating Layer inception_5a/3x3_reduce
I0822 16:52:29.108099  9939 net.cpp:485] inception_5a/3x3_reduce <- pool4/3x3_s2_pool4/3x3_s2_0_split_1
I0822 16:52:29.108104  9939 net.cpp:438] inception_5a/3x3_reduce -> inception_5a/3x3_reduce
I0822 16:52:29.108916  9939 net.cpp:155] Setting up inception_5a/3x3_reduce
I0822 16:52:29.108922  9939 net.cpp:163] Top shape: 128 160 7 7 (1003520)
I0822 16:52:29.108927  9939 layer_factory.hpp:76] Creating layer inception_5a/relu_3x3_reduce
I0822 16:52:29.108932  9939 net.cpp:110] Creating Layer inception_5a/relu_3x3_reduce
I0822 16:52:29.108934  9939 net.cpp:485] inception_5a/relu_3x3_reduce <- inception_5a/3x3_reduce
I0822 16:52:29.108938  9939 net.cpp:425] inception_5a/relu_3x3_reduce -> inception_5a/3x3_reduce (in-place)
I0822 16:52:29.108943  9939 net.cpp:155] Setting up inception_5a/relu_3x3_reduce
I0822 16:52:29.108947  9939 net.cpp:163] Top shape: 128 160 7 7 (1003520)
I0822 16:52:29.108950  9939 layer_factory.hpp:76] Creating layer inception_5a/3x3
I0822 16:52:29.108955  9939 net.cpp:110] Creating Layer inception_5a/3x3
I0822 16:52:29.108958  9939 net.cpp:485] inception_5a/3x3 <- inception_5a/3x3_reduce
I0822 16:52:29.108963  9939 net.cpp:438] inception_5a/3x3 -> inception_5a/3x3
I0822 16:52:29.111729  9939 net.cpp:155] Setting up inception_5a/3x3
I0822 16:52:29.111735  9939 net.cpp:163] Top shape: 128 320 7 7 (2007040)
I0822 16:52:29.111742  9939 layer_factory.hpp:76] Creating layer inception_5a/relu_3x3
I0822 16:52:29.111745  9939 net.cpp:110] Creating Layer inception_5a/relu_3x3
I0822 16:52:29.111748  9939 net.cpp:485] inception_5a/relu_3x3 <- inception_5a/3x3
I0822 16:52:29.111752  9939 net.cpp:425] inception_5a/relu_3x3 -> inception_5a/3x3 (in-place)
I0822 16:52:29.111762  9939 net.cpp:155] Setting up inception_5a/relu_3x3
I0822 16:52:29.111765  9939 net.cpp:163] Top shape: 128 320 7 7 (2007040)
I0822 16:52:29.111768  9939 layer_factory.hpp:76] Creating layer inception_5a/5x5_reduce
I0822 16:52:29.111774  9939 net.cpp:110] Creating Layer inception_5a/5x5_reduce
I0822 16:52:29.111778  9939 net.cpp:485] inception_5a/5x5_reduce <- pool4/3x3_s2_pool4/3x3_s2_0_split_2
I0822 16:52:29.111783  9939 net.cpp:438] inception_5a/5x5_reduce -> inception_5a/5x5_reduce
I0822 16:52:29.111964  9939 net.cpp:155] Setting up inception_5a/5x5_reduce
I0822 16:52:29.111969  9939 net.cpp:163] Top shape: 128 32 7 7 (200704)
I0822 16:52:29.111974  9939 layer_factory.hpp:76] Creating layer inception_5a/relu_5x5_reduce
I0822 16:52:29.111979  9939 net.cpp:110] Creating Layer inception_5a/relu_5x5_reduce
I0822 16:52:29.111981  9939 net.cpp:485] inception_5a/relu_5x5_reduce <- inception_5a/5x5_reduce
I0822 16:52:29.111985  9939 net.cpp:425] inception_5a/relu_5x5_reduce -> inception_5a/5x5_reduce (in-place)
I0822 16:52:29.111990  9939 net.cpp:155] Setting up inception_5a/relu_5x5_reduce
I0822 16:52:29.111994  9939 net.cpp:163] Top shape: 128 32 7 7 (200704)
I0822 16:52:29.111997  9939 layer_factory.hpp:76] Creating layer inception_5a/5x5
I0822 16:52:29.112002  9939 net.cpp:110] Creating Layer inception_5a/5x5
I0822 16:52:29.112005  9939 net.cpp:485] inception_5a/5x5 <- inception_5a/5x5_reduce
I0822 16:52:29.112010  9939 net.cpp:438] inception_5a/5x5 -> inception_5a/5x5
I0822 16:52:29.112638  9939 net.cpp:155] Setting up inception_5a/5x5
I0822 16:52:29.112643  9939 net.cpp:163] Top shape: 128 128 7 7 (802816)
I0822 16:52:29.112648  9939 layer_factory.hpp:76] Creating layer inception_5a/relu_5x5
I0822 16:52:29.112653  9939 net.cpp:110] Creating Layer inception_5a/relu_5x5
I0822 16:52:29.112656  9939 net.cpp:485] inception_5a/relu_5x5 <- inception_5a/5x5
I0822 16:52:29.112660  9939 net.cpp:425] inception_5a/relu_5x5 -> inception_5a/5x5 (in-place)
I0822 16:52:29.112665  9939 net.cpp:155] Setting up inception_5a/relu_5x5
I0822 16:52:29.112668  9939 net.cpp:163] Top shape: 128 128 7 7 (802816)
I0822 16:52:29.112671  9939 layer_factory.hpp:76] Creating layer inception_5a/pool
I0822 16:52:29.112676  9939 net.cpp:110] Creating Layer inception_5a/pool
I0822 16:52:29.112679  9939 net.cpp:485] inception_5a/pool <- pool4/3x3_s2_pool4/3x3_s2_0_split_3
I0822 16:52:29.112684  9939 net.cpp:438] inception_5a/pool -> inception_5a/pool
I0822 16:52:29.112694  9939 net.cpp:155] Setting up inception_5a/pool
I0822 16:52:29.112699  9939 net.cpp:163] Top shape: 128 832 7 7 (5218304)
I0822 16:52:29.112701  9939 layer_factory.hpp:76] Creating layer inception_5a/pool_proj
I0822 16:52:29.112706  9939 net.cpp:110] Creating Layer inception_5a/pool_proj
I0822 16:52:29.112709  9939 net.cpp:485] inception_5a/pool_proj <- inception_5a/pool
I0822 16:52:29.112714  9939 net.cpp:438] inception_5a/pool_proj -> inception_5a/pool_proj
I0822 16:52:29.113368  9939 net.cpp:155] Setting up inception_5a/pool_proj
I0822 16:52:29.113373  9939 net.cpp:163] Top shape: 128 128 7 7 (802816)
I0822 16:52:29.113379  9939 layer_factory.hpp:76] Creating layer inception_5a/relu_pool_proj
I0822 16:52:29.113386  9939 net.cpp:110] Creating Layer inception_5a/relu_pool_proj
I0822 16:52:29.113390  9939 net.cpp:485] inception_5a/relu_pool_proj <- inception_5a/pool_proj
I0822 16:52:29.113394  9939 net.cpp:425] inception_5a/relu_pool_proj -> inception_5a/pool_proj (in-place)
I0822 16:52:29.113399  9939 net.cpp:155] Setting up inception_5a/relu_pool_proj
I0822 16:52:29.113404  9939 net.cpp:163] Top shape: 128 128 7 7 (802816)
I0822 16:52:29.113406  9939 layer_factory.hpp:76] Creating layer inception_5a/output
I0822 16:52:29.113410  9939 net.cpp:110] Creating Layer inception_5a/output
I0822 16:52:29.113414  9939 net.cpp:485] inception_5a/output <- inception_5a/1x1
I0822 16:52:29.113416  9939 net.cpp:485] inception_5a/output <- inception_5a/3x3
I0822 16:52:29.113420  9939 net.cpp:485] inception_5a/output <- inception_5a/5x5
I0822 16:52:29.113426  9939 net.cpp:485] inception_5a/output <- inception_5a/pool_proj
I0822 16:52:29.113430  9939 net.cpp:438] inception_5a/output -> inception_5a/output
I0822 16:52:29.113438  9939 net.cpp:155] Setting up inception_5a/output
I0822 16:52:29.113442  9939 net.cpp:163] Top shape: 128 832 7 7 (5218304)
I0822 16:52:29.113445  9939 layer_factory.hpp:76] Creating layer inception_5a/output_inception_5a/output_0_split
I0822 16:52:29.113451  9939 net.cpp:110] Creating Layer inception_5a/output_inception_5a/output_0_split
I0822 16:52:29.113453  9939 net.cpp:485] inception_5a/output_inception_5a/output_0_split <- inception_5a/output
I0822 16:52:29.113458  9939 net.cpp:438] inception_5a/output_inception_5a/output_0_split -> inception_5a/output_inception_5a/output_0_split_0
I0822 16:52:29.113463  9939 net.cpp:438] inception_5a/output_inception_5a/output_0_split -> inception_5a/output_inception_5a/output_0_split_1
I0822 16:52:29.113468  9939 net.cpp:438] inception_5a/output_inception_5a/output_0_split -> inception_5a/output_inception_5a/output_0_split_2
I0822 16:52:29.113473  9939 net.cpp:438] inception_5a/output_inception_5a/output_0_split -> inception_5a/output_inception_5a/output_0_split_3
I0822 16:52:29.113484  9939 net.cpp:155] Setting up inception_5a/output_inception_5a/output_0_split
I0822 16:52:29.113488  9939 net.cpp:163] Top shape: 128 832 7 7 (5218304)
I0822 16:52:29.113492  9939 net.cpp:163] Top shape: 128 832 7 7 (5218304)
I0822 16:52:29.113494  9939 net.cpp:163] Top shape: 128 832 7 7 (5218304)
I0822 16:52:29.113497  9939 net.cpp:163] Top shape: 128 832 7 7 (5218304)
I0822 16:52:29.113500  9939 layer_factory.hpp:76] Creating layer inception_5b/1x1
I0822 16:52:29.113507  9939 net.cpp:110] Creating Layer inception_5b/1x1
I0822 16:52:29.113509  9939 net.cpp:485] inception_5b/1x1 <- inception_5a/output_inception_5a/output_0_split_0
I0822 16:52:29.113514  9939 net.cpp:438] inception_5b/1x1 -> inception_5b/1x1
I0822 16:52:29.115444  9939 net.cpp:155] Setting up inception_5b/1x1
I0822 16:52:29.115452  9939 net.cpp:163] Top shape: 128 384 7 7 (2408448)
I0822 16:52:29.115456  9939 layer_factory.hpp:76] Creating layer inception_5b/relu_1x1
I0822 16:52:29.115461  9939 net.cpp:110] Creating Layer inception_5b/relu_1x1
I0822 16:52:29.115464  9939 net.cpp:485] inception_5b/relu_1x1 <- inception_5b/1x1
I0822 16:52:29.115468  9939 net.cpp:425] inception_5b/relu_1x1 -> inception_5b/1x1 (in-place)
I0822 16:52:29.115478  9939 net.cpp:155] Setting up inception_5b/relu_1x1
I0822 16:52:29.115483  9939 net.cpp:163] Top shape: 128 384 7 7 (2408448)
I0822 16:52:29.115485  9939 layer_factory.hpp:76] Creating layer inception_5b/3x3_reduce
I0822 16:52:29.115490  9939 net.cpp:110] Creating Layer inception_5b/3x3_reduce
I0822 16:52:29.115494  9939 net.cpp:485] inception_5b/3x3_reduce <- inception_5a/output_inception_5a/output_0_split_1
I0822 16:52:29.115499  9939 net.cpp:438] inception_5b/3x3_reduce -> inception_5b/3x3_reduce
I0822 16:52:29.116462  9939 net.cpp:155] Setting up inception_5b/3x3_reduce
I0822 16:52:29.116468  9939 net.cpp:163] Top shape: 128 192 7 7 (1204224)
I0822 16:52:29.116473  9939 layer_factory.hpp:76] Creating layer inception_5b/relu_3x3_reduce
I0822 16:52:29.116477  9939 net.cpp:110] Creating Layer inception_5b/relu_3x3_reduce
I0822 16:52:29.116482  9939 net.cpp:485] inception_5b/relu_3x3_reduce <- inception_5b/3x3_reduce
I0822 16:52:29.116484  9939 net.cpp:425] inception_5b/relu_3x3_reduce -> inception_5b/3x3_reduce (in-place)
I0822 16:52:29.116490  9939 net.cpp:155] Setting up inception_5b/relu_3x3_reduce
I0822 16:52:29.116494  9939 net.cpp:163] Top shape: 128 192 7 7 (1204224)
I0822 16:52:29.116497  9939 layer_factory.hpp:76] Creating layer inception_5b/3x3
I0822 16:52:29.116503  9939 net.cpp:110] Creating Layer inception_5b/3x3
I0822 16:52:29.116505  9939 net.cpp:485] inception_5b/3x3 <- inception_5b/3x3_reduce
I0822 16:52:29.116510  9939 net.cpp:438] inception_5b/3x3 -> inception_5b/3x3
I0822 16:52:29.120455  9939 net.cpp:155] Setting up inception_5b/3x3
I0822 16:52:29.120463  9939 net.cpp:163] Top shape: 128 384 7 7 (2408448)
I0822 16:52:29.120471  9939 layer_factory.hpp:76] Creating layer inception_5b/relu_3x3
I0822 16:52:29.120476  9939 net.cpp:110] Creating Layer inception_5b/relu_3x3
I0822 16:52:29.120481  9939 net.cpp:485] inception_5b/relu_3x3 <- inception_5b/3x3
I0822 16:52:29.120484  9939 net.cpp:425] inception_5b/relu_3x3 -> inception_5b/3x3 (in-place)
I0822 16:52:29.120489  9939 net.cpp:155] Setting up inception_5b/relu_3x3
I0822 16:52:29.120493  9939 net.cpp:163] Top shape: 128 384 7 7 (2408448)
I0822 16:52:29.120496  9939 layer_factory.hpp:76] Creating layer inception_5b/5x5_reduce
I0822 16:52:29.120501  9939 net.cpp:110] Creating Layer inception_5b/5x5_reduce
I0822 16:52:29.120504  9939 net.cpp:485] inception_5b/5x5_reduce <- inception_5a/output_inception_5a/output_0_split_2
I0822 16:52:29.120509  9939 net.cpp:438] inception_5b/5x5_reduce -> inception_5b/5x5_reduce
I0822 16:52:29.120770  9939 net.cpp:155] Setting up inception_5b/5x5_reduce
I0822 16:52:29.120775  9939 net.cpp:163] Top shape: 128 48 7 7 (301056)
I0822 16:52:29.120780  9939 layer_factory.hpp:76] Creating layer inception_5b/relu_5x5_reduce
I0822 16:52:29.120785  9939 net.cpp:110] Creating Layer inception_5b/relu_5x5_reduce
I0822 16:52:29.120789  9939 net.cpp:485] inception_5b/relu_5x5_reduce <- inception_5b/5x5_reduce
I0822 16:52:29.120792  9939 net.cpp:425] inception_5b/relu_5x5_reduce -> inception_5b/5x5_reduce (in-place)
I0822 16:52:29.120797  9939 net.cpp:155] Setting up inception_5b/relu_5x5_reduce
I0822 16:52:29.120801  9939 net.cpp:163] Top shape: 128 48 7 7 (301056)
I0822 16:52:29.120805  9939 layer_factory.hpp:76] Creating layer inception_5b/5x5
I0822 16:52:29.120810  9939 net.cpp:110] Creating Layer inception_5b/5x5
I0822 16:52:29.120812  9939 net.cpp:485] inception_5b/5x5 <- inception_5b/5x5_reduce
I0822 16:52:29.120817  9939 net.cpp:438] inception_5b/5x5 -> inception_5b/5x5
I0822 16:52:29.121747  9939 net.cpp:155] Setting up inception_5b/5x5
I0822 16:52:29.121753  9939 net.cpp:163] Top shape: 128 128 7 7 (802816)
I0822 16:52:29.121758  9939 layer_factory.hpp:76] Creating layer inception_5b/relu_5x5
I0822 16:52:29.121762  9939 net.cpp:110] Creating Layer inception_5b/relu_5x5
I0822 16:52:29.121765  9939 net.cpp:485] inception_5b/relu_5x5 <- inception_5b/5x5
I0822 16:52:29.121770  9939 net.cpp:425] inception_5b/relu_5x5 -> inception_5b/5x5 (in-place)
I0822 16:52:29.121775  9939 net.cpp:155] Setting up inception_5b/relu_5x5
I0822 16:52:29.121779  9939 net.cpp:163] Top shape: 128 128 7 7 (802816)
I0822 16:52:29.121781  9939 layer_factory.hpp:76] Creating layer inception_5b/pool
I0822 16:52:29.121786  9939 net.cpp:110] Creating Layer inception_5b/pool
I0822 16:52:29.121790  9939 net.cpp:485] inception_5b/pool <- inception_5a/output_inception_5a/output_0_split_3
I0822 16:52:29.121794  9939 net.cpp:438] inception_5b/pool -> inception_5b/pool
I0822 16:52:29.121805  9939 net.cpp:155] Setting up inception_5b/pool
I0822 16:52:29.121809  9939 net.cpp:163] Top shape: 128 832 7 7 (5218304)
I0822 16:52:29.121812  9939 layer_factory.hpp:76] Creating layer inception_5b/pool_proj
I0822 16:52:29.121819  9939 net.cpp:110] Creating Layer inception_5b/pool_proj
I0822 16:52:29.121821  9939 net.cpp:485] inception_5b/pool_proj <- inception_5b/pool
I0822 16:52:29.121826  9939 net.cpp:438] inception_5b/pool_proj -> inception_5b/pool_proj
I0822 16:52:29.122478  9939 net.cpp:155] Setting up inception_5b/pool_proj
I0822 16:52:29.122483  9939 net.cpp:163] Top shape: 128 128 7 7 (802816)
I0822 16:52:29.122488  9939 layer_factory.hpp:76] Creating layer inception_5b/relu_pool_proj
I0822 16:52:29.122493  9939 net.cpp:110] Creating Layer inception_5b/relu_pool_proj
I0822 16:52:29.122495  9939 net.cpp:485] inception_5b/relu_pool_proj <- inception_5b/pool_proj
I0822 16:52:29.122499  9939 net.cpp:425] inception_5b/relu_pool_proj -> inception_5b/pool_proj (in-place)
I0822 16:52:29.122504  9939 net.cpp:155] Setting up inception_5b/relu_pool_proj
I0822 16:52:29.122509  9939 net.cpp:163] Top shape: 128 128 7 7 (802816)
I0822 16:52:29.122511  9939 layer_factory.hpp:76] Creating layer inception_5b/output
I0822 16:52:29.122519  9939 net.cpp:110] Creating Layer inception_5b/output
I0822 16:52:29.122522  9939 net.cpp:485] inception_5b/output <- inception_5b/1x1
I0822 16:52:29.122526  9939 net.cpp:485] inception_5b/output <- inception_5b/3x3
I0822 16:52:29.122529  9939 net.cpp:485] inception_5b/output <- inception_5b/5x5
I0822 16:52:29.122532  9939 net.cpp:485] inception_5b/output <- inception_5b/pool_proj
I0822 16:52:29.122536  9939 net.cpp:438] inception_5b/output -> inception_5b/output
I0822 16:52:29.122545  9939 net.cpp:155] Setting up inception_5b/output
I0822 16:52:29.122550  9939 net.cpp:163] Top shape: 128 1024 7 7 (6422528)
I0822 16:52:29.122552  9939 layer_factory.hpp:76] Creating layer pool5/7x7_s1
I0822 16:52:29.122557  9939 net.cpp:110] Creating Layer pool5/7x7_s1
I0822 16:52:29.122560  9939 net.cpp:485] pool5/7x7_s1 <- inception_5b/output
I0822 16:52:29.122565  9939 net.cpp:438] pool5/7x7_s1 -> pool5/7x7_s1
I0822 16:52:29.122572  9939 net.cpp:155] Setting up pool5/7x7_s1
I0822 16:52:29.122576  9939 net.cpp:163] Top shape: 128 1024 1 1 (131072)
I0822 16:52:29.122580  9939 layer_factory.hpp:76] Creating layer fc6
I0822 16:52:29.122584  9939 net.cpp:110] Creating Layer fc6
I0822 16:52:29.122587  9939 net.cpp:485] fc6 <- pool5/7x7_s1
I0822 16:52:29.122591  9939 net.cpp:438] fc6 -> fc6
I0822 16:52:29.123620  9939 net.cpp:155] Setting up fc6
I0822 16:52:29.123628  9939 net.cpp:163] Top shape: 128 1000 (128000)
I0822 16:52:29.123635  9939 layer_factory.hpp:76] Creating layer fc6/relu
I0822 16:52:29.123639  9939 net.cpp:110] Creating Layer fc6/relu
I0822 16:52:29.123642  9939 net.cpp:485] fc6/relu <- fc6
I0822 16:52:29.123646  9939 net.cpp:425] fc6/relu -> fc6 (in-place)
I0822 16:52:29.123652  9939 net.cpp:155] Setting up fc6/relu
I0822 16:52:29.123656  9939 net.cpp:163] Top shape: 128 1000 (128000)
I0822 16:52:29.123659  9939 net.cpp:244] fc6/relu does not need backward computation.
I0822 16:52:29.123662  9939 net.cpp:244] fc6 does not need backward computation.
I0822 16:52:29.123666  9939 net.cpp:244] pool5/7x7_s1 does not need backward computation.
I0822 16:52:29.123668  9939 net.cpp:244] inception_5b/output does not need backward computation.
I0822 16:52:29.123672  9939 net.cpp:244] inception_5b/relu_pool_proj does not need backward computation.
…
